…
I0112 19:13:55.040869 27090 solver.cpp:58] Creating training net from train_net file: weak2/config/adapt/train_train.prototxt
I0112 19:13:55.041594 27090 net.cpp:39] Initializing net from parameters: 
name: "adapt"
layers {
  top: "data"
  top: "label_strong"
  name: "data"
  type: IMAGE_SEG_DATA
  image_data_param {
    source: "weak2/list/train.txt"
    batch_size: 10
    shuffle: true
    root_folder: "/home/zhangzhengqiang/git/deeplab-public//data/pascal/VOCdevkit/VOC2012"
    label_type: PIXEL
  }
  include {
    phase: TRAIN
  }
  transform_param {
    mirror: true
    crop_size: 321
    mean_value: 104.008
    mean_value: 116.669
    mean_value: 122.675
  }
}
layers {
  bottom: "label_strong"
  top: "label_weak"
  name: "label_weak"
  type: UNIQUE_LABEL
  include {
    phase: TRAIN
  }
  unique_label_param {
    max_labels: 10
    ignore_label: 255
  }
}
layers {
  bottom: "data"
  top: "conv1_1"
  name: "conv1_1"
  type: CONVOLUTION
  blobs_lr: 1
  blobs_lr: 2
  weight_decay: 1
  weight_decay: 0
  convolution_param {
    num_output: 64
    pad: 1
    kernel_size: 3
  }
}
layers {
  bottom: "conv1_1"
  top: "conv1_1"
  name: "relu1_1"
  type: RELU
}
layers {
  bottom: "conv1_1"
  top: "conv1_2"
  name: "conv1_2"
  type: CONVOLUTION
  blobs_lr: 1
  blobs_lr: 2
  weight_decay: 1
  weight_decay: 0
  convolution_param {
    num_output: 64
    pad: 1
    kernel_size: 3
  }
}
layers {
  bottom: "conv1_2"
  top: "conv1_2"
  name: "relu1_2"
  type: RELU
}
layers {
  bottom: "conv1_2"
  top: "pool1"
  name: "pool1"
  type: POOLING
  pooling_param {
    pool: MAX
    kernel_size: 3
    stride: 2
    pad: 1
  }
}
layers {
  bottom: "pool1"
  top: "conv2_1"
  name: "conv2_1"
  type: CONVOLUTION
  blobs_lr: 1
  blobs_lr: 2
  weight_decay: 1
  weight_decay: 0
  convolution_param {
    num_output: 128
    pad: 1
    kernel_size: 3
  }
}
layers {
  bottom: "conv2_1"
  top: "conv2_1"
  name: "relu2_1"
  type: RELU
}
layers {
  bottom: "conv2_1"
  top: "conv2_2"
  name: "conv2_2"
  type: CONVOLUTION
  blobs_lr: 1
  blobs_lr: 2
  weight_decay: 1
  weight_decay: 0
  convolution_param {
    num_output: 128
    pad: 1
    kernel_size: 3
  }
}
layers {
  bottom: "conv2_2"
  top: "conv2_2"
  name: "relu2_2"
  type: RELU
}
layers {
  bottom: "conv2_2"
  top: "pool2"
  name: "pool2"
  type: POOLING
  pooling_param {
    pool: MAX
    kernel_size: 3
    stride: 2
    pad: 1
  }
}
layers {
  bottom: "pool2"
  top: "conv3_1"
  name: "conv3_1"
  type: CONVOLUTION
  blobs_lr: 1
  blobs_lr: 2
  weight_decay: 1
  weight_decay: 0
  convolution_param {
    num_output: 256
    pad: 1
    kernel_size: 3
  }
}
layers {
  bottom: "conv3_1"
  top: "conv3_1"
  name: "relu3_1"
  type: RELU
}
layers {
  bottom: "conv3_1"
  top: "conv3_2"
  name: "conv3_2"
  type: CONVOLUTION
  blobs_lr: 1
  blobs_lr: 2
  weight_decay: 1
  weight_decay: 0
  convolution_param {
    num_output: 256
    pad: 1
    kernel_size: 3
  }
}
layers {
  bottom: "conv3_2"
  top: "conv3_2"
  name: "relu3_2"
  type: RELU
}
layers {
  bottom: "conv3_2"
  top: "conv3_3"
  name: "conv3_3"
  type: CONVOLUTION
  blobs_lr: 1
  blobs_lr: 2
  weight_decay: 1
  weight_decay: 0
  convolution_param {
    num_output: 256
    pad: 1
    kernel_size: 3
  }
}
layers {
  bottom: "conv3_3"
  top: "conv3_3"
  name: "relu3_3"
  type: RELU
}
layers {
  bottom: "conv3_3"
  top: "pool3"
  name: "pool3"
  type: POOLING
  pooling_param {
    pool: MAX
    kernel_size: 3
    stride: 2
    pad: 1
  }
}
layers {
  bottom: "pool3"
  top: "conv4_1"
  name: "conv4_1"
  type: CONVOLUTION
  blobs_lr: 1
  blobs_lr: 2
  weight_decay: 1
  weight_decay: 0
  convolution_param {
    num_output: 512
    pad: 1
    kernel_size: 3
  }
}
layers {
  bottom: "conv4_1"
  top: "conv4_1"
  name: "relu4_1"
  type: RELU
}
layers {
  bottom: "conv4_1"
  top: "conv4_2"
  name: "conv4_2"
  type: CONVOLUTION
  blobs_lr: 1
  blobs_lr: 2
  weight_decay: 1
  weight_decay: 0
  convolution_param {
    num_output: 512
    pad: 1
    kernel_size: 3
  }
}
layers {
  bottom: "conv4_2"
  top: "conv4_2"
  name: "relu4_2"
  type: RELU
}
layers {
  bottom: "conv4_2"
  top: "conv4_3"
  name: "conv4_3"
  type: CONVOLUTION
  blobs_lr: 1
  blobs_lr: 2
  weight_decay: 1
  weight_decay: 0
  convolution_param {
    num_output: 512
    pad: 1
    kernel_size: 3
  }
}
layers {
  bottom: "conv4_3"
  top: "conv4_3"
  name: "relu4_3"
  type: RELU
}
layers {
  bottom: "conv4_3"
  top: "pool4"
  name: "pool4"
  type: POOLING
  pooling_param {
    pool: MAX
    kernel_size: 3
    stride: 1
    pad: 1
  }
}
layers {
  bottom: "pool4"
  top: "conv5_1"
  name: "conv5_1"
  type: CONVOLUTION
  blobs_lr: 1
  blobs_lr: 2
  weight_decay: 1
  weight_decay: 0
  convolution_param {
    num_output: 512
    pad: 2
    kernel_size: 3
    hole: 2
  }
}
layers {
  bottom: "conv5_1"
  top: "conv5_1"
  name: "relu5_1"
  type: RELU
}
layers {
  bottom: "conv5_1"
  top: "conv5_2"
  name: "conv5_2"
  type: CONVOLUTION
  blobs_lr: 1
  blobs_lr: 2
  weight_decay: 1
  weight_decay: 0
  convolution_param {
    num_output: 512
    pad: 2
    kernel_size: 3
    hole: 2
  }
}
layers {
  bottom: "conv5_2"
  top: "conv5_2"
  name: "relu5_2"
  type: RELU
}
layers {
  bottom: "conv5_2"
  top: "conv5_3"
  name: "conv5_3"
  type: CONVOLUTION
  blobs_lr: 1
  blobs_lr: 2
  weight_decay: 1
  weight_decay: 0
  convolution_param {
    num_output: 512
    pad: 2
    kernel_size: 3
    hole: 2
  }
}
layers {
  bottom: "conv5_3"
  top: "conv5_3"
  name: "relu5_3"
  type: RELU
}
layers {
  bottom: "conv5_3"
  top: "pool5"
  name: "pool5"
  type: POOLING
  pooling_param {
    pool: MAX
    kernel_size: 3
    stride: 1
    pad: 1
  }
}
layers {
  bottom: "pool5"
  top: "fc6"
  name: "fc6"
  type: CONVOLUTION
  blobs_lr: 1
  blobs_lr: 2
  weight_decay: 1
  weight_decay: 0
  convolution_param {
    num_output: 4096
    pad: 6
    kernel_size: 4
    hole: 4
  }
  strict_dim: false
}
layers {
  bottom: "fc6"
  top: "fc6"
  name: "relu6"
  type: RELU
}
layers {
  bottom: "fc6"
  top: "fc6"
  name: "drop6"
  type: DROPOUT
  dropout_param {
    dropout_ratio: 0.5
  }
}
layers {
  bottom: "fc6"
  top: "fc7"
  name: "fc7"
  type: CONVOLUTION
  blobs_lr: 1
  blobs_lr: 2
  weight_decay: 1
  weight_decay: 0
  convolution_param {
    num_output: 4096
    kernel_size: 1
  }
  strict_dim: false
}
layers {
  bottom: "fc7"
  top: "fc7"
  name: "relu7"
  type: RELU
}
layers {
  bottom: "fc7"
  top: "fc7"
  name: "drop7"
  type: DROPOUT
  dropout_param {
    dropout_ratio: 0.5
  }
}
layers {
  bottom: "fc7"
  top: "fc8_weak2"
  name: "fc8_weak2"
  type: CONVOLUTION
  blobs_lr: 10
  blobs_lr: 20
  weight_decay: 1
  weight_decay: 0
  convolution_param {
    num_output: 21
    kernel_size: 1
    weight_filler {
      type: "gaussian"
      std: 0.01
    }
    bias_filler {
      type: "constant"
      value: 0
    }
  }
  strict_dim: false
}
layers {
  bottom: "fc8_weak2"
  bottom: "label_weak"
  top: "fc8_biased"
  name: "fc8_biased"
  type: ADAPTIVE_BIAS_CHANNEL
  adaptive_bias_channel_param {
    num_iter: 5
    bg_portion: 0.4
    fg_portion: 0.2
    suppress_others: true
    margin_others: 1e-05
  }
}
layers {
  bottom: "fc8_biased"
  top: "label_estep"
  name: "label_estep"
  type: ARGMAX
  argmax_param {
    out_max_val: false
    top_k: 1
  }
}
layers {
  bottom: "fc8_weak2"
  bottom: "label_estep"
  name: "loss"
  type: SOFTMAX_LOSS
  include {
    phase: TRAIN
  }
  softmaxloss_param {
    ignore_label: 255
  }
}
layers {
  bottom: "label_strong"
  top: "label_shrink"
  name: "label_shrink"
  type: INTERP
  interp_param {
    shrink_factor: 8
    pad_beg: 0
    pad_end: 0
  }
}
layers {
  bottom: "fc8_weak2"
  bottom: "label_shrink"
  top: "accuracy"
  name: "accuracy"
  type: SEG_ACCURACY
  seg_accuracy_param {
    ignore_label: 255
  }
}
state {
  phase: TRAIN
}
I0112 19:13:55.041854 27090 layer_factory.hpp:78] Creating layer data
I0112 19:13:55.041896 27090 net.cpp:67] Creating Layer data
I0112 19:13:55.041908 27090 net.cpp:356] data -> data
I0112 19:13:55.041930 27090 net.cpp:356] data -> label_strong
I0112 19:13:55.041946 27090 net.cpp:356] data -> (automatic)
I0112 19:13:55.041952 27090 net.cpp:96] Setting up data
I0112 19:13:55.041956 27090 image_seg_data_layer.cpp:45] Opening file weak2/list/train.txt
I0112 19:13:55.043412 27090 image_seg_data_layer.cpp:62] Shuffling data
I0112 19:13:55.043519 27090 image_seg_data_layer.cpp:67] A total of 1464 images.
I0112 19:13:55.046815 27090 image_seg_data_layer.cpp:113] output data size: 10,3,321,321
I0112 19:13:55.046834 27090 image_seg_data_layer.cpp:117] output label size: 10,1,321,321
I0112 19:13:55.046838 27090 image_seg_data_layer.cpp:121] output data_dim size: 10,1,1,2
I0112 19:13:55.047458 27090 net.cpp:103] Top shape: 10 3 321 321 (3091230)
I0112 19:13:55.047474 27090 net.cpp:103] Top shape: 10 1 321 321 (1030410)
I0112 19:13:55.047490 27090 net.cpp:103] Top shape: 10 1 1 2 (20)
I0112 19:13:55.047494 27090 layer_factory.hpp:78] Creating layer label_strong_data_1_split
I0112 19:13:55.047508 27090 net.cpp:67] Creating Layer label_strong_data_1_split
I0112 19:13:55.047513 27090 net.cpp:394] label_strong_data_1_split <- label_strong
I0112 19:13:55.047528 27090 net.cpp:356] label_strong_data_1_split -> label_strong_data_1_split_0
I0112 19:13:55.047536 27090 net.cpp:356] label_strong_data_1_split -> label_strong_data_1_split_1
I0112 19:13:55.047543 27090 net.cpp:96] Setting up label_strong_data_1_split
I0112 19:13:55.047547 27090 net.cpp:103] Top shape: 10 1 321 321 (1030410)
I0112 19:13:55.047550 27090 net.cpp:103] Top shape: 10 1 321 321 (1030410)
I0112 19:13:55.047554 27090 layer_factory.hpp:78] Creating layer label_weak
I0112 19:13:55.047560 27090 net.cpp:67] Creating Layer label_weak
I0112 19:13:55.047564 27090 net.cpp:394] label_weak <- label_strong_data_1_split_0
I0112 19:13:55.047569 27090 net.cpp:356] label_weak -> label_weak
I0112 19:13:55.047580 27090 net.cpp:96] Setting up label_weak
I0112 19:13:55.047585 27090 net.cpp:103] Top shape: 10 10 1 1 (100)
I0112 19:13:55.047590 27090 layer_factory.hpp:78] Creating layer conv1_1
I0112 19:13:55.047595 27090 net.cpp:67] Creating Layer conv1_1
I0112 19:13:55.047598 27090 net.cpp:394] conv1_1 <- data
I0112 19:13:55.047602 27090 net.cpp:356] conv1_1 -> conv1_1
I0112 19:13:55.047607 27090 net.cpp:96] Setting up conv1_1
I0112 19:13:55.184185 27090 net.cpp:103] Top shape: 10 64 321 321 (65946240)
I0112 19:13:55.184236 27090 layer_factory.hpp:78] Creating layer relu1_1
I0112 19:13:55.184249 27090 net.cpp:67] Creating Layer relu1_1
I0112 19:13:55.184253 27090 net.cpp:394] relu1_1 <- conv1_1
I0112 19:13:55.184262 27090 net.cpp:345] relu1_1 -> conv1_1 (in-place)
I0112 19:13:55.184270 27090 net.cpp:96] Setting up relu1_1
I0112 19:13:55.184290 27090 net.cpp:103] Top shape: 10 64 321 321 (65946240)
I0112 19:13:55.184294 27090 layer_factory.hpp:78] Creating layer conv1_2
I0112 19:13:55.184301 27090 net.cpp:67] Creating Layer conv1_2
I0112 19:13:55.184304 27090 net.cpp:394] conv1_2 <- conv1_1
I0112 19:13:55.184309 27090 net.cpp:356] conv1_2 -> conv1_2
I0112 19:13:55.184329 27090 net.cpp:96] Setting up conv1_2
I0112 19:13:55.184506 27090 net.cpp:103] Top shape: 10 64 321 321 (65946240)
I0112 19:13:55.184525 27090 layer_factory.hpp:78] Creating layer relu1_2
I0112 19:13:55.184530 27090 net.cpp:67] Creating Layer relu1_2
I0112 19:13:55.184535 27090 net.cpp:394] relu1_2 <- conv1_2
I0112 19:13:55.184540 27090 net.cpp:345] relu1_2 -> conv1_2 (in-place)
I0112 19:13:55.184543 27090 net.cpp:96] Setting up relu1_2
I0112 19:13:55.184552 27090 net.cpp:103] Top shape: 10 64 321 321 (65946240)
I0112 19:13:55.184556 27090 layer_factory.hpp:78] Creating layer pool1
I0112 19:13:55.184561 27090 layer_factory.cpp:51] CUDNN does not support padding or multiple tops. Using Caffe's own pooling layer.
I0112 19:13:55.184567 27090 net.cpp:67] Creating Layer pool1
I0112 19:13:55.184571 27090 net.cpp:394] pool1 <- conv1_2
I0112 19:13:55.184609 27090 net.cpp:356] pool1 -> pool1
I0112 19:13:55.184618 27090 net.cpp:96] Setting up pool1
I0112 19:13:55.184631 27090 net.cpp:103] Top shape: 10 64 161 161 (16589440)
I0112 19:13:55.184638 27090 layer_factory.hpp:78] Creating layer conv2_1
I0112 19:13:55.184643 27090 net.cpp:67] Creating Layer conv2_1
I0112 19:13:55.184648 27090 net.cpp:394] conv2_1 <- pool1
I0112 19:13:55.184651 27090 net.cpp:356] conv2_1 -> conv2_1
I0112 19:13:55.184656 27090 net.cpp:96] Setting up conv2_1
I0112 19:13:55.184803 27090 net.cpp:103] Top shape: 10 128 161 161 (33178880)
I0112 19:13:55.184820 27090 layer_factory.hpp:78] Creating layer relu2_1
I0112 19:13:55.184825 27090 net.cpp:67] Creating Layer relu2_1
I0112 19:13:55.184829 27090 net.cpp:394] relu2_1 <- conv2_1
I0112 19:13:55.184834 27090 net.cpp:345] relu2_1 -> conv2_1 (in-place)
I0112 19:13:55.184839 27090 net.cpp:96] Setting up relu2_1
I0112 19:13:55.184847 27090 net.cpp:103] Top shape: 10 128 161 161 (33178880)
I0112 19:13:55.184852 27090 layer_factory.hpp:78] Creating layer conv2_2
I0112 19:13:55.184857 27090 net.cpp:67] Creating Layer conv2_2
I0112 19:13:55.184860 27090 net.cpp:394] conv2_2 <- conv2_1
I0112 19:13:55.184865 27090 net.cpp:356] conv2_2 -> conv2_2
I0112 19:13:55.184870 27090 net.cpp:96] Setting up conv2_2
I0112 19:13:55.185060 27090 net.cpp:103] Top shape: 10 128 161 161 (33178880)
I0112 19:13:55.185075 27090 layer_factory.hpp:78] Creating layer relu2_2
I0112 19:13:55.185081 27090 net.cpp:67] Creating Layer relu2_2
I0112 19:13:55.185084 27090 net.cpp:394] relu2_2 <- conv2_2
I0112 19:13:55.185088 27090 net.cpp:345] relu2_2 -> conv2_2 (in-place)
I0112 19:13:55.185092 27090 net.cpp:96] Setting up relu2_2
I0112 19:13:55.185101 27090 net.cpp:103] Top shape: 10 128 161 161 (33178880)
I0112 19:13:55.185106 27090 layer_factory.hpp:78] Creating layer pool2
I0112 19:13:55.185109 27090 layer_factory.cpp:51] CUDNN does not support padding or multiple tops. Using Caffe's own pooling layer.
I0112 19:13:55.185113 27090 net.cpp:67] Creating Layer pool2
I0112 19:13:55.185117 27090 net.cpp:394] pool2 <- conv2_2
I0112 19:13:55.185122 27090 net.cpp:356] pool2 -> pool2
I0112 19:13:55.185125 27090 net.cpp:96] Setting up pool2
I0112 19:13:55.185129 27090 net.cpp:103] Top shape: 10 128 81 81 (8398080)
I0112 19:13:55.185133 27090 layer_factory.hpp:78] Creating layer conv3_1
I0112 19:13:55.185137 27090 net.cpp:67] Creating Layer conv3_1
I0112 19:13:55.185142 27090 net.cpp:394] conv3_1 <- pool2
I0112 19:13:55.185145 27090 net.cpp:356] conv3_1 -> conv3_1
I0112 19:13:55.185149 27090 net.cpp:96] Setting up conv3_1
I0112 19:13:55.185420 27090 net.cpp:103] Top shape: 10 256 81 81 (16796160)
I0112 19:13:55.185436 27090 layer_factory.hpp:78] Creating layer relu3_1
I0112 19:13:55.185441 27090 net.cpp:67] Creating Layer relu3_1
I0112 19:13:55.185444 27090 net.cpp:394] relu3_1 <- conv3_1
I0112 19:13:55.185448 27090 net.cpp:345] relu3_1 -> conv3_1 (in-place)
I0112 19:13:55.185453 27090 net.cpp:96] Setting up relu3_1
I0112 19:13:55.185461 27090 net.cpp:103] Top shape: 10 256 81 81 (16796160)
I0112 19:13:55.185465 27090 layer_factory.hpp:78] Creating layer conv3_2
I0112 19:13:55.185470 27090 net.cpp:67] Creating Layer conv3_2
I0112 19:13:55.185474 27090 net.cpp:394] conv3_2 <- conv3_1
I0112 19:13:55.185478 27090 net.cpp:356] conv3_2 -> conv3_2
I0112 19:13:55.185483 27090 net.cpp:96] Setting up conv3_2
I0112 19:13:55.185968 27090 net.cpp:103] Top shape: 10 256 81 81 (16796160)
I0112 19:13:55.185986 27090 layer_factory.hpp:78] Creating layer relu3_2
I0112 19:13:55.185992 27090 net.cpp:67] Creating Layer relu3_2
I0112 19:13:55.185997 27090 net.cpp:394] relu3_2 <- conv3_2
I0112 19:13:55.186007 27090 net.cpp:345] relu3_2 -> conv3_2 (in-place)
I0112 19:13:55.186012 27090 net.cpp:96] Setting up relu3_2
I0112 19:13:55.186020 27090 net.cpp:103] Top shape: 10 256 81 81 (16796160)
I0112 19:13:55.186024 27090 layer_factory.hpp:78] Creating layer conv3_3
I0112 19:13:55.186029 27090 net.cpp:67] Creating Layer conv3_3
I0112 19:13:55.186033 27090 net.cpp:394] conv3_3 <- conv3_2
I0112 19:13:55.186036 27090 net.cpp:356] conv3_3 -> conv3_3
I0112 19:13:55.186067 27090 net.cpp:96] Setting up conv3_3
I0112 19:13:55.187448 27090 net.cpp:103] Top shape: 10 256 81 81 (16796160)
I0112 19:13:55.187467 27090 layer_factory.hpp:78] Creating layer relu3_3
I0112 19:13:55.187474 27090 net.cpp:67] Creating Layer relu3_3
I0112 19:13:55.187477 27090 net.cpp:394] relu3_3 <- conv3_3
I0112 19:13:55.187481 27090 net.cpp:345] relu3_3 -> conv3_3 (in-place)
I0112 19:13:55.187486 27090 net.cpp:96] Setting up relu3_3
I0112 19:13:55.187496 27090 net.cpp:103] Top shape: 10 256 81 81 (16796160)
I0112 19:13:55.187502 27090 layer_factory.hpp:78] Creating layer pool3
I0112 19:13:55.187505 27090 layer_factory.cpp:51] CUDNN does not support padding or multiple tops. Using Caffe's own pooling layer.
I0112 19:13:55.187510 27090 net.cpp:67] Creating Layer pool3
I0112 19:13:55.187513 27090 net.cpp:394] pool3 <- conv3_3
I0112 19:13:55.187518 27090 net.cpp:356] pool3 -> pool3
I0112 19:13:55.187522 27090 net.cpp:96] Setting up pool3
I0112 19:13:55.187527 27090 net.cpp:103] Top shape: 10 256 41 41 (4303360)
I0112 19:13:55.187530 27090 layer_factory.hpp:78] Creating layer conv4_1
I0112 19:13:55.187536 27090 net.cpp:67] Creating Layer conv4_1
I0112 19:13:55.187538 27090 net.cpp:394] conv4_1 <- pool3
I0112 19:13:55.187543 27090 net.cpp:356] conv4_1 -> conv4_1
I0112 19:13:55.187549 27090 net.cpp:96] Setting up conv4_1
I0112 19:13:55.197299 27090 net.cpp:103] Top shape: 10 512 41 41 (8606720)
I0112 19:13:55.197331 27090 layer_factory.hpp:78] Creating layer relu4_1
I0112 19:13:55.197345 27090 net.cpp:67] Creating Layer relu4_1
I0112 19:13:55.197351 27090 net.cpp:394] relu4_1 <- conv4_1
I0112 19:13:55.197360 27090 net.cpp:345] relu4_1 -> conv4_1 (in-place)
I0112 19:13:55.197368 27090 net.cpp:96] Setting up relu4_1
I0112 19:13:55.197382 27090 net.cpp:103] Top shape: 10 512 41 41 (8606720)
I0112 19:13:55.197388 27090 layer_factory.hpp:78] Creating layer conv4_2
I0112 19:13:55.197398 27090 net.cpp:67] Creating Layer conv4_2
I0112 19:13:55.197403 27090 net.cpp:394] conv4_2 <- conv4_1
I0112 19:13:55.197410 27090 net.cpp:356] conv4_2 -> conv4_2
I0112 19:13:55.197417 27090 net.cpp:96] Setting up conv4_2
I0112 19:13:55.207682 27090 net.cpp:103] Top shape: 10 512 41 41 (8606720)
I0112 19:13:55.207705 27090 layer_factory.hpp:78] Creating layer relu4_2
I0112 19:13:55.207711 27090 net.cpp:67] Creating Layer relu4_2
I0112 19:13:55.207715 27090 net.cpp:394] relu4_2 <- conv4_2
I0112 19:13:55.207720 27090 net.cpp:345] relu4_2 -> conv4_2 (in-place)
I0112 19:13:55.207726 27090 net.cpp:96] Setting up relu4_2
I0112 19:13:55.207734 27090 net.cpp:103] Top shape: 10 512 41 41 (8606720)
I0112 19:13:55.207741 27090 layer_factory.hpp:78] Creating layer conv4_3
I0112 19:13:55.207749 27090 net.cpp:67] Creating Layer conv4_3
I0112 19:13:55.207752 27090 net.cpp:394] conv4_3 <- conv4_2
I0112 19:13:55.207757 27090 net.cpp:356] conv4_3 -> conv4_3
I0112 19:13:55.207765 27090 net.cpp:96] Setting up conv4_3
I0112 19:13:55.213395 27090 net.cpp:103] Top shape: 10 512 41 41 (8606720)
I0112 19:13:55.213418 27090 layer_factory.hpp:78] Creating layer relu4_3
I0112 19:13:55.213426 27090 net.cpp:67] Creating Layer relu4_3
I0112 19:13:55.213430 27090 net.cpp:394] relu4_3 <- conv4_3
I0112 19:13:55.213435 27090 net.cpp:345] relu4_3 -> conv4_3 (in-place)
I0112 19:13:55.213440 27090 net.cpp:96] Setting up relu4_3
I0112 19:13:55.213449 27090 net.cpp:103] Top shape: 10 512 41 41 (8606720)
I0112 19:13:55.213452 27090 layer_factory.hpp:78] Creating layer pool4
I0112 19:13:55.213456 27090 layer_factory.cpp:51] CUDNN does not support padding or multiple tops. Using Caffe's own pooling layer.
I0112 19:13:55.213461 27090 net.cpp:67] Creating Layer pool4
I0112 19:13:55.213464 27090 net.cpp:394] pool4 <- conv4_3
I0112 19:13:55.213469 27090 net.cpp:356] pool4 -> pool4
I0112 19:13:55.213476 27090 net.cpp:96] Setting up pool4
I0112 19:13:55.213481 27090 net.cpp:103] Top shape: 10 512 41 41 (8606720)
I0112 19:13:55.213485 27090 layer_factory.hpp:78] Creating layer conv5_1
I0112 19:13:55.213490 27090 net.cpp:67] Creating Layer conv5_1
I0112 19:13:55.213521 27090 net.cpp:394] conv5_1 <- pool4
I0112 19:13:55.213528 27090 net.cpp:356] conv5_1 -> conv5_1
I0112 19:13:55.213534 27090 net.cpp:96] Setting up conv5_1
I0112 19:13:55.217110 27090 net.cpp:103] Top shape: 10 512 41 41 (8606720)
I0112 19:13:55.217135 27090 layer_factory.hpp:78] Creating layer relu5_1
I0112 19:13:55.217142 27090 net.cpp:67] Creating Layer relu5_1
I0112 19:13:55.217146 27090 net.cpp:394] relu5_1 <- conv5_1
I0112 19:13:55.217152 27090 net.cpp:345] relu5_1 -> conv5_1 (in-place)
I0112 19:13:55.217157 27090 net.cpp:96] Setting up relu5_1
I0112 19:13:55.217169 27090 net.cpp:103] Top shape: 10 512 41 41 (8606720)
I0112 19:13:55.217175 27090 layer_factory.hpp:78] Creating layer conv5_2
I0112 19:13:55.217187 27090 net.cpp:67] Creating Layer conv5_2
I0112 19:13:55.217193 27090 net.cpp:394] conv5_2 <- conv5_1
I0112 19:13:55.217202 27090 net.cpp:356] conv5_2 -> conv5_2
I0112 19:13:55.217219 27090 net.cpp:96] Setting up conv5_2
I0112 19:13:55.220137 27090 net.cpp:103] Top shape: 10 512 41 41 (8606720)
I0112 19:13:55.220160 27090 layer_factory.hpp:78] Creating layer relu5_2
I0112 19:13:55.220168 27090 net.cpp:67] Creating Layer relu5_2
I0112 19:13:55.220173 27090 net.cpp:394] relu5_2 <- conv5_2
I0112 19:13:55.220178 27090 net.cpp:345] relu5_2 -> conv5_2 (in-place)
I0112 19:13:55.220185 27090 net.cpp:96] Setting up relu5_2
I0112 19:13:55.220199 27090 net.cpp:103] Top shape: 10 512 41 41 (8606720)
I0112 19:13:55.220211 27090 layer_factory.hpp:78] Creating layer conv5_3
I0112 19:13:55.220224 27090 net.cpp:67] Creating Layer conv5_3
I0112 19:13:55.220233 27090 net.cpp:394] conv5_3 <- conv5_2
I0112 19:13:55.220242 27090 net.cpp:356] conv5_3 -> conv5_3
I0112 19:13:55.220252 27090 net.cpp:96] Setting up conv5_3
I0112 19:13:55.223762 27090 net.cpp:103] Top shape: 10 512 41 41 (8606720)
I0112 19:13:55.223785 27090 layer_factory.hpp:78] Creating layer relu5_3
I0112 19:13:55.223800 27090 net.cpp:67] Creating Layer relu5_3
I0112 19:13:55.223804 27090 net.cpp:394] relu5_3 <- conv5_3
I0112 19:13:55.223809 27090 net.cpp:345] relu5_3 -> conv5_3 (in-place)
I0112 19:13:55.223814 27090 net.cpp:96] Setting up relu5_3
I0112 19:13:55.223824 27090 net.cpp:103] Top shape: 10 512 41 41 (8606720)
I0112 19:13:55.223827 27090 layer_factory.hpp:78] Creating layer pool5
I0112 19:13:55.223831 27090 layer_factory.cpp:51] CUDNN does not support padding or multiple tops. Using Caffe's own pooling layer.
I0112 19:13:55.223839 27090 net.cpp:67] Creating Layer pool5
I0112 19:13:55.223842 27090 net.cpp:394] pool5 <- conv5_3
I0112 19:13:55.223846 27090 net.cpp:356] pool5 -> pool5
I0112 19:13:55.223851 27090 net.cpp:96] Setting up pool5
I0112 19:13:55.223857 27090 net.cpp:103] Top shape: 10 512 41 41 (8606720)
I0112 19:13:55.223860 27090 layer_factory.hpp:78] Creating layer fc6
I0112 19:13:55.223867 27090 net.cpp:67] Creating Layer fc6
I0112 19:13:55.223870 27090 net.cpp:394] fc6 <- pool5
I0112 19:13:55.223875 27090 net.cpp:356] fc6 -> fc6
I0112 19:13:55.223879 27090 net.cpp:96] Setting up fc6
I0112 19:13:55.259860 27090 net.cpp:103] Top shape: 10 4096 41 41 (68853760)
I0112 19:13:55.259920 27090 layer_factory.hpp:78] Creating layer relu6
I0112 19:13:55.259935 27090 net.cpp:67] Creating Layer relu6
I0112 19:13:55.259940 27090 net.cpp:394] relu6 <- fc6
I0112 19:13:55.259948 27090 net.cpp:345] relu6 -> fc6 (in-place)
I0112 19:13:55.259956 27090 net.cpp:96] Setting up relu6
I0112 19:13:55.259969 27090 net.cpp:103] Top shape: 10 4096 41 41 (68853760)
I0112 19:13:55.259974 27090 layer_factory.hpp:78] Creating layer drop6
I0112 19:13:55.259996 27090 net.cpp:67] Creating Layer drop6
I0112 19:13:55.259999 27090 net.cpp:394] drop6 <- fc6
I0112 19:13:55.260004 27090 net.cpp:345] drop6 -> fc6 (in-place)
I0112 19:13:55.260012 27090 net.cpp:96] Setting up drop6
I0112 19:13:55.260020 27090 net.cpp:103] Top shape: 10 4096 41 41 (68853760)
I0112 19:13:55.260026 27090 layer_factory.hpp:78] Creating layer fc7
I0112 19:13:55.260036 27090 net.cpp:67] Creating Layer fc7
I0112 19:13:55.260046 27090 net.cpp:394] fc7 <- fc6
I0112 19:13:55.260054 27090 net.cpp:356] fc7 -> fc7
I0112 19:13:55.260108 27090 net.cpp:96] Setting up fc7
I0112 19:13:55.278514 27090 net.cpp:103] Top shape: 10 4096 41 41 (68853760)
I0112 19:13:55.278561 27090 layer_factory.hpp:78] Creating layer relu7
I0112 19:13:55.278573 27090 net.cpp:67] Creating Layer relu7
I0112 19:13:55.278584 27090 net.cpp:394] relu7 <- fc7
I0112 19:13:55.278591 27090 net.cpp:345] relu7 -> fc7 (in-place)
I0112 19:13:55.278599 27090 net.cpp:96] Setting up relu7
I0112 19:13:55.278610 27090 net.cpp:103] Top shape: 10 4096 41 41 (68853760)
I0112 19:13:55.278614 27090 layer_factory.hpp:78] Creating layer drop7
I0112 19:13:55.278622 27090 net.cpp:67] Creating Layer drop7
I0112 19:13:55.278625 27090 net.cpp:394] drop7 <- fc7
I0112 19:13:55.278630 27090 net.cpp:345] drop7 -> fc7 (in-place)
I0112 19:13:55.278635 27090 net.cpp:96] Setting up drop7
I0112 19:13:55.278640 27090 net.cpp:103] Top shape: 10 4096 41 41 (68853760)
I0112 19:13:55.278647 27090 layer_factory.hpp:78] Creating layer fc8_weak2
I0112 19:13:55.278661 27090 net.cpp:67] Creating Layer fc8_weak2
I0112 19:13:55.278672 27090 net.cpp:394] fc8_weak2 <- fc7
I0112 19:13:55.278681 27090 net.cpp:356] fc8_weak2 -> fc8_weak2
I0112 19:13:55.278690 27090 net.cpp:96] Setting up fc8_weak2
I0112 19:13:55.280191 27090 net.cpp:103] Top shape: 10 21 41 41 (353010)
I0112 19:13:55.280215 27090 layer_factory.hpp:78] Creating layer fc8_weak2_fc8_weak2_0_split
I0112 19:13:55.280228 27090 net.cpp:67] Creating Layer fc8_weak2_fc8_weak2_0_split
I0112 19:13:55.280236 27090 net.cpp:394] fc8_weak2_fc8_weak2_0_split <- fc8_weak2
I0112 19:13:55.280244 27090 net.cpp:356] fc8_weak2_fc8_weak2_0_split -> fc8_weak2_fc8_weak2_0_split_0
I0112 19:13:55.280254 27090 net.cpp:356] fc8_weak2_fc8_weak2_0_split -> fc8_weak2_fc8_weak2_0_split_1
I0112 19:13:55.280263 27090 net.cpp:356] fc8_weak2_fc8_weak2_0_split -> fc8_weak2_fc8_weak2_0_split_2
I0112 19:13:55.280273 27090 net.cpp:96] Setting up fc8_weak2_fc8_weak2_0_split
I0112 19:13:55.280287 27090 net.cpp:103] Top shape: 10 21 41 41 (353010)
I0112 19:13:55.280293 27090 net.cpp:103] Top shape: 10 21 41 41 (353010)
I0112 19:13:55.280297 27090 net.cpp:103] Top shape: 10 21 41 41 (353010)
I0112 19:13:55.280299 27090 layer_factory.hpp:78] Creating layer fc8_biased
I0112 19:13:55.280309 27090 net.cpp:67] Creating Layer fc8_biased
I0112 19:13:55.280315 27090 net.cpp:394] fc8_biased <- fc8_weak2_fc8_weak2_0_split_0
I0112 19:13:55.280321 27090 net.cpp:394] fc8_biased <- label_weak
I0112 19:13:55.280326 27090 net.cpp:356] fc8_biased -> fc8_biased
I0112 19:13:55.280331 27090 net.cpp:96] Setting up fc8_biased
I0112 19:13:55.280336 27090 net.cpp:103] Top shape: 10 21 41 41 (353010)
I0112 19:13:55.280339 27090 layer_factory.hpp:78] Creating layer label_estep
I0112 19:13:55.280345 27090 net.cpp:67] Creating Layer label_estep
I0112 19:13:55.280349 27090 net.cpp:394] label_estep <- fc8_biased
I0112 19:13:55.280355 27090 net.cpp:356] label_estep -> label_estep
I0112 19:13:55.280360 27090 net.cpp:96] Setting up label_estep
I0112 19:13:55.280364 27090 net.cpp:103] Top shape: 10 1 41 41 (16810)
I0112 19:13:55.280367 27090 layer_factory.hpp:78] Creating layer loss
I0112 19:13:55.280380 27090 net.cpp:67] Creating Layer loss
I0112 19:13:55.280392 27090 net.cpp:394] loss <- fc8_weak2_fc8_weak2_0_split_1
I0112 19:13:55.280400 27090 net.cpp:394] loss <- label_estep
I0112 19:13:55.280409 27090 net.cpp:356] loss -> (automatic)
I0112 19:13:55.280426 27090 net.cpp:96] Setting up loss
I0112 19:13:55.280447 27090 softmax_loss_layer.cpp:40] Weight_Loss file is not provided. Assign all one to it.
I0112 19:13:55.280457 27090 net.cpp:103] Top shape: 1 1 1 1 (1)
I0112 19:13:55.280463 27090 net.cpp:109]     with loss weight 1
I0112 19:13:55.280503 27090 layer_factory.hpp:78] Creating layer label_shrink
I0112 19:13:55.280515 27090 net.cpp:67] Creating Layer label_shrink
I0112 19:13:55.280522 27090 net.cpp:394] label_shrink <- label_strong_data_1_split_1
I0112 19:13:55.280531 27090 net.cpp:356] label_shrink -> label_shrink
I0112 19:13:55.280541 27090 net.cpp:96] Setting up label_shrink
I0112 19:13:55.280550 27090 net.cpp:103] Top shape: 10 1 41 41 (16810)
I0112 19:13:55.280597 27090 layer_factory.hpp:78] Creating layer accuracy
I0112 19:13:55.280606 27090 net.cpp:67] Creating Layer accuracy
I0112 19:13:55.280611 27090 net.cpp:394] accuracy <- fc8_weak2_fc8_weak2_0_split_2
I0112 19:13:55.280614 27090 net.cpp:394] accuracy <- label_shrink
I0112 19:13:55.280619 27090 net.cpp:356] accuracy -> accuracy
I0112 19:13:55.280628 27090 net.cpp:96] Setting up accuracy
I0112 19:13:55.280639 27090 net.cpp:103] Top shape: 1 1 1 3 (3)
I0112 19:13:55.280645 27090 net.cpp:172] accuracy does not need backward computation.
I0112 19:13:55.280648 27090 net.cpp:172] label_shrink does not need backward computation.
I0112 19:13:55.280652 27090 net.cpp:170] loss needs backward computation.
I0112 19:13:55.280655 27090 net.cpp:170] label_estep needs backward computation.
I0112 19:13:55.280658 27090 net.cpp:170] fc8_biased needs backward computation.
…
