…
I0104 11:30:24.689378 27336 solver.cpp:58] Creating training net from train_net file: weak/config/adapt/train_train.prototxt
I0104 11:30:24.691098 27336 net.cpp:39] Initializing net from parameters: 
name: "adapt"
layers {
  top: "data"
  top: "label_strong"
  name: "data"
  type: IMAGE_SEG_DATA
  image_data_param {
    source: "weak/list/train.txt"
    batch_size: 20
    shuffle: true
    root_folder: "/home/zhangzhengqiang/git/deeplab-public//data/pascal/VOCdevkit/VOC2012"
    label_type: PIXEL
  }
  include {
    phase: TRAIN
  }
  transform_param {
    mirror: true
    crop_size: 321
    mean_value: 104.008
    mean_value: 116.669
    mean_value: 122.675
  }
}
layers {
  bottom: "label_strong"
  top: "label_weak"
  name: "label_weak"
  type: UNIQUE_LABEL
  include {
    phase: TRAIN
  }
  unique_label_param {
    max_labels: 10
    ignore_label: 255
  }
}
layers {
  bottom: "data"
  top: "conv1_1"
  name: "conv1_1"
  type: CONVOLUTION
  blobs_lr: 1
  blobs_lr: 2
  weight_decay: 1
  weight_decay: 0
  convolution_param {
    num_output: 64
    pad: 1
    kernel_size: 3
  }
}
layers {
  bottom: "conv1_1"
  top: "conv1_1"
  name: "relu1_1"
  type: RELU
}
layers {
  bottom: "conv1_1"
  top: "conv1_2"
  name: "conv1_2"
  type: CONVOLUTION
  blobs_lr: 1
  blobs_lr: 2
  weight_decay: 1
  weight_decay: 0
  convolution_param {
    num_output: 64
    pad: 1
    kernel_size: 3
  }
}
layers {
  bottom: "conv1_2"
  top: "conv1_2"
  name: "relu1_2"
  type: RELU
}
layers {
  bottom: "conv1_2"
  top: "pool1"
  name: "pool1"
  type: POOLING
  pooling_param {
    pool: MAX
    kernel_size: 3
    stride: 2
    pad: 1
  }
}
layers {
  bottom: "pool1"
  top: "conv2_1"
  name: "conv2_1"
  type: CONVOLUTION
  blobs_lr: 1
  blobs_lr: 2
  weight_decay: 1
  weight_decay: 0
  convolution_param {
    num_output: 128
    pad: 1
    kernel_size: 3
  }
}
layers {
  bottom: "conv2_1"
  top: "conv2_1"
  name: "relu2_1"
  type: RELU
}
layers {
  bottom: "conv2_1"
  top: "conv2_2"
  name: "conv2_2"
  type: CONVOLUTION
  blobs_lr: 1
  blobs_lr: 2
  weight_decay: 1
  weight_decay: 0
  convolution_param {
    num_output: 128
    pad: 1
    kernel_size: 3
  }
}
layers {
  bottom: "conv2_2"
  top: "conv2_2"
  name: "relu2_2"
  type: RELU
}
layers {
  bottom: "conv2_2"
  top: "pool2"
  name: "pool2"
  type: POOLING
  pooling_param {
    pool: MAX
    kernel_size: 3
    stride: 2
    pad: 1
  }
}
layers {
  bottom: "pool2"
  top: "conv3_1"
  name: "conv3_1"
  type: CONVOLUTION
  blobs_lr: 1
  blobs_lr: 2
  weight_decay: 1
  weight_decay: 0
  convolution_param {
    num_output: 256
    pad: 1
    kernel_size: 3
  }
}
layers {
  bottom: "conv3_1"
  top: "conv3_1"
  name: "relu3_1"
  type: RELU
}
layers {
  bottom: "conv3_1"
  top: "conv3_2"
  name: "conv3_2"
  type: CONVOLUTION
  blobs_lr: 1
  blobs_lr: 2
  weight_decay: 1
  weight_decay: 0
  convolution_param {
    num_output: 256
    pad: 1
    kernel_size: 3
  }
}
layers {
  bottom: "conv3_2"
  top: "conv3_2"
  name: "relu3_2"
  type: RELU
}
layers {
  bottom: "conv3_2"
  top: "conv3_3"
  name: "conv3_3"
  type: CONVOLUTION
  blobs_lr: 1
  blobs_lr: 2
  weight_decay: 1
  weight_decay: 0
  convolution_param {
    num_output: 256
    pad: 1
    kernel_size: 3
  }
}
layers {
  bottom: "conv3_3"
  top: "conv3_3"
  name: "relu3_3"
  type: RELU
}
layers {
  bottom: "conv3_3"
  top: "pool3"
  name: "pool3"
  type: POOLING
  pooling_param {
    pool: MAX
    kernel_size: 3
    stride: 2
    pad: 1
  }
}
layers {
  bottom: "pool3"
  top: "conv4_1"
  name: "conv4_1"
  type: CONVOLUTION
  blobs_lr: 1
  blobs_lr: 2
  weight_decay: 1
  weight_decay: 0
  convolution_param {
    num_output: 512
    pad: 1
    kernel_size: 3
  }
}
layers {
  bottom: "conv4_1"
  top: "conv4_1"
  name: "relu4_1"
  type: RELU
}
layers {
  bottom: "conv4_1"
  top: "conv4_2"
  name: "conv4_2"
  type: CONVOLUTION
  blobs_lr: 1
  blobs_lr: 2
  weight_decay: 1
  weight_decay: 0
  convolution_param {
    num_output: 512
    pad: 1
    kernel_size: 3
  }
}
layers {
  bottom: "conv4_2"
  top: "conv4_2"
  name: "relu4_2"
  type: RELU
}
layers {
  bottom: "conv4_2"
  top: "conv4_3"
  name: "conv4_3"
  type: CONVOLUTION
  blobs_lr: 1
  blobs_lr: 2
  weight_decay: 1
  weight_decay: 0
  convolution_param {
    num_output: 512
    pad: 1
    kernel_size: 3
  }
}
layers {
  bottom: "conv4_3"
  top: "conv4_3"
  name: "relu4_3"
  type: RELU
}
layers {
  bottom: "conv4_3"
  top: "pool4"
  name: "pool4"
  type: POOLING
  pooling_param {
    pool: MAX
    kernel_size: 3
    stride: 1
    pad: 1
  }
}
layers {
  bottom: "pool4"
  top: "conv5_1"
  name: "conv5_1"
  type: CONVOLUTION
  blobs_lr: 1
  blobs_lr: 2
  weight_decay: 1
  weight_decay: 0
  convolution_param {
    num_output: 512
    pad: 2
    kernel_size: 3
    hole: 2
  }
}
layers {
  bottom: "conv5_1"
  top: "conv5_1"
  name: "relu5_1"
  type: RELU
}
layers {
  bottom: "conv5_1"
  top: "conv5_2"
  name: "conv5_2"
  type: CONVOLUTION
  blobs_lr: 1
  blobs_lr: 2
  weight_decay: 1
  weight_decay: 0
  convolution_param {
    num_output: 512
    pad: 2
    kernel_size: 3
    hole: 2
  }
}
layers {
  bottom: "conv5_2"
  top: "conv5_2"
  name: "relu5_2"
  type: RELU
}
layers {
  bottom: "conv5_2"
  top: "conv5_3"
  name: "conv5_3"
  type: CONVOLUTION
  blobs_lr: 1
  blobs_lr: 2
  weight_decay: 1
  weight_decay: 0
  convolution_param {
    num_output: 512
    pad: 2
    kernel_size: 3
    hole: 2
  }
}
layers {
  bottom: "conv5_3"
  top: "conv5_3"
  name: "relu5_3"
  type: RELU
}
layers {
  bottom: "conv5_3"
  top: "pool5"
  name: "pool5"
  type: POOLING
  pooling_param {
    pool: MAX
    kernel_size: 3
    stride: 1
    pad: 1
  }
}
layers {
  bottom: "pool5"
  top: "fc6"
  name: "fc6"
  type: CONVOLUTION
  blobs_lr: 1
  blobs_lr: 2
  weight_decay: 1
  weight_decay: 0
  convolution_param {
    num_output: 4096
    pad: 6
    kernel_size: 4
    hole: 4
  }
  strict_dim: false
}
layers {
  bottom: "fc6"
  top: "fc6"
  name: "relu6"
  type: RELU
}
layers {
  bottom: "fc6"
  top: "fc6"
  name: "drop6"
  type: DROPOUT
  dropout_param {
    dropout_ratio: 0.5
  }
}
layers {
  bottom: "fc6"
  top: "fc7"
  name: "fc7"
  type: CONVOLUTION
  blobs_lr: 1
  blobs_lr: 2
  weight_decay: 1
  weight_decay: 0
  convolution_param {
    num_output: 4096
    kernel_size: 1
  }
  strict_dim: false
}
layers {
  bottom: "fc7"
  top: "fc7"
  name: "relu7"
  type: RELU
}
layers {
  bottom: "fc7"
  top: "fc7"
  name: "drop7"
  type: DROPOUT
  dropout_param {
    dropout_ratio: 0.5
  }
}
layers {
  bottom: "fc7"
  top: "fc8_weak"
  name: "fc8_weak"
  type: CONVOLUTION
  blobs_lr: 10
  blobs_lr: 20
  weight_decay: 1
  weight_decay: 0
  convolution_param {
    num_output: 21
    kernel_size: 1
    weight_filler {
      type: "gaussian"
      std: 0.01
    }
    bias_filler {
      type: "constant"
      value: 0
    }
  }
  strict_dim: false
}
layers {
  bottom: "fc8_weak"
  bottom: "label_weak"
  top: "fc8_biased"
  name: "fc8_biased"
  type: ADAPTIVE_BIAS_CHANNEL
  adaptive_bias_channel_param {
    num_iter: 5
    bg_portion: 0.4
    fg_portion: 0.2
    suppress_others: true
    margin_others: 1e-05
  }
}
layers {
  bottom: "fc8_biased"
  top: "label_estep"
  name: "label_estep"
  type: ARGMAX
  argmax_param {
    out_max_val: false
    top_k: 1
  }
}
layers {
  bottom: "fc8_weak"
  bottom: "label_estep"
  name: "loss"
  type: SOFTMAX_LOSS
  include {
    phase: TRAIN
  }
  softmaxloss_param {
    ignore_label: 255
  }
}
layers {
  bottom: "label_strong"
  top: "label_shrink"
  name: "label_shrink"
  type: INTERP
  interp_param {
    shrink_factor: 8
    pad_beg: 0
    pad_end: 0
  }
}
layers {
  bottom: "fc8_weak"
  bottom: "label_shrink"
  top: "accuracy"
  name: "accuracy"
  type: SEG_ACCURACY
  seg_accuracy_param {
    ignore_label: 255
  }
}
state {
  phase: TRAIN
}
I0104 11:30:24.691296 27336 layer_factory.hpp:78] Creating layer data
I0104 11:30:24.691331 27336 net.cpp:67] Creating Layer data
I0104 11:30:24.691337 27336 net.cpp:356] data -> data
I0104 11:30:24.691359 27336 net.cpp:356] data -> label_strong
I0104 11:30:24.691370 27336 net.cpp:356] data -> (automatic)
I0104 11:30:24.691373 27336 net.cpp:96] Setting up data
I0104 11:30:24.691377 27336 image_seg_data_layer.cpp:45] Opening file weak/list/train.txt
I0104 11:30:24.692754 27336 image_seg_data_layer.cpp:62] Shuffling data
I0104 11:30:24.692847 27336 image_seg_data_layer.cpp:67] A total of 1464 images.
I0104 11:30:24.707147 27336 image_seg_data_layer.cpp:113] output data size: 20,3,321,321
I0104 11:30:24.707175 27336 image_seg_data_layer.cpp:117] output label size: 20,1,321,321
I0104 11:30:24.707180 27336 image_seg_data_layer.cpp:121] output data_dim size: 20,1,1,2
I0104 11:30:24.708101 27336 net.cpp:103] Top shape: 20 3 321 321 (6182460)
I0104 11:30:24.708120 27336 net.cpp:103] Top shape: 20 1 321 321 (2060820)
I0104 11:30:24.708125 27336 net.cpp:103] Top shape: 20 1 1 2 (40)
I0104 11:30:24.708129 27336 layer_factory.hpp:78] Creating layer label_strong_data_1_split
I0104 11:30:24.708137 27336 net.cpp:67] Creating Layer label_strong_data_1_split
I0104 11:30:24.708142 27336 net.cpp:394] label_strong_data_1_split <- label_strong
I0104 11:30:24.708158 27336 net.cpp:356] label_strong_data_1_split -> label_strong_data_1_split_0
I0104 11:30:24.708168 27336 net.cpp:356] label_strong_data_1_split -> label_strong_data_1_split_1
I0104 11:30:24.708175 27336 net.cpp:96] Setting up label_strong_data_1_split
I0104 11:30:24.708181 27336 net.cpp:103] Top shape: 20 1 321 321 (2060820)
I0104 11:30:24.708200 27336 net.cpp:103] Top shape: 20 1 321 321 (2060820)
I0104 11:30:24.708204 27336 layer_factory.hpp:78] Creating layer label_weak
I0104 11:30:24.708220 27336 net.cpp:67] Creating Layer label_weak
I0104 11:30:24.708226 27336 net.cpp:394] label_weak <- label_strong_data_1_split_0
I0104 11:30:24.708232 27336 net.cpp:356] label_weak -> label_weak
I0104 11:30:24.708238 27336 net.cpp:96] Setting up label_weak
I0104 11:30:24.708243 27336 net.cpp:103] Top shape: 20 10 1 1 (200)
I0104 11:30:24.708247 27336 layer_factory.hpp:78] Creating layer conv1_1
I0104 11:30:24.708259 27336 net.cpp:67] Creating Layer conv1_1
I0104 11:30:24.708267 27336 net.cpp:394] conv1_1 <- data
I0104 11:30:24.708272 27336 net.cpp:356] conv1_1 -> conv1_1
I0104 11:30:24.708287 27336 net.cpp:96] Setting up conv1_1
I0104 11:30:24.873911 27336 net.cpp:103] Top shape: 20 64 321 321 (131892480)
I0104 11:30:24.873966 27336 layer_factory.hpp:78] Creating layer relu1_1
I0104 11:30:24.873980 27336 net.cpp:67] Creating Layer relu1_1
I0104 11:30:24.873984 27336 net.cpp:394] relu1_1 <- conv1_1
I0104 11:30:24.874004 27336 net.cpp:345] relu1_1 -> conv1_1 (in-place)
I0104 11:30:24.874013 27336 net.cpp:96] Setting up relu1_1
I0104 11:30:24.874022 27336 net.cpp:103] Top shape: 20 64 321 321 (131892480)
I0104 11:30:24.874025 27336 layer_factory.hpp:78] Creating layer conv1_2
I0104 11:30:24.874032 27336 net.cpp:67] Creating Layer conv1_2
I0104 11:30:24.874033 27336 net.cpp:394] conv1_2 <- conv1_1
I0104 11:30:24.874038 27336 net.cpp:356] conv1_2 -> conv1_2
I0104 11:30:24.874044 27336 net.cpp:96] Setting up conv1_2
I0104 11:30:24.874209 27336 net.cpp:103] Top shape: 20 64 321 321 (131892480)
I0104 11:30:24.874225 27336 layer_factory.hpp:78] Creating layer relu1_2
I0104 11:30:24.874230 27336 net.cpp:67] Creating Layer relu1_2
I0104 11:30:24.874233 27336 net.cpp:394] relu1_2 <- conv1_2
I0104 11:30:24.874238 27336 net.cpp:345] relu1_2 -> conv1_2 (in-place)
I0104 11:30:24.874241 27336 net.cpp:96] Setting up relu1_2
I0104 11:30:24.874246 27336 net.cpp:103] Top shape: 20 64 321 321 (131892480)
I0104 11:30:24.874250 27336 layer_factory.hpp:78] Creating layer pool1
I0104 11:30:24.874253 27336 layer_factory.cpp:51] CUDNN does not support padding or multiple tops. Using Caffe's own pooling layer.
I0104 11:30:24.874258 27336 net.cpp:67] Creating Layer pool1
I0104 11:30:24.874260 27336 net.cpp:394] pool1 <- conv1_2
I0104 11:30:24.874264 27336 net.cpp:356] pool1 -> pool1
I0104 11:30:24.874269 27336 net.cpp:96] Setting up pool1
I0104 11:30:24.874291 27336 net.cpp:103] Top shape: 20 64 161 161 (33178880)
I0104 11:30:24.874310 27336 layer_factory.hpp:78] Creating layer conv2_1
I0104 11:30:24.874315 27336 net.cpp:67] Creating Layer conv2_1
I0104 11:30:24.874318 27336 net.cpp:394] conv2_1 <- pool1
I0104 11:30:24.874321 27336 net.cpp:356] conv2_1 -> conv2_1
I0104 11:30:24.874325 27336 net.cpp:96] Setting up conv2_1
I0104 11:30:24.874459 27336 net.cpp:103] Top shape: 20 128 161 161 (66357760)
I0104 11:30:24.874474 27336 layer_factory.hpp:78] Creating layer relu2_1
I0104 11:30:24.874477 27336 net.cpp:67] Creating Layer relu2_1
I0104 11:30:24.874480 27336 net.cpp:394] relu2_1 <- conv2_1
I0104 11:30:24.874485 27336 net.cpp:345] relu2_1 -> conv2_1 (in-place)
I0104 11:30:24.874500 27336 net.cpp:96] Setting up relu2_1
I0104 11:30:24.874505 27336 net.cpp:103] Top shape: 20 128 161 161 (66357760)
I0104 11:30:24.874508 27336 layer_factory.hpp:78] Creating layer conv2_2
I0104 11:30:24.874513 27336 net.cpp:67] Creating Layer conv2_2
I0104 11:30:24.874516 27336 net.cpp:394] conv2_2 <- conv2_1
I0104 11:30:24.874519 27336 net.cpp:356] conv2_2 -> conv2_2
I0104 11:30:24.874523 27336 net.cpp:96] Setting up conv2_2
I0104 11:30:24.874727 27336 net.cpp:103] Top shape: 20 128 161 161 (66357760)
I0104 11:30:24.874740 27336 layer_factory.hpp:78] Creating layer relu2_2
I0104 11:30:24.874745 27336 net.cpp:67] Creating Layer relu2_2
I0104 11:30:24.874748 27336 net.cpp:394] relu2_2 <- conv2_2
I0104 11:30:24.874752 27336 net.cpp:345] relu2_2 -> conv2_2 (in-place)
I0104 11:30:24.874755 27336 net.cpp:96] Setting up relu2_2
I0104 11:30:24.874761 27336 net.cpp:103] Top shape: 20 128 161 161 (66357760)
I0104 11:30:24.874764 27336 layer_factory.hpp:78] Creating layer pool2
I0104 11:30:24.874768 27336 layer_factory.cpp:51] CUDNN does not support padding or multiple tops. Using Caffe's own pooling layer.
I0104 11:30:24.874771 27336 net.cpp:67] Creating Layer pool2
I0104 11:30:24.874773 27336 net.cpp:394] pool2 <- conv2_2
I0104 11:30:24.874778 27336 net.cpp:356] pool2 -> pool2
I0104 11:30:24.874781 27336 net.cpp:96] Setting up pool2
I0104 11:30:24.874784 27336 net.cpp:103] Top shape: 20 128 81 81 (16796160)
I0104 11:30:24.874788 27336 layer_factory.hpp:78] Creating layer conv3_1
I0104 11:30:24.874791 27336 net.cpp:67] Creating Layer conv3_1
I0104 11:30:24.874794 27336 net.cpp:394] conv3_1 <- pool2
I0104 11:30:24.874799 27336 net.cpp:356] conv3_1 -> conv3_1
I0104 11:30:24.874804 27336 net.cpp:96] Setting up conv3_1
I0104 11:30:24.875108 27336 net.cpp:103] Top shape: 20 256 81 81 (33592320)
I0104 11:30:24.875123 27336 layer_factory.hpp:78] Creating layer relu3_1
I0104 11:30:24.875128 27336 net.cpp:67] Creating Layer relu3_1
I0104 11:30:24.875130 27336 net.cpp:394] relu3_1 <- conv3_1
I0104 11:30:24.875134 27336 net.cpp:345] relu3_1 -> conv3_1 (in-place)
I0104 11:30:24.875138 27336 net.cpp:96] Setting up relu3_1
I0104 11:30:24.875142 27336 net.cpp:103] Top shape: 20 256 81 81 (33592320)
I0104 11:30:24.875145 27336 layer_factory.hpp:78] Creating layer conv3_2
I0104 11:30:24.875149 27336 net.cpp:67] Creating Layer conv3_2
I0104 11:30:24.875152 27336 net.cpp:394] conv3_2 <- conv3_1
I0104 11:30:24.875155 27336 net.cpp:356] conv3_2 -> conv3_2
I0104 11:30:24.875159 27336 net.cpp:96] Setting up conv3_2
I0104 11:30:24.875692 27336 net.cpp:103] Top shape: 20 256 81 81 (33592320)
I0104 11:30:24.875710 27336 layer_factory.hpp:78] Creating layer relu3_2
I0104 11:30:24.875717 27336 net.cpp:67] Creating Layer relu3_2
I0104 11:30:24.875720 27336 net.cpp:394] relu3_2 <- conv3_2
I0104 11:30:24.875725 27336 net.cpp:345] relu3_2 -> conv3_2 (in-place)
I0104 11:30:24.875728 27336 net.cpp:96] Setting up relu3_2
I0104 11:30:24.875733 27336 net.cpp:103] Top shape: 20 256 81 81 (33592320)
I0104 11:30:24.875736 27336 layer_factory.hpp:78] Creating layer conv3_3
I0104 11:30:24.875741 27336 net.cpp:67] Creating Layer conv3_3
I0104 11:30:24.875743 27336 net.cpp:394] conv3_3 <- conv3_2
I0104 11:30:24.875747 27336 net.cpp:356] conv3_3 -> conv3_3
I0104 11:30:24.875769 27336 net.cpp:96] Setting up conv3_3
I0104 11:30:24.876281 27336 net.cpp:103] Top shape: 20 256 81 81 (33592320)
I0104 11:30:24.876297 27336 layer_factory.hpp:78] Creating layer relu3_3
I0104 11:30:24.876303 27336 net.cpp:67] Creating Layer relu3_3
I0104 11:30:24.876305 27336 net.cpp:394] relu3_3 <- conv3_3
I0104 11:30:24.876309 27336 net.cpp:345] relu3_3 -> conv3_3 (in-place)
I0104 11:30:24.876313 27336 net.cpp:96] Setting up relu3_3
I0104 11:30:24.876319 27336 net.cpp:103] Top shape: 20 256 81 81 (33592320)
I0104 11:30:24.876322 27336 layer_factory.hpp:78] Creating layer pool3
I0104 11:30:24.876325 27336 layer_factory.cpp:51] CUDNN does not support padding or multiple tops. Using Caffe's own pooling layer.
I0104 11:30:24.876329 27336 net.cpp:67] Creating Layer pool3
I0104 11:30:24.876332 27336 net.cpp:394] pool3 <- conv3_3
I0104 11:30:24.876335 27336 net.cpp:356] pool3 -> pool3
I0104 11:30:24.876339 27336 net.cpp:96] Setting up pool3
I0104 11:30:24.876343 27336 net.cpp:103] Top shape: 20 256 41 41 (8606720)
I0104 11:30:24.876345 27336 layer_factory.hpp:78] Creating layer conv4_1
I0104 11:30:24.876349 27336 net.cpp:67] Creating Layer conv4_1
I0104 11:30:24.876353 27336 net.cpp:394] conv4_1 <- pool3
I0104 11:30:24.876355 27336 net.cpp:356] conv4_1 -> conv4_1
I0104 11:30:24.876360 27336 net.cpp:96] Setting up conv4_1
I0104 11:30:24.888675 27336 net.cpp:103] Top shape: 20 512 41 41 (17213440)
I0104 11:30:24.888700 27336 layer_factory.hpp:78] Creating layer relu4_1
I0104 11:30:24.888707 27336 net.cpp:67] Creating Layer relu4_1
I0104 11:30:24.888711 27336 net.cpp:394] relu4_1 <- conv4_1
I0104 11:30:24.888716 27336 net.cpp:345] relu4_1 -> conv4_1 (in-place)
I0104 11:30:24.888721 27336 net.cpp:96] Setting up relu4_1
I0104 11:30:24.888727 27336 net.cpp:103] Top shape: 20 512 41 41 (17213440)
I0104 11:30:24.888731 27336 layer_factory.hpp:78] Creating layer conv4_2
I0104 11:30:24.888736 27336 net.cpp:67] Creating Layer conv4_2
I0104 11:30:24.888738 27336 net.cpp:394] conv4_2 <- conv4_1
I0104 11:30:24.888742 27336 net.cpp:356] conv4_2 -> conv4_2
I0104 11:30:24.888746 27336 net.cpp:96] Setting up conv4_2
I0104 11:30:24.892099 27336 net.cpp:103] Top shape: 20 512 41 41 (17213440)
I0104 11:30:24.892122 27336 layer_factory.hpp:78] Creating layer relu4_2
I0104 11:30:24.892128 27336 net.cpp:67] Creating Layer relu4_2
I0104 11:30:24.892132 27336 net.cpp:394] relu4_2 <- conv4_2
I0104 11:30:24.892137 27336 net.cpp:345] relu4_2 -> conv4_2 (in-place)
I0104 11:30:24.892141 27336 net.cpp:96] Setting up relu4_2
I0104 11:30:24.892148 27336 net.cpp:103] Top shape: 20 512 41 41 (17213440)
I0104 11:30:24.892150 27336 layer_factory.hpp:78] Creating layer conv4_3
I0104 11:30:24.892154 27336 net.cpp:67] Creating Layer conv4_3
I0104 11:30:24.892158 27336 net.cpp:394] conv4_3 <- conv4_2
I0104 11:30:24.892161 27336 net.cpp:356] conv4_3 -> conv4_3
I0104 11:30:24.892165 27336 net.cpp:96] Setting up conv4_3
I0104 11:30:24.895331 27336 net.cpp:103] Top shape: 20 512 41 41 (17213440)
I0104 11:30:24.895352 27336 layer_factory.hpp:78] Creating layer relu4_3
I0104 11:30:24.895359 27336 net.cpp:67] Creating Layer relu4_3
I0104 11:30:24.895361 27336 net.cpp:394] relu4_3 <- conv4_3
I0104 11:30:24.895366 27336 net.cpp:345] relu4_3 -> conv4_3 (in-place)
I0104 11:30:24.895370 27336 net.cpp:96] Setting up relu4_3
I0104 11:30:24.895376 27336 net.cpp:103] Top shape: 20 512 41 41 (17213440)
I0104 11:30:24.895380 27336 layer_factory.hpp:78] Creating layer pool4
I0104 11:30:24.895382 27336 layer_factory.cpp:51] CUDNN does not support padding or multiple tops. Using Caffe's own pooling layer.
I0104 11:30:24.895386 27336 net.cpp:67] Creating Layer pool4
I0104 11:30:24.895388 27336 net.cpp:394] pool4 <- conv4_3
I0104 11:30:24.895392 27336 net.cpp:356] pool4 -> pool4
I0104 11:30:24.895397 27336 net.cpp:96] Setting up pool4
I0104 11:30:24.895401 27336 net.cpp:103] Top shape: 20 512 41 41 (17213440)
I0104 11:30:24.895404 27336 layer_factory.hpp:78] Creating layer conv5_1
I0104 11:30:24.895409 27336 net.cpp:67] Creating Layer conv5_1
I0104 11:30:24.895412 27336 net.cpp:394] conv5_1 <- pool4
I0104 11:30:24.895416 27336 net.cpp:356] conv5_1 -> conv5_1
I0104 11:30:24.895421 27336 net.cpp:96] Setting up conv5_1
I0104 11:30:24.898643 27336 net.cpp:103] Top shape: 20 512 41 41 (17213440)
I0104 11:30:24.898663 27336 layer_factory.hpp:78] Creating layer relu5_1
I0104 11:30:24.898669 27336 net.cpp:67] Creating Layer relu5_1
I0104 11:30:24.898672 27336 net.cpp:394] relu5_1 <- conv5_1
I0104 11:30:24.898677 27336 net.cpp:345] relu5_1 -> conv5_1 (in-place)
I0104 11:30:24.898681 27336 net.cpp:96] Setting up relu5_1
I0104 11:30:24.898686 27336 net.cpp:103] Top shape: 20 512 41 41 (17213440)
I0104 11:30:24.898689 27336 layer_factory.hpp:78] Creating layer conv5_2
I0104 11:30:24.898695 27336 net.cpp:67] Creating Layer conv5_2
I0104 11:30:24.898697 27336 net.cpp:394] conv5_2 <- conv5_1
I0104 11:30:24.898702 27336 net.cpp:356] conv5_2 -> conv5_2
I0104 11:30:24.898706 27336 net.cpp:96] Setting up conv5_2
I0104 11:30:24.901583 27336 net.cpp:103] Top shape: 20 512 41 41 (17213440)
I0104 11:30:24.901603 27336 layer_factory.hpp:78] Creating layer relu5_2
I0104 11:30:24.901610 27336 net.cpp:67] Creating Layer relu5_2
I0104 11:30:24.901613 27336 net.cpp:394] relu5_2 <- conv5_2
I0104 11:30:24.901618 27336 net.cpp:345] relu5_2 -> conv5_2 (in-place)
I0104 11:30:24.901621 27336 net.cpp:96] Setting up relu5_2
I0104 11:30:24.901628 27336 net.cpp:103] Top shape: 20 512 41 41 (17213440)
I0104 11:30:24.901630 27336 layer_factory.hpp:78] Creating layer conv5_3
I0104 11:30:24.901635 27336 net.cpp:67] Creating Layer conv5_3
I0104 11:30:24.901638 27336 net.cpp:394] conv5_3 <- conv5_2
I0104 11:30:24.901643 27336 net.cpp:356] conv5_3 -> conv5_3
I0104 11:30:24.901648 27336 net.cpp:96] Setting up conv5_3
I0104 11:30:24.922480 27336 net.cpp:103] Top shape: 20 512 41 41 (17213440)
I0104 11:30:24.922504 27336 layer_factory.hpp:78] Creating layer relu5_3
I0104 11:30:24.922514 27336 net.cpp:67] Creating Layer relu5_3
I0104 11:30:24.922518 27336 net.cpp:394] relu5_3 <- conv5_3
I0104 11:30:24.922523 27336 net.cpp:345] relu5_3 -> conv5_3 (in-place)
I0104 11:30:24.922528 27336 net.cpp:96] Setting up relu5_3
I0104 11:30:24.922534 27336 net.cpp:103] Top shape: 20 512 41 41 (17213440)
I0104 11:30:24.922538 27336 layer_factory.hpp:78] Creating layer pool5
I0104 11:30:24.922540 27336 layer_factory.cpp:51] CUDNN does not support padding or multiple tops. Using Caffe's own pooling layer.
I0104 11:30:24.922545 27336 net.cpp:67] Creating Layer pool5
I0104 11:30:24.922549 27336 net.cpp:394] pool5 <- conv5_3
I0104 11:30:24.922552 27336 net.cpp:356] pool5 -> pool5
I0104 11:30:24.922557 27336 net.cpp:96] Setting up pool5
I0104 11:30:24.922574 27336 net.cpp:103] Top shape: 20 512 41 41 (17213440)
I0104 11:30:24.922579 27336 layer_factory.hpp:78] Creating layer fc6
I0104 11:30:24.922585 27336 net.cpp:67] Creating Layer fc6
I0104 11:30:24.922593 27336 net.cpp:394] fc6 <- pool5
I0104 11:30:24.922598 27336 net.cpp:356] fc6 -> fc6
I0104 11:30:24.922602 27336 net.cpp:96] Setting up fc6
I0104 11:30:24.982273 27336 net.cpp:103] Top shape: 20 4096 41 41 (137707520)
I0104 11:30:24.982318 27336 layer_factory.hpp:78] Creating layer relu6
I0104 11:30:24.982331 27336 net.cpp:67] Creating Layer relu6
I0104 11:30:24.982336 27336 net.cpp:394] relu6 <- fc6
I0104 11:30:24.982344 27336 net.cpp:345] relu6 -> fc6 (in-place)
I0104 11:30:24.982352 27336 net.cpp:96] Setting up relu6
I0104 11:30:24.982359 27336 net.cpp:103] Top shape: 20 4096 41 41 (137707520)
I0104 11:30:24.982363 27336 layer_factory.hpp:78] Creating layer drop6
I0104 11:30:24.982378 27336 net.cpp:67] Creating Layer drop6
I0104 11:30:24.982380 27336 net.cpp:394] drop6 <- fc6
I0104 11:30:24.982384 27336 net.cpp:345] drop6 -> fc6 (in-place)
I0104 11:30:24.982389 27336 net.cpp:96] Setting up drop6
I0104 11:30:24.982393 27336 net.cpp:103] Top shape: 20 4096 41 41 (137707520)
I0104 11:30:24.982395 27336 layer_factory.hpp:78] Creating layer fc7
I0104 11:30:24.982403 27336 net.cpp:67] Creating Layer fc7
I0104 11:30:24.982404 27336 net.cpp:394] fc7 <- fc6
I0104 11:30:24.982409 27336 net.cpp:356] fc7 -> fc7
I0104 11:30:24.982434 27336 net.cpp:96] Setting up fc7
I0104 11:30:25.019879 27336 net.cpp:103] Top shape: 20 4096 41 41 (137707520)
I0104 11:30:25.019937 27336 layer_factory.hpp:78] Creating layer relu7
I0104 11:30:25.019949 27336 net.cpp:67] Creating Layer relu7
I0104 11:30:25.019955 27336 net.cpp:394] relu7 <- fc7
I0104 11:30:25.019964 27336 net.cpp:345] relu7 -> fc7 (in-place)
I0104 11:30:25.019971 27336 net.cpp:96] Setting up relu7
I0104 11:30:25.019979 27336 net.cpp:103] Top shape: 20 4096 41 41 (137707520)
I0104 11:30:25.019982 27336 layer_factory.hpp:78] Creating layer drop7
I0104 11:30:25.019989 27336 net.cpp:67] Creating Layer drop7
I0104 11:30:25.019990 27336 net.cpp:394] drop7 <- fc7
I0104 11:30:25.019994 27336 net.cpp:345] drop7 -> fc7 (in-place)
I0104 11:30:25.019999 27336 net.cpp:96] Setting up drop7
I0104 11:30:25.020001 27336 net.cpp:103] Top shape: 20 4096 41 41 (137707520)
I0104 11:30:25.020005 27336 layer_factory.hpp:78] Creating layer fc8_weak
I0104 11:30:25.020011 27336 net.cpp:67] Creating Layer fc8_weak
I0104 11:30:25.020015 27336 net.cpp:394] fc8_weak <- fc7
I0104 11:30:25.020018 27336 net.cpp:356] fc8_weak -> fc8_weak
I0104 11:30:25.020025 27336 net.cpp:96] Setting up fc8_weak
I0104 11:30:25.025537 27336 net.cpp:103] Top shape: 20 21 41 41 (706020)
I0104 11:30:25.025557 27336 layer_factory.hpp:78] Creating layer fc8_weak_fc8_weak_0_split
I0104 11:30:25.025566 27336 net.cpp:67] Creating Layer fc8_weak_fc8_weak_0_split
I0104 11:30:25.025570 27336 net.cpp:394] fc8_weak_fc8_weak_0_split <- fc8_weak
I0104 11:30:25.025575 27336 net.cpp:356] fc8_weak_fc8_weak_0_split -> fc8_weak_fc8_weak_0_split_0
I0104 11:30:25.025583 27336 net.cpp:356] fc8_weak_fc8_weak_0_split -> fc8_weak_fc8_weak_0_split_1
I0104 11:30:25.025588 27336 net.cpp:356] fc8_weak_fc8_weak_0_split -> fc8_weak_fc8_weak_0_split_2
I0104 11:30:25.025593 27336 net.cpp:96] Setting up fc8_weak_fc8_weak_0_split
I0104 11:30:25.025598 27336 net.cpp:103] Top shape: 20 21 41 41 (706020)
I0104 11:30:25.025599 27336 net.cpp:103] Top shape: 20 21 41 41 (706020)
I0104 11:30:25.025602 27336 net.cpp:103] Top shape: 20 21 41 41 (706020)
I0104 11:30:25.025605 27336 layer_factory.hpp:78] Creating layer fc8_biased
I0104 11:30:25.025611 27336 net.cpp:67] Creating Layer fc8_biased
I0104 11:30:25.025614 27336 net.cpp:394] fc8_biased <- fc8_weak_fc8_weak_0_split_0
I0104 11:30:25.025619 27336 net.cpp:394] fc8_biased <- label_weak
I0104 11:30:25.025621 27336 net.cpp:356] fc8_biased -> fc8_biased
I0104 11:30:25.025626 27336 net.cpp:96] Setting up fc8_biased
I0104 11:30:25.025629 27336 net.cpp:103] Top shape: 20 21 41 41 (706020)
I0104 11:30:25.025632 27336 layer_factory.hpp:78] Creating layer label_estep
I0104 11:30:25.025637 27336 net.cpp:67] Creating Layer label_estep
I0104 11:30:25.025640 27336 net.cpp:394] label_estep <- fc8_biased
I0104 11:30:25.025643 27336 net.cpp:356] label_estep -> label_estep
I0104 11:30:25.025647 27336 net.cpp:96] Setting up label_estep
I0104 11:30:25.025651 27336 net.cpp:103] Top shape: 20 1 41 41 (33620)
I0104 11:30:25.025655 27336 layer_factory.hpp:78] Creating layer loss
I0104 11:30:25.025662 27336 net.cpp:67] Creating Layer loss
I0104 11:30:25.025665 27336 net.cpp:394] loss <- fc8_weak_fc8_weak_0_split_1
I0104 11:30:25.025668 27336 net.cpp:394] loss <- label_estep
I0104 11:30:25.025673 27336 net.cpp:356] loss -> (automatic)
I0104 11:30:25.025682 27336 net.cpp:96] Setting up loss
I0104 11:30:25.025691 27336 softmax_loss_layer.cpp:40] Weight_Loss file is not provided. Assign all one to it.
I0104 11:30:25.025697 27336 net.cpp:103] Top shape: 1 1 1 1 (1)
I0104 11:30:25.025701 27336 net.cpp:109]     with loss weight 1
I0104 11:30:25.025722 27336 layer_factory.hpp:78] Creating layer label_shrink
I0104 11:30:25.025728 27336 net.cpp:67] Creating Layer label_shrink
I0104 11:30:25.025732 27336 net.cpp:394] label_shrink <- label_strong_data_1_split_1
I0104 11:30:25.025737 27336 net.cpp:356] label_shrink -> label_shrink
I0104 11:30:25.025741 27336 net.cpp:96] Setting up label_shrink
I0104 11:30:25.025746 27336 net.cpp:103] Top shape: 20 1 41 41 (33620)
I0104 11:30:25.025748 27336 layer_factory.hpp:78] Creating layer accuracy
I0104 11:30:25.025754 27336 net.cpp:67] Creating Layer accuracy
I0104 11:30:25.025758 27336 net.cpp:394] accuracy <- fc8_weak_fc8_weak_0_split_2
I0104 11:30:25.025760 27336 net.cpp:394] accuracy <- label_shrink
I0104 11:30:25.025764 27336 net.cpp:356] accuracy -> accuracy
I0104 11:30:25.025769 27336 net.cpp:96] Setting up accuracy
I0104 11:30:25.025777 27336 net.cpp:103] Top shape: 1 1 1 3 (3)
I0104 11:30:25.025784 27336 net.cpp:172] accuracy does not need backward computation.
I0104 11:30:25.025786 27336 net.cpp:172] label_shrink does not need backward computation.
I0104 11:30:25.025789 27336 net.cpp:170] loss needs backward computation.
I0104 11:30:25.025792 27336 net.cpp:170] label_estep needs backward computation.
I0104 11:30:25.025795 27336 net.cpp:170] fc8_biased needs backward computation.
…
