…
I0110 22:38:13.547413 15708 solver.cpp:58] Creating training net from train_net file: weak2/config/adapt/train_train.prototxt
I0110 22:38:13.548110 15708 net.cpp:39] Initializing net from parameters: 
name: "adapt"
layers {
  top: "data"
  top: "label_strong"
  name: "data"
  type: IMAGE_SEG_DATA
  image_data_param {
    source: "weak2/list/train.txt"
    batch_size: 10
    shuffle: true
    root_folder: "/home/zhangzhengqiang/git/deeplab-public//data/pascal/VOCdevkit/VOC2012"
    label_type: PIXEL
  }
  include {
    phase: TRAIN
  }
  transform_param {
    mirror: true
    crop_size: 321
    mean_value: 104.008
    mean_value: 116.669
    mean_value: 122.675
  }
}
layers {
  bottom: "label_strong"
  top: "label_weak"
  name: "label_weak"
  type: UNIQUE_LABEL
  include {
    phase: TRAIN
  }
  unique_label_param {
    max_labels: 10
    ignore_label: 255
  }
}
layers {
  bottom: "data"
  top: "conv1_1"
  name: "conv1_1"
  type: CONVOLUTION
  blobs_lr: 1
  blobs_lr: 2
  weight_decay: 1
  weight_decay: 0
  convolution_param {
    num_output: 64
    pad: 1
    kernel_size: 3
  }
}
layers {
  bottom: "conv1_1"
  top: "conv1_1"
  name: "relu1_1"
  type: RELU
}
layers {
  bottom: "conv1_1"
  top: "conv1_2"
  name: "conv1_2"
  type: CONVOLUTION
  blobs_lr: 1
  blobs_lr: 2
  weight_decay: 1
  weight_decay: 0
  convolution_param {
    num_output: 64
    pad: 1
    kernel_size: 3
  }
}
layers {
  bottom: "conv1_2"
  top: "conv1_2"
  name: "relu1_2"
  type: RELU
}
layers {
  bottom: "conv1_2"
  top: "pool1"
  name: "pool1"
  type: POOLING
  pooling_param {
    pool: MAX
    kernel_size: 3
    stride: 2
    pad: 1
  }
}
layers {
  bottom: "pool1"
  top: "conv2_1"
  name: "conv2_1"
  type: CONVOLUTION
  blobs_lr: 1
  blobs_lr: 2
  weight_decay: 1
  weight_decay: 0
  convolution_param {
    num_output: 128
    pad: 1
    kernel_size: 3
  }
}
layers {
  bottom: "conv2_1"
  top: "conv2_1"
  name: "relu2_1"
  type: RELU
}
layers {
  bottom: "conv2_1"
  top: "conv2_2"
  name: "conv2_2"
  type: CONVOLUTION
  blobs_lr: 1
  blobs_lr: 2
  weight_decay: 1
  weight_decay: 0
  convolution_param {
    num_output: 128
    pad: 1
    kernel_size: 3
  }
}
layers {
  bottom: "conv2_2"
  top: "conv2_2"
  name: "relu2_2"
  type: RELU
}
layers {
  bottom: "conv2_2"
  top: "pool2"
  name: "pool2"
  type: POOLING
  pooling_param {
    pool: MAX
    kernel_size: 3
    stride: 2
    pad: 1
  }
}
layers {
  bottom: "pool2"
  top: "conv3_1"
  name: "conv3_1"
  type: CONVOLUTION
  blobs_lr: 1
  blobs_lr: 2
  weight_decay: 1
  weight_decay: 0
  convolution_param {
    num_output: 256
    pad: 1
    kernel_size: 3
  }
}
layers {
  bottom: "conv3_1"
  top: "conv3_1"
  name: "relu3_1"
  type: RELU
}
layers {
  bottom: "conv3_1"
  top: "conv3_2"
  name: "conv3_2"
  type: CONVOLUTION
  blobs_lr: 1
  blobs_lr: 2
  weight_decay: 1
  weight_decay: 0
  convolution_param {
    num_output: 256
    pad: 1
    kernel_size: 3
  }
}
layers {
  bottom: "conv3_2"
  top: "conv3_2"
  name: "relu3_2"
  type: RELU
}
layers {
  bottom: "conv3_2"
  top: "conv3_3"
  name: "conv3_3"
  type: CONVOLUTION
  blobs_lr: 1
  blobs_lr: 2
  weight_decay: 1
  weight_decay: 0
  convolution_param {
    num_output: 256
    pad: 1
    kernel_size: 3
  }
}
layers {
  bottom: "conv3_3"
  top: "conv3_3"
  name: "relu3_3"
  type: RELU
}
layers {
  bottom: "conv3_3"
  top: "pool3"
  name: "pool3"
  type: POOLING
  pooling_param {
    pool: MAX
    kernel_size: 3
    stride: 2
    pad: 1
  }
}
layers {
  bottom: "pool3"
  top: "conv4_1"
  name: "conv4_1"
  type: CONVOLUTION
  blobs_lr: 1
  blobs_lr: 2
  weight_decay: 1
  weight_decay: 0
  convolution_param {
    num_output: 512
    pad: 1
    kernel_size: 3
  }
}
layers {
  bottom: "conv4_1"
  top: "conv4_1"
  name: "relu4_1"
  type: RELU
}
layers {
  bottom: "conv4_1"
  top: "conv4_2"
  name: "conv4_2"
  type: CONVOLUTION
  blobs_lr: 1
  blobs_lr: 2
  weight_decay: 1
  weight_decay: 0
  convolution_param {
    num_output: 512
    pad: 1
    kernel_size: 3
  }
}
layers {
  bottom: "conv4_2"
  top: "conv4_2"
  name: "relu4_2"
  type: RELU
}
layers {
  bottom: "conv4_2"
  top: "conv4_3"
  name: "conv4_3"
  type: CONVOLUTION
  blobs_lr: 1
  blobs_lr: 2
  weight_decay: 1
  weight_decay: 0
  convolution_param {
    num_output: 512
    pad: 1
    kernel_size: 3
  }
}
layers {
  bottom: "conv4_3"
  top: "conv4_3"
  name: "relu4_3"
  type: RELU
}
layers {
  bottom: "conv4_3"
  top: "pool4"
  name: "pool4"
  type: POOLING
  pooling_param {
    pool: MAX
    kernel_size: 3
    stride: 1
    pad: 1
  }
}
layers {
  bottom: "pool4"
  top: "conv5_1"
  name: "conv5_1"
  type: CONVOLUTION
  blobs_lr: 1
  blobs_lr: 2
  weight_decay: 1
  weight_decay: 0
  convolution_param {
    num_output: 512
    pad: 2
    kernel_size: 3
    hole: 2
  }
}
layers {
  bottom: "conv5_1"
  top: "conv5_1"
  name: "relu5_1"
  type: RELU
}
layers {
  bottom: "conv5_1"
  top: "conv5_2"
  name: "conv5_2"
  type: CONVOLUTION
  blobs_lr: 1
  blobs_lr: 2
  weight_decay: 1
  weight_decay: 0
  convolution_param {
    num_output: 512
    pad: 2
    kernel_size: 3
    hole: 2
  }
}
layers {
  bottom: "conv5_2"
  top: "conv5_2"
  name: "relu5_2"
  type: RELU
}
layers {
  bottom: "conv5_2"
  top: "conv5_3"
  name: "conv5_3"
  type: CONVOLUTION
  blobs_lr: 1
  blobs_lr: 2
  weight_decay: 1
  weight_decay: 0
  convolution_param {
    num_output: 512
    pad: 2
    kernel_size: 3
    hole: 2
  }
}
layers {
  bottom: "conv5_3"
  top: "conv5_3"
  name: "relu5_3"
  type: RELU
}
layers {
  bottom: "conv5_3"
  top: "pool5"
  name: "pool5"
  type: POOLING
  pooling_param {
    pool: MAX
    kernel_size: 3
    stride: 1
    pad: 1
  }
}
layers {
  bottom: "pool5"
  top: "fc6"
  name: "fc6"
  type: CONVOLUTION
  blobs_lr: 1
  blobs_lr: 2
  weight_decay: 1
  weight_decay: 0
  convolution_param {
    num_output: 4096
    pad: 6
    kernel_size: 4
    hole: 4
  }
  strict_dim: false
}
layers {
  bottom: "fc6"
  top: "fc6"
  name: "relu6"
  type: RELU
}
layers {
  bottom: "fc6"
  top: "fc6"
  name: "drop6"
  type: DROPOUT
  dropout_param {
    dropout_ratio: 0.5
  }
}
layers {
  bottom: "fc6"
  top: "fc7"
  name: "fc7"
  type: CONVOLUTION
  blobs_lr: 1
  blobs_lr: 2
  weight_decay: 1
  weight_decay: 0
  convolution_param {
    num_output: 4096
    kernel_size: 1
  }
  strict_dim: false
}
layers {
  bottom: "fc7"
  top: "fc7"
  name: "relu7"
  type: RELU
}
layers {
  bottom: "fc7"
  top: "fc7"
  name: "drop7"
  type: DROPOUT
  dropout_param {
    dropout_ratio: 0.5
  }
}
layers {
  bottom: "fc7"
  top: "fc8_weak2"
  name: "fc8_weak2"
  type: CONVOLUTION
  blobs_lr: 10
  blobs_lr: 20
  weight_decay: 1
  weight_decay: 0
  convolution_param {
    num_output: 21
    kernel_size: 1
    weight_filler {
      type: "gaussian"
      std: 0.01
    }
    bias_filler {
      type: "constant"
      value: 0
    }
  }
  strict_dim: false
}
layers {
  bottom: "fc8_weak2"
  bottom: "label_weak"
  top: "fc8_biased"
  name: "fc8_biased"
  type: ADAPTIVE_BIAS_CHANNEL
  adaptive_bias_channel_param {
    num_iter: 5
    bg_portion: 0.4
    fg_portion: 0.2
    suppress_others: true
    margin_others: 1e-05
  }
}
layers {
  bottom: "fc8_biased"
  top: "label_estep"
  name: "label_estep"
  type: ARGMAX
  argmax_param {
    out_max_val: false
    top_k: 1
  }
}
layers {
  bottom: "fc8_weak2"
  bottom: "label_estep"
  name: "loss"
  type: SOFTMAX_LOSS
  include {
    phase: TRAIN
  }
  softmaxloss_param {
    ignore_label: 255
  }
}
layers {
  bottom: "label_strong"
  top: "label_shrink"
  name: "label_shrink"
  type: INTERP
  interp_param {
    shrink_factor: 8
    pad_beg: 0
    pad_end: 0
  }
}
layers {
  bottom: "fc8_weak2"
  bottom: "label_shrink"
  top: "accuracy"
  name: "accuracy"
  type: SEG_ACCURACY
  seg_accuracy_param {
    ignore_label: 255
  }
}
state {
  phase: TRAIN
}
I0110 22:38:13.548346 15708 layer_factory.hpp:78] Creating layer data
I0110 22:38:13.548385 15708 net.cpp:67] Creating Layer data
I0110 22:38:13.548393 15708 net.cpp:356] data -> data
I0110 22:38:13.548418 15708 net.cpp:356] data -> label_strong
I0110 22:38:13.548429 15708 net.cpp:356] data -> (automatic)
I0110 22:38:13.548434 15708 net.cpp:96] Setting up data
I0110 22:38:13.548439 15708 image_seg_data_layer.cpp:45] Opening file weak2/list/train.txt
I0110 22:38:13.549914 15708 image_seg_data_layer.cpp:62] Shuffling data
I0110 22:38:13.550022 15708 image_seg_data_layer.cpp:67] A total of 1464 images.
I0110 22:38:13.553640 15708 image_seg_data_layer.cpp:113] output data size: 10,3,321,321
I0110 22:38:13.553658 15708 image_seg_data_layer.cpp:117] output label size: 10,1,321,321
I0110 22:38:13.553663 15708 image_seg_data_layer.cpp:121] output data_dim size: 10,1,1,2
I0110 22:38:13.553916 15708 net.cpp:103] Top shape: 10 3 321 321 (3091230)
I0110 22:38:13.553931 15708 net.cpp:103] Top shape: 10 1 321 321 (1030410)
I0110 22:38:13.553936 15708 net.cpp:103] Top shape: 10 1 1 2 (20)
I0110 22:38:13.553939 15708 layer_factory.hpp:78] Creating layer label_strong_data_1_split
I0110 22:38:13.553984 15708 net.cpp:67] Creating Layer label_strong_data_1_split
I0110 22:38:13.553995 15708 net.cpp:394] label_strong_data_1_split <- label_strong
I0110 22:38:13.554016 15708 net.cpp:356] label_strong_data_1_split -> label_strong_data_1_split_0
I0110 22:38:13.554028 15708 net.cpp:356] label_strong_data_1_split -> label_strong_data_1_split_1
I0110 22:38:13.554033 15708 net.cpp:96] Setting up label_strong_data_1_split
I0110 22:38:13.554038 15708 net.cpp:103] Top shape: 10 1 321 321 (1030410)
I0110 22:38:13.554041 15708 net.cpp:103] Top shape: 10 1 321 321 (1030410)
I0110 22:38:13.554044 15708 layer_factory.hpp:78] Creating layer label_weak
I0110 22:38:13.554050 15708 net.cpp:67] Creating Layer label_weak
I0110 22:38:13.554054 15708 net.cpp:394] label_weak <- label_strong_data_1_split_0
I0110 22:38:13.554059 15708 net.cpp:356] label_weak -> label_weak
I0110 22:38:13.554064 15708 net.cpp:96] Setting up label_weak
I0110 22:38:13.554069 15708 net.cpp:103] Top shape: 10 10 1 1 (100)
I0110 22:38:13.554074 15708 layer_factory.hpp:78] Creating layer conv1_1
I0110 22:38:13.554078 15708 net.cpp:67] Creating Layer conv1_1
I0110 22:38:13.554082 15708 net.cpp:394] conv1_1 <- data
I0110 22:38:13.554086 15708 net.cpp:356] conv1_1 -> conv1_1
I0110 22:38:13.554091 15708 net.cpp:96] Setting up conv1_1
I0110 22:38:13.689635 15708 net.cpp:103] Top shape: 10 64 321 321 (65946240)
I0110 22:38:13.689684 15708 layer_factory.hpp:78] Creating layer relu1_1
I0110 22:38:13.689697 15708 net.cpp:67] Creating Layer relu1_1
I0110 22:38:13.689703 15708 net.cpp:394] relu1_1 <- conv1_1
I0110 22:38:13.689714 15708 net.cpp:345] relu1_1 -> conv1_1 (in-place)
I0110 22:38:13.689723 15708 net.cpp:96] Setting up relu1_1
I0110 22:38:13.689745 15708 net.cpp:103] Top shape: 10 64 321 321 (65946240)
I0110 22:38:13.689749 15708 layer_factory.hpp:78] Creating layer conv1_2
I0110 22:38:13.689756 15708 net.cpp:67] Creating Layer conv1_2
I0110 22:38:13.689759 15708 net.cpp:394] conv1_2 <- conv1_1
I0110 22:38:13.689764 15708 net.cpp:356] conv1_2 -> conv1_2
I0110 22:38:13.689770 15708 net.cpp:96] Setting up conv1_2
I0110 22:38:13.690193 15708 net.cpp:103] Top shape: 10 64 321 321 (65946240)
I0110 22:38:13.690217 15708 layer_factory.hpp:78] Creating layer relu1_2
I0110 22:38:13.690224 15708 net.cpp:67] Creating Layer relu1_2
I0110 22:38:13.690228 15708 net.cpp:394] relu1_2 <- conv1_2
I0110 22:38:13.690232 15708 net.cpp:345] relu1_2 -> conv1_2 (in-place)
I0110 22:38:13.690237 15708 net.cpp:96] Setting up relu1_2
I0110 22:38:13.690248 15708 net.cpp:103] Top shape: 10 64 321 321 (65946240)
I0110 22:38:13.690250 15708 layer_factory.hpp:78] Creating layer pool1
I0110 22:38:13.690254 15708 layer_factory.cpp:51] CUDNN does not support padding or multiple tops. Using Caffe's own pooling layer.
I0110 22:38:13.690259 15708 net.cpp:67] Creating Layer pool1
I0110 22:38:13.690263 15708 net.cpp:394] pool1 <- conv1_2
I0110 22:38:13.690317 15708 net.cpp:356] pool1 -> pool1
I0110 22:38:13.690330 15708 net.cpp:96] Setting up pool1
I0110 22:38:13.690345 15708 net.cpp:103] Top shape: 10 64 161 161 (16589440)
I0110 22:38:13.690354 15708 layer_factory.hpp:78] Creating layer conv2_1
I0110 22:38:13.690362 15708 net.cpp:67] Creating Layer conv2_1
I0110 22:38:13.690414 15708 net.cpp:394] conv2_1 <- pool1
I0110 22:38:13.690423 15708 net.cpp:356] conv2_1 -> conv2_1
I0110 22:38:13.690428 15708 net.cpp:96] Setting up conv2_1
I0110 22:38:13.693280 15708 net.cpp:103] Top shape: 10 128 161 161 (33178880)
I0110 22:38:13.693306 15708 layer_factory.hpp:78] Creating layer relu2_1
I0110 22:38:13.693317 15708 net.cpp:67] Creating Layer relu2_1
I0110 22:38:13.693325 15708 net.cpp:394] relu2_1 <- conv2_1
I0110 22:38:13.693331 15708 net.cpp:345] relu2_1 -> conv2_1 (in-place)
I0110 22:38:13.693337 15708 net.cpp:96] Setting up relu2_1
I0110 22:38:13.693346 15708 net.cpp:103] Top shape: 10 128 161 161 (33178880)
I0110 22:38:13.693351 15708 layer_factory.hpp:78] Creating layer conv2_2
I0110 22:38:13.693357 15708 net.cpp:67] Creating Layer conv2_2
I0110 22:38:13.693361 15708 net.cpp:394] conv2_2 <- conv2_1
I0110 22:38:13.693365 15708 net.cpp:356] conv2_2 -> conv2_2
I0110 22:38:13.693370 15708 net.cpp:96] Setting up conv2_2
I0110 22:38:13.693881 15708 net.cpp:103] Top shape: 10 128 161 161 (33178880)
I0110 22:38:13.693902 15708 layer_factory.hpp:78] Creating layer relu2_2
I0110 22:38:13.693912 15708 net.cpp:67] Creating Layer relu2_2
I0110 22:38:13.693917 15708 net.cpp:394] relu2_2 <- conv2_2
I0110 22:38:13.693928 15708 net.cpp:345] relu2_2 -> conv2_2 (in-place)
I0110 22:38:13.693935 15708 net.cpp:96] Setting up relu2_2
I0110 22:38:13.693944 15708 net.cpp:103] Top shape: 10 128 161 161 (33178880)
I0110 22:38:13.693948 15708 layer_factory.hpp:78] Creating layer pool2
I0110 22:38:13.693951 15708 layer_factory.cpp:51] CUDNN does not support padding or multiple tops. Using Caffe's own pooling layer.
I0110 22:38:13.693956 15708 net.cpp:67] Creating Layer pool2
I0110 22:38:13.693960 15708 net.cpp:394] pool2 <- conv2_2
I0110 22:38:13.693966 15708 net.cpp:356] pool2 -> pool2
I0110 22:38:13.693972 15708 net.cpp:96] Setting up pool2
I0110 22:38:13.693976 15708 net.cpp:103] Top shape: 10 128 81 81 (8398080)
I0110 22:38:13.693979 15708 layer_factory.hpp:78] Creating layer conv3_1
I0110 22:38:13.693984 15708 net.cpp:67] Creating Layer conv3_1
I0110 22:38:13.693987 15708 net.cpp:394] conv3_1 <- pool2
I0110 22:38:13.693994 15708 net.cpp:356] conv3_1 -> conv3_1
I0110 22:38:13.694000 15708 net.cpp:96] Setting up conv3_1
I0110 22:38:13.694803 15708 net.cpp:103] Top shape: 10 256 81 81 (16796160)
I0110 22:38:13.694828 15708 layer_factory.hpp:78] Creating layer relu3_1
I0110 22:38:13.694833 15708 net.cpp:67] Creating Layer relu3_1
I0110 22:38:13.694838 15708 net.cpp:394] relu3_1 <- conv3_1
I0110 22:38:13.694844 15708 net.cpp:345] relu3_1 -> conv3_1 (in-place)
I0110 22:38:13.694849 15708 net.cpp:96] Setting up relu3_1
I0110 22:38:13.694857 15708 net.cpp:103] Top shape: 10 256 81 81 (16796160)
I0110 22:38:13.694862 15708 layer_factory.hpp:78] Creating layer conv3_2
I0110 22:38:13.694869 15708 net.cpp:67] Creating Layer conv3_2
I0110 22:38:13.694874 15708 net.cpp:394] conv3_2 <- conv3_1
I0110 22:38:13.694880 15708 net.cpp:356] conv3_2 -> conv3_2
I0110 22:38:13.694886 15708 net.cpp:96] Setting up conv3_2
I0110 22:38:13.696254 15708 net.cpp:103] Top shape: 10 256 81 81 (16796160)
I0110 22:38:13.696274 15708 layer_factory.hpp:78] Creating layer relu3_2
I0110 22:38:13.696310 15708 net.cpp:67] Creating Layer relu3_2
I0110 22:38:13.696322 15708 net.cpp:394] relu3_2 <- conv3_2
I0110 22:38:13.696329 15708 net.cpp:345] relu3_2 -> conv3_2 (in-place)
I0110 22:38:13.696334 15708 net.cpp:96] Setting up relu3_2
I0110 22:38:13.696343 15708 net.cpp:103] Top shape: 10 256 81 81 (16796160)
I0110 22:38:13.696347 15708 layer_factory.hpp:78] Creating layer conv3_3
I0110 22:38:13.696362 15708 net.cpp:67] Creating Layer conv3_3
I0110 22:38:13.696364 15708 net.cpp:394] conv3_3 <- conv3_2
I0110 22:38:13.696369 15708 net.cpp:356] conv3_3 -> conv3_3
I0110 22:38:13.696405 15708 net.cpp:96] Setting up conv3_3
I0110 22:38:13.697341 15708 net.cpp:103] Top shape: 10 256 81 81 (16796160)
I0110 22:38:13.697369 15708 layer_factory.hpp:78] Creating layer relu3_3
I0110 22:38:13.697379 15708 net.cpp:67] Creating Layer relu3_3
I0110 22:38:13.697384 15708 net.cpp:394] relu3_3 <- conv3_3
I0110 22:38:13.697388 15708 net.cpp:345] relu3_3 -> conv3_3 (in-place)
I0110 22:38:13.697393 15708 net.cpp:96] Setting up relu3_3
I0110 22:38:13.697402 15708 net.cpp:103] Top shape: 10 256 81 81 (16796160)
I0110 22:38:13.697407 15708 layer_factory.hpp:78] Creating layer pool3
I0110 22:38:13.697409 15708 layer_factory.cpp:51] CUDNN does not support padding or multiple tops. Using Caffe's own pooling layer.
I0110 22:38:13.697417 15708 net.cpp:67] Creating Layer pool3
I0110 22:38:13.697420 15708 net.cpp:394] pool3 <- conv3_3
I0110 22:38:13.697424 15708 net.cpp:356] pool3 -> pool3
I0110 22:38:13.697429 15708 net.cpp:96] Setting up pool3
I0110 22:38:13.697433 15708 net.cpp:103] Top shape: 10 256 41 41 (4303360)
I0110 22:38:13.697437 15708 layer_factory.hpp:78] Creating layer conv4_1
I0110 22:38:13.697443 15708 net.cpp:67] Creating Layer conv4_1
I0110 22:38:13.697446 15708 net.cpp:394] conv4_1 <- pool3
I0110 22:38:13.697450 15708 net.cpp:356] conv4_1 -> conv4_1
I0110 22:38:13.697456 15708 net.cpp:96] Setting up conv4_1
I0110 22:38:13.726467 15708 net.cpp:103] Top shape: 10 512 41 41 (8606720)
I0110 22:38:13.726500 15708 layer_factory.hpp:78] Creating layer relu4_1
I0110 22:38:13.726510 15708 net.cpp:67] Creating Layer relu4_1
I0110 22:38:13.726513 15708 net.cpp:394] relu4_1 <- conv4_1
I0110 22:38:13.726522 15708 net.cpp:345] relu4_1 -> conv4_1 (in-place)
I0110 22:38:13.726528 15708 net.cpp:96] Setting up relu4_1
I0110 22:38:13.726538 15708 net.cpp:103] Top shape: 10 512 41 41 (8606720)
I0110 22:38:13.726541 15708 layer_factory.hpp:78] Creating layer conv4_2
I0110 22:38:13.726547 15708 net.cpp:67] Creating Layer conv4_2
I0110 22:38:13.726550 15708 net.cpp:394] conv4_2 <- conv4_1
I0110 22:38:13.726557 15708 net.cpp:356] conv4_2 -> conv4_2
I0110 22:38:13.726563 15708 net.cpp:96] Setting up conv4_2
I0110 22:38:13.729559 15708 net.cpp:103] Top shape: 10 512 41 41 (8606720)
I0110 22:38:13.729583 15708 layer_factory.hpp:78] Creating layer relu4_2
I0110 22:38:13.729590 15708 net.cpp:67] Creating Layer relu4_2
I0110 22:38:13.729594 15708 net.cpp:394] relu4_2 <- conv4_2
I0110 22:38:13.729599 15708 net.cpp:345] relu4_2 -> conv4_2 (in-place)
I0110 22:38:13.729605 15708 net.cpp:96] Setting up relu4_2
I0110 22:38:13.729614 15708 net.cpp:103] Top shape: 10 512 41 41 (8606720)
I0110 22:38:13.729617 15708 layer_factory.hpp:78] Creating layer conv4_3
I0110 22:38:13.729625 15708 net.cpp:67] Creating Layer conv4_3
I0110 22:38:13.729629 15708 net.cpp:394] conv4_3 <- conv4_2
I0110 22:38:13.729634 15708 net.cpp:356] conv4_3 -> conv4_3
I0110 22:38:13.729638 15708 net.cpp:96] Setting up conv4_3
I0110 22:38:13.732460 15708 net.cpp:103] Top shape: 10 512 41 41 (8606720)
I0110 22:38:13.732481 15708 layer_factory.hpp:78] Creating layer relu4_3
I0110 22:38:13.732488 15708 net.cpp:67] Creating Layer relu4_3
I0110 22:38:13.732492 15708 net.cpp:394] relu4_3 <- conv4_3
I0110 22:38:13.732499 15708 net.cpp:345] relu4_3 -> conv4_3 (in-place)
I0110 22:38:13.732504 15708 net.cpp:96] Setting up relu4_3
I0110 22:38:13.732513 15708 net.cpp:103] Top shape: 10 512 41 41 (8606720)
I0110 22:38:13.732517 15708 layer_factory.hpp:78] Creating layer pool4
I0110 22:38:13.732522 15708 layer_factory.cpp:51] CUDNN does not support padding or multiple tops. Using Caffe's own pooling layer.
I0110 22:38:13.732527 15708 net.cpp:67] Creating Layer pool4
I0110 22:38:13.732532 15708 net.cpp:394] pool4 <- conv4_3
I0110 22:38:13.732537 15708 net.cpp:356] pool4 -> pool4
I0110 22:38:13.732547 15708 net.cpp:96] Setting up pool4
I0110 22:38:13.732554 15708 net.cpp:103] Top shape: 10 512 41 41 (8606720)
I0110 22:38:13.732560 15708 layer_factory.hpp:78] Creating layer conv5_1
I0110 22:38:13.732571 15708 net.cpp:67] Creating Layer conv5_1
I0110 22:38:13.732621 15708 net.cpp:394] conv5_1 <- pool4
I0110 22:38:13.732631 15708 net.cpp:356] conv5_1 -> conv5_1
I0110 22:38:13.732640 15708 net.cpp:96] Setting up conv5_1
I0110 22:38:13.736222 15708 net.cpp:103] Top shape: 10 512 41 41 (8606720)
I0110 22:38:13.736244 15708 layer_factory.hpp:78] Creating layer relu5_1
I0110 22:38:13.736253 15708 net.cpp:67] Creating Layer relu5_1
I0110 22:38:13.736258 15708 net.cpp:394] relu5_1 <- conv5_1
I0110 22:38:13.736263 15708 net.cpp:345] relu5_1 -> conv5_1 (in-place)
I0110 22:38:13.736268 15708 net.cpp:96] Setting up relu5_1
I0110 22:38:13.736277 15708 net.cpp:103] Top shape: 10 512 41 41 (8606720)
I0110 22:38:13.736280 15708 layer_factory.hpp:78] Creating layer conv5_2
I0110 22:38:13.736287 15708 net.cpp:67] Creating Layer conv5_2
I0110 22:38:13.736291 15708 net.cpp:394] conv5_2 <- conv5_1
I0110 22:38:13.736295 15708 net.cpp:356] conv5_2 -> conv5_2
I0110 22:38:13.736300 15708 net.cpp:96] Setting up conv5_2
I0110 22:38:13.739333 15708 net.cpp:103] Top shape: 10 512 41 41 (8606720)
I0110 22:38:13.739353 15708 layer_factory.hpp:78] Creating layer relu5_2
I0110 22:38:13.739361 15708 net.cpp:67] Creating Layer relu5_2
I0110 22:38:13.739364 15708 net.cpp:394] relu5_2 <- conv5_2
I0110 22:38:13.739369 15708 net.cpp:345] relu5_2 -> conv5_2 (in-place)
I0110 22:38:13.739377 15708 net.cpp:96] Setting up relu5_2
I0110 22:38:13.739385 15708 net.cpp:103] Top shape: 10 512 41 41 (8606720)
I0110 22:38:13.739388 15708 layer_factory.hpp:78] Creating layer conv5_3
I0110 22:38:13.739393 15708 net.cpp:67] Creating Layer conv5_3
I0110 22:38:13.739397 15708 net.cpp:394] conv5_3 <- conv5_2
I0110 22:38:13.739401 15708 net.cpp:356] conv5_3 -> conv5_3
I0110 22:38:13.739406 15708 net.cpp:96] Setting up conv5_3
I0110 22:38:13.749558 15708 net.cpp:103] Top shape: 10 512 41 41 (8606720)
I0110 22:38:13.749584 15708 layer_factory.hpp:78] Creating layer relu5_3
I0110 22:38:13.749598 15708 net.cpp:67] Creating Layer relu5_3
I0110 22:38:13.749603 15708 net.cpp:394] relu5_3 <- conv5_3
I0110 22:38:13.749608 15708 net.cpp:345] relu5_3 -> conv5_3 (in-place)
I0110 22:38:13.749614 15708 net.cpp:96] Setting up relu5_3
I0110 22:38:13.749624 15708 net.cpp:103] Top shape: 10 512 41 41 (8606720)
I0110 22:38:13.749627 15708 layer_factory.hpp:78] Creating layer pool5
I0110 22:38:13.749636 15708 layer_factory.cpp:51] CUDNN does not support padding or multiple tops. Using Caffe's own pooling layer.
I0110 22:38:13.749641 15708 net.cpp:67] Creating Layer pool5
I0110 22:38:13.749645 15708 net.cpp:394] pool5 <- conv5_3
I0110 22:38:13.749650 15708 net.cpp:356] pool5 -> pool5
I0110 22:38:13.749655 15708 net.cpp:96] Setting up pool5
I0110 22:38:13.749660 15708 net.cpp:103] Top shape: 10 512 41 41 (8606720)
I0110 22:38:13.749680 15708 layer_factory.hpp:78] Creating layer fc6
I0110 22:38:13.749685 15708 net.cpp:67] Creating Layer fc6
I0110 22:38:13.749688 15708 net.cpp:394] fc6 <- pool5
I0110 22:38:13.749692 15708 net.cpp:356] fc6 -> fc6
I0110 22:38:13.749697 15708 net.cpp:96] Setting up fc6
I0110 22:38:13.809195 15708 net.cpp:103] Top shape: 10 4096 41 41 (68853760)
I0110 22:38:13.809233 15708 layer_factory.hpp:78] Creating layer relu6
I0110 22:38:13.809247 15708 net.cpp:67] Creating Layer relu6
I0110 22:38:13.809252 15708 net.cpp:394] relu6 <- fc6
I0110 22:38:13.809259 15708 net.cpp:345] relu6 -> fc6 (in-place)
I0110 22:38:13.809267 15708 net.cpp:96] Setting up relu6
I0110 22:38:13.809276 15708 net.cpp:103] Top shape: 10 4096 41 41 (68853760)
I0110 22:38:13.809280 15708 layer_factory.hpp:78] Creating layer drop6
I0110 22:38:13.809294 15708 net.cpp:67] Creating Layer drop6
I0110 22:38:13.809298 15708 net.cpp:394] drop6 <- fc6
I0110 22:38:13.809303 15708 net.cpp:345] drop6 -> fc6 (in-place)
I0110 22:38:13.809307 15708 net.cpp:96] Setting up drop6
I0110 22:38:13.809311 15708 net.cpp:103] Top shape: 10 4096 41 41 (68853760)
I0110 22:38:13.809314 15708 layer_factory.hpp:78] Creating layer fc7
I0110 22:38:13.809324 15708 net.cpp:67] Creating Layer fc7
I0110 22:38:13.809326 15708 net.cpp:394] fc7 <- fc6
I0110 22:38:13.809331 15708 net.cpp:356] fc7 -> fc7
I0110 22:38:13.809365 15708 net.cpp:96] Setting up fc7
I0110 22:38:13.869331 15708 net.cpp:103] Top shape: 10 4096 41 41 (68853760)
I0110 22:38:13.869370 15708 layer_factory.hpp:78] Creating layer relu7
I0110 22:38:13.869381 15708 net.cpp:67] Creating Layer relu7
I0110 22:38:13.869386 15708 net.cpp:394] relu7 <- fc7
I0110 22:38:13.869396 15708 net.cpp:345] relu7 -> fc7 (in-place)
I0110 22:38:13.869405 15708 net.cpp:96] Setting up relu7
I0110 22:38:13.869413 15708 net.cpp:103] Top shape: 10 4096 41 41 (68853760)
I0110 22:38:13.869417 15708 layer_factory.hpp:78] Creating layer drop7
I0110 22:38:13.869422 15708 net.cpp:67] Creating Layer drop7
I0110 22:38:13.869426 15708 net.cpp:394] drop7 <- fc7
I0110 22:38:13.869429 15708 net.cpp:345] drop7 -> fc7 (in-place)
I0110 22:38:13.869436 15708 net.cpp:96] Setting up drop7
I0110 22:38:13.869441 15708 net.cpp:103] Top shape: 10 4096 41 41 (68853760)
I0110 22:38:13.869443 15708 layer_factory.hpp:78] Creating layer fc8_weak2
I0110 22:38:13.869449 15708 net.cpp:67] Creating Layer fc8_weak2
I0110 22:38:13.869453 15708 net.cpp:394] fc8_weak2 <- fc7
I0110 22:38:13.869458 15708 net.cpp:356] fc8_weak2 -> fc8_weak2
I0110 22:38:13.869469 15708 net.cpp:96] Setting up fc8_weak2
I0110 22:38:13.870745 15708 net.cpp:103] Top shape: 10 21 41 41 (353010)
I0110 22:38:13.870769 15708 layer_factory.hpp:78] Creating layer fc8_weak2_fc8_weak2_0_split
I0110 22:38:13.870777 15708 net.cpp:67] Creating Layer fc8_weak2_fc8_weak2_0_split
I0110 22:38:13.870782 15708 net.cpp:394] fc8_weak2_fc8_weak2_0_split <- fc8_weak2
I0110 22:38:13.870790 15708 net.cpp:356] fc8_weak2_fc8_weak2_0_split -> fc8_weak2_fc8_weak2_0_split_0
I0110 22:38:13.870798 15708 net.cpp:356] fc8_weak2_fc8_weak2_0_split -> fc8_weak2_fc8_weak2_0_split_1
I0110 22:38:13.870805 15708 net.cpp:356] fc8_weak2_fc8_weak2_0_split -> fc8_weak2_fc8_weak2_0_split_2
I0110 22:38:13.870810 15708 net.cpp:96] Setting up fc8_weak2_fc8_weak2_0_split
I0110 22:38:13.870815 15708 net.cpp:103] Top shape: 10 21 41 41 (353010)
I0110 22:38:13.870817 15708 net.cpp:103] Top shape: 10 21 41 41 (353010)
I0110 22:38:13.870820 15708 net.cpp:103] Top shape: 10 21 41 41 (353010)
I0110 22:38:13.870824 15708 layer_factory.hpp:78] Creating layer fc8_biased
I0110 22:38:13.870831 15708 net.cpp:67] Creating Layer fc8_biased
I0110 22:38:13.870834 15708 net.cpp:394] fc8_biased <- fc8_weak2_fc8_weak2_0_split_0
I0110 22:38:13.870839 15708 net.cpp:394] fc8_biased <- label_weak
I0110 22:38:13.870846 15708 net.cpp:356] fc8_biased -> fc8_biased
I0110 22:38:13.870854 15708 net.cpp:96] Setting up fc8_biased
I0110 22:38:13.870858 15708 net.cpp:103] Top shape: 10 21 41 41 (353010)
I0110 22:38:13.870862 15708 layer_factory.hpp:78] Creating layer label_estep
I0110 22:38:13.870867 15708 net.cpp:67] Creating Layer label_estep
I0110 22:38:13.870870 15708 net.cpp:394] label_estep <- fc8_biased
I0110 22:38:13.870874 15708 net.cpp:356] label_estep -> label_estep
I0110 22:38:13.870879 15708 net.cpp:96] Setting up label_estep
I0110 22:38:13.870882 15708 net.cpp:103] Top shape: 10 1 41 41 (16810)
I0110 22:38:13.870887 15708 layer_factory.hpp:78] Creating layer loss
I0110 22:38:13.870895 15708 net.cpp:67] Creating Layer loss
I0110 22:38:13.870901 15708 net.cpp:394] loss <- fc8_weak2_fc8_weak2_0_split_1
I0110 22:38:13.870904 15708 net.cpp:394] loss <- label_estep
I0110 22:38:13.870910 15708 net.cpp:356] loss -> (automatic)
I0110 22:38:13.870919 15708 net.cpp:96] Setting up loss
I0110 22:38:13.870934 15708 softmax_loss_layer.cpp:40] Weight_Loss file is not provided. Assign all one to it.
I0110 22:38:13.870941 15708 net.cpp:103] Top shape: 1 1 1 1 (1)
I0110 22:38:13.870945 15708 net.cpp:109]     with loss weight 1
I0110 22:38:13.870968 15708 layer_factory.hpp:78] Creating layer label_shrink
I0110 22:38:13.870975 15708 net.cpp:67] Creating Layer label_shrink
I0110 22:38:13.870980 15708 net.cpp:394] label_shrink <- label_strong_data_1_split_1
I0110 22:38:13.870985 15708 net.cpp:356] label_shrink -> label_shrink
I0110 22:38:13.870990 15708 net.cpp:96] Setting up label_shrink
I0110 22:38:13.871031 15708 net.cpp:103] Top shape: 10 1 41 41 (16810)
I0110 22:38:13.871062 15708 layer_factory.hpp:78] Creating layer accuracy
I0110 22:38:13.871079 15708 net.cpp:67] Creating Layer accuracy
I0110 22:38:13.871084 15708 net.cpp:394] accuracy <- fc8_weak2_fc8_weak2_0_split_2
I0110 22:38:13.871088 15708 net.cpp:394] accuracy <- label_shrink
I0110 22:38:13.871093 15708 net.cpp:356] accuracy -> accuracy
I0110 22:38:13.871098 15708 net.cpp:96] Setting up accuracy
I0110 22:38:13.871112 15708 net.cpp:103] Top shape: 1 1 1 3 (3)
I0110 22:38:13.871122 15708 net.cpp:172] accuracy does not need backward computation.
I0110 22:38:13.871129 15708 net.cpp:172] label_shrink does not need backward computation.
I0110 22:38:13.871132 15708 net.cpp:170] loss needs backward computation.
I0110 22:38:13.871136 15708 net.cpp:170] label_estep needs backward computation.
I0110 22:38:13.871141 15708 net.cpp:170] fc8_biased needs backward computation.
…
