…
I0111 09:31:31.764478 42743 solver.cpp:58] Creating training net from train_net file: weak2/config/adapt/train_train.prototxt
I0111 09:31:31.765153 42743 net.cpp:39] Initializing net from parameters: 
name: "adapt"
layers {
  top: "data"
  top: "label_strong"
  name: "data"
  type: IMAGE_SEG_DATA
  image_data_param {
    source: "weak2/list/train.txt"
    batch_size: 10
    shuffle: true
    root_folder: "/home/zhangzhengqiang/git/deeplab-public//data/pascal/VOCdevkit/VOC2012"
    label_type: PIXEL
  }
  include {
    phase: TRAIN
  }
  transform_param {
    mirror: true
    crop_size: 321
    mean_value: 104.008
    mean_value: 116.669
    mean_value: 122.675
  }
}
layers {
  bottom: "label_strong"
  top: "label_weak"
  name: "label_weak"
  type: UNIQUE_LABEL
  include {
    phase: TRAIN
  }
  unique_label_param {
    max_labels: 10
    ignore_label: 255
  }
}
layers {
  bottom: "data"
  top: "conv1_1"
  name: "conv1_1"
  type: CONVOLUTION
  blobs_lr: 1
  blobs_lr: 2
  weight_decay: 1
  weight_decay: 0
  convolution_param {
    num_output: 64
    pad: 1
    kernel_size: 3
  }
}
layers {
  bottom: "conv1_1"
  top: "conv1_1"
  name: "relu1_1"
  type: RELU
}
layers {
  bottom: "conv1_1"
  top: "conv1_2"
  name: "conv1_2"
  type: CONVOLUTION
  blobs_lr: 1
  blobs_lr: 2
  weight_decay: 1
  weight_decay: 0
  convolution_param {
    num_output: 64
    pad: 1
    kernel_size: 3
  }
}
layers {
  bottom: "conv1_2"
  top: "conv1_2"
  name: "relu1_2"
  type: RELU
}
layers {
  bottom: "conv1_2"
  top: "pool1"
  name: "pool1"
  type: POOLING
  pooling_param {
    pool: MAX
    kernel_size: 3
    stride: 2
    pad: 1
  }
}
layers {
  bottom: "pool1"
  top: "conv2_1"
  name: "conv2_1"
  type: CONVOLUTION
  blobs_lr: 1
  blobs_lr: 2
  weight_decay: 1
  weight_decay: 0
  convolution_param {
    num_output: 128
    pad: 1
    kernel_size: 3
  }
}
layers {
  bottom: "conv2_1"
  top: "conv2_1"
  name: "relu2_1"
  type: RELU
}
layers {
  bottom: "conv2_1"
  top: "conv2_2"
  name: "conv2_2"
  type: CONVOLUTION
  blobs_lr: 1
  blobs_lr: 2
  weight_decay: 1
  weight_decay: 0
  convolution_param {
    num_output: 128
    pad: 1
    kernel_size: 3
  }
}
layers {
  bottom: "conv2_2"
  top: "conv2_2"
  name: "relu2_2"
  type: RELU
}
layers {
  bottom: "conv2_2"
  top: "pool2"
  name: "pool2"
  type: POOLING
  pooling_param {
    pool: MAX
    kernel_size: 3
    stride: 2
    pad: 1
  }
}
layers {
  bottom: "pool2"
  top: "conv3_1"
  name: "conv3_1"
  type: CONVOLUTION
  blobs_lr: 1
  blobs_lr: 2
  weight_decay: 1
  weight_decay: 0
  convolution_param {
    num_output: 256
    pad: 1
    kernel_size: 3
  }
}
layers {
  bottom: "conv3_1"
  top: "conv3_1"
  name: "relu3_1"
  type: RELU
}
layers {
  bottom: "conv3_1"
  top: "conv3_2"
  name: "conv3_2"
  type: CONVOLUTION
  blobs_lr: 1
  blobs_lr: 2
  weight_decay: 1
  weight_decay: 0
  convolution_param {
    num_output: 256
    pad: 1
    kernel_size: 3
  }
}
layers {
  bottom: "conv3_2"
  top: "conv3_2"
  name: "relu3_2"
  type: RELU
}
layers {
  bottom: "conv3_2"
  top: "conv3_3"
  name: "conv3_3"
  type: CONVOLUTION
  blobs_lr: 1
  blobs_lr: 2
  weight_decay: 1
  weight_decay: 0
  convolution_param {
    num_output: 256
    pad: 1
    kernel_size: 3
  }
}
layers {
  bottom: "conv3_3"
  top: "conv3_3"
  name: "relu3_3"
  type: RELU
}
layers {
  bottom: "conv3_3"
  top: "pool3"
  name: "pool3"
  type: POOLING
  pooling_param {
    pool: MAX
    kernel_size: 3
    stride: 2
    pad: 1
  }
}
layers {
  bottom: "pool3"
  top: "conv4_1"
  name: "conv4_1"
  type: CONVOLUTION
  blobs_lr: 1
  blobs_lr: 2
  weight_decay: 1
  weight_decay: 0
  convolution_param {
    num_output: 512
    pad: 1
    kernel_size: 3
  }
}
layers {
  bottom: "conv4_1"
  top: "conv4_1"
  name: "relu4_1"
  type: RELU
}
layers {
  bottom: "conv4_1"
  top: "conv4_2"
  name: "conv4_2"
  type: CONVOLUTION
  blobs_lr: 1
  blobs_lr: 2
  weight_decay: 1
  weight_decay: 0
  convolution_param {
    num_output: 512
    pad: 1
    kernel_size: 3
  }
}
layers {
  bottom: "conv4_2"
  top: "conv4_2"
  name: "relu4_2"
  type: RELU
}
layers {
  bottom: "conv4_2"
  top: "conv4_3"
  name: "conv4_3"
  type: CONVOLUTION
  blobs_lr: 1
  blobs_lr: 2
  weight_decay: 1
  weight_decay: 0
  convolution_param {
    num_output: 512
    pad: 1
    kernel_size: 3
  }
}
layers {
  bottom: "conv4_3"
  top: "conv4_3"
  name: "relu4_3"
  type: RELU
}
layers {
  bottom: "conv4_3"
  top: "pool4"
  name: "pool4"
  type: POOLING
  pooling_param {
    pool: MAX
    kernel_size: 3
    stride: 1
    pad: 1
  }
}
layers {
  bottom: "pool4"
  top: "conv5_1"
  name: "conv5_1"
  type: CONVOLUTION
  blobs_lr: 1
  blobs_lr: 2
  weight_decay: 1
  weight_decay: 0
  convolution_param {
    num_output: 512
    pad: 2
    kernel_size: 3
    hole: 2
  }
}
layers {
  bottom: "conv5_1"
  top: "conv5_1"
  name: "relu5_1"
  type: RELU
}
layers {
  bottom: "conv5_1"
  top: "conv5_2"
  name: "conv5_2"
  type: CONVOLUTION
  blobs_lr: 1
  blobs_lr: 2
  weight_decay: 1
  weight_decay: 0
  convolution_param {
    num_output: 512
    pad: 2
    kernel_size: 3
    hole: 2
  }
}
layers {
  bottom: "conv5_2"
  top: "conv5_2"
  name: "relu5_2"
  type: RELU
}
layers {
  bottom: "conv5_2"
  top: "conv5_3"
  name: "conv5_3"
  type: CONVOLUTION
  blobs_lr: 1
  blobs_lr: 2
  weight_decay: 1
  weight_decay: 0
  convolution_param {
    num_output: 512
    pad: 2
    kernel_size: 3
    hole: 2
  }
}
layers {
  bottom: "conv5_3"
  top: "conv5_3"
  name: "relu5_3"
  type: RELU
}
layers {
  bottom: "conv5_3"
  top: "pool5"
  name: "pool5"
  type: POOLING
  pooling_param {
    pool: MAX
    kernel_size: 3
    stride: 1
    pad: 1
  }
}
layers {
  bottom: "pool5"
  top: "fc6"
  name: "fc6"
  type: CONVOLUTION
  blobs_lr: 1
  blobs_lr: 2
  weight_decay: 1
  weight_decay: 0
  convolution_param {
    num_output: 4096
    pad: 6
    kernel_size: 4
    hole: 4
  }
  strict_dim: false
}
layers {
  bottom: "fc6"
  top: "fc6"
  name: "relu6"
  type: RELU
}
layers {
  bottom: "fc6"
  top: "fc6"
  name: "drop6"
  type: DROPOUT
  dropout_param {
    dropout_ratio: 0.5
  }
}
layers {
  bottom: "fc6"
  top: "fc7"
  name: "fc7"
  type: CONVOLUTION
  blobs_lr: 1
  blobs_lr: 2
  weight_decay: 1
  weight_decay: 0
  convolution_param {
    num_output: 4096
    kernel_size: 1
  }
  strict_dim: false
}
layers {
  bottom: "fc7"
  top: "fc7"
  name: "relu7"
  type: RELU
}
layers {
  bottom: "fc7"
  top: "fc7"
  name: "drop7"
  type: DROPOUT
  dropout_param {
    dropout_ratio: 0.5
  }
}
layers {
  bottom: "fc7"
  top: "fc8_weak2"
  name: "fc8_weak2"
  type: CONVOLUTION
  blobs_lr: 10
  blobs_lr: 20
  weight_decay: 1
  weight_decay: 0
  convolution_param {
    num_output: 21
    kernel_size: 1
    weight_filler {
      type: "gaussian"
      std: 0.01
    }
    bias_filler {
      type: "constant"
      value: 0
    }
  }
  strict_dim: false
}
layers {
  bottom: "fc8_weak2"
  bottom: "label_weak"
  top: "fc8_biased"
  name: "fc8_biased"
  type: ADAPTIVE_BIAS_CHANNEL
  adaptive_bias_channel_param {
    num_iter: 5
    bg_portion: 0.4
    fg_portion: 0.2
    suppress_others: true
    margin_others: 1e-05
  }
}
layers {
  bottom: "fc8_biased"
  top: "label_estep"
  name: "label_estep"
  type: ARGMAX
  argmax_param {
    out_max_val: false
    top_k: 1
  }
}
layers {
  bottom: "fc8_weak2"
  bottom: "label_estep"
  name: "loss"
  type: SOFTMAX_LOSS
  include {
    phase: TRAIN
  }
  softmaxloss_param {
    ignore_label: 255
  }
}
layers {
  bottom: "label_strong"
  top: "label_shrink"
  name: "label_shrink"
  type: INTERP
  interp_param {
    shrink_factor: 8
    pad_beg: 0
    pad_end: 0
  }
}
layers {
  bottom: "fc8_weak2"
  bottom: "label_shrink"
  top: "accuracy"
  name: "accuracy"
  type: SEG_ACCURACY
  seg_accuracy_param {
    ignore_label: 255
  }
}
state {
  phase: TRAIN
}
I0111 09:31:31.765395 42743 layer_factory.hpp:78] Creating layer data
I0111 09:31:31.765434 42743 net.cpp:67] Creating Layer data
I0111 09:31:31.765441 42743 net.cpp:356] data -> data
I0111 09:31:31.765460 42743 net.cpp:356] data -> label_strong
I0111 09:31:31.765470 42743 net.cpp:356] data -> (automatic)
I0111 09:31:31.765475 42743 net.cpp:96] Setting up data
I0111 09:31:31.765480 42743 image_seg_data_layer.cpp:45] Opening file weak2/list/train.txt
I0111 09:31:31.767082 42743 image_seg_data_layer.cpp:62] Shuffling data
I0111 09:31:31.767187 42743 image_seg_data_layer.cpp:67] A total of 1464 images.
I0111 09:31:31.795233 42743 image_seg_data_layer.cpp:113] output data size: 10,3,321,321
I0111 09:31:31.795253 42743 image_seg_data_layer.cpp:117] output label size: 10,1,321,321
I0111 09:31:31.795258 42743 image_seg_data_layer.cpp:121] output data_dim size: 10,1,1,2
I0111 09:31:31.795958 42743 net.cpp:103] Top shape: 10 3 321 321 (3091230)
I0111 09:31:31.795974 42743 net.cpp:103] Top shape: 10 1 321 321 (1030410)
I0111 09:31:31.795979 42743 net.cpp:103] Top shape: 10 1 1 2 (20)
I0111 09:31:31.795982 42743 layer_factory.hpp:78] Creating layer label_strong_data_1_split
I0111 09:31:31.795990 42743 net.cpp:67] Creating Layer label_strong_data_1_split
I0111 09:31:31.795994 42743 net.cpp:394] label_strong_data_1_split <- label_strong
I0111 09:31:31.796010 42743 net.cpp:356] label_strong_data_1_split -> label_strong_data_1_split_0
I0111 09:31:31.796018 42743 net.cpp:356] label_strong_data_1_split -> label_strong_data_1_split_1
I0111 09:31:31.796025 42743 net.cpp:96] Setting up label_strong_data_1_split
I0111 09:31:31.796028 42743 net.cpp:103] Top shape: 10 1 321 321 (1030410)
I0111 09:31:31.796032 42743 net.cpp:103] Top shape: 10 1 321 321 (1030410)
I0111 09:31:31.796036 42743 layer_factory.hpp:78] Creating layer label_weak
I0111 09:31:31.796051 42743 net.cpp:67] Creating Layer label_weak
I0111 09:31:31.796054 42743 net.cpp:394] label_weak <- label_strong_data_1_split_0
I0111 09:31:31.796059 42743 net.cpp:356] label_weak -> label_weak
I0111 09:31:31.796066 42743 net.cpp:96] Setting up label_weak
I0111 09:31:31.796069 42743 net.cpp:103] Top shape: 10 10 1 1 (100)
I0111 09:31:31.796073 42743 layer_factory.hpp:78] Creating layer conv1_1
I0111 09:31:31.796078 42743 net.cpp:67] Creating Layer conv1_1
I0111 09:31:31.796082 42743 net.cpp:394] conv1_1 <- data
I0111 09:31:31.796087 42743 net.cpp:356] conv1_1 -> conv1_1
I0111 09:31:31.796092 42743 net.cpp:96] Setting up conv1_1
I0111 09:31:31.905349 42743 net.cpp:103] Top shape: 10 64 321 321 (65946240)
I0111 09:31:31.905398 42743 layer_factory.hpp:78] Creating layer relu1_1
I0111 09:31:31.905411 42743 net.cpp:67] Creating Layer relu1_1
I0111 09:31:31.905416 42743 net.cpp:394] relu1_1 <- conv1_1
I0111 09:31:31.905423 42743 net.cpp:345] relu1_1 -> conv1_1 (in-place)
I0111 09:31:31.905431 42743 net.cpp:96] Setting up relu1_1
I0111 09:31:31.905452 42743 net.cpp:103] Top shape: 10 64 321 321 (65946240)
I0111 09:31:31.905455 42743 layer_factory.hpp:78] Creating layer conv1_2
I0111 09:31:31.905462 42743 net.cpp:67] Creating Layer conv1_2
I0111 09:31:31.905465 42743 net.cpp:394] conv1_2 <- conv1_1
I0111 09:31:31.905469 42743 net.cpp:356] conv1_2 -> conv1_2
I0111 09:31:31.905475 42743 net.cpp:96] Setting up conv1_2
I0111 09:31:31.905900 42743 net.cpp:103] Top shape: 10 64 321 321 (65946240)
I0111 09:31:31.905920 42743 layer_factory.hpp:78] Creating layer relu1_2
I0111 09:31:31.905928 42743 net.cpp:67] Creating Layer relu1_2
I0111 09:31:31.905932 42743 net.cpp:394] relu1_2 <- conv1_2
I0111 09:31:31.905936 42743 net.cpp:345] relu1_2 -> conv1_2 (in-place)
I0111 09:31:31.905941 42743 net.cpp:96] Setting up relu1_2
I0111 09:31:31.905951 42743 net.cpp:103] Top shape: 10 64 321 321 (65946240)
I0111 09:31:31.905954 42743 layer_factory.hpp:78] Creating layer pool1
I0111 09:31:31.905958 42743 layer_factory.cpp:51] CUDNN does not support padding or multiple tops. Using Caffe's own pooling layer.
I0111 09:31:31.905964 42743 net.cpp:67] Creating Layer pool1
I0111 09:31:31.905967 42743 net.cpp:394] pool1 <- conv1_2
I0111 09:31:31.906006 42743 net.cpp:356] pool1 -> pool1
I0111 09:31:31.906018 42743 net.cpp:96] Setting up pool1
I0111 09:31:31.906038 42743 net.cpp:103] Top shape: 10 64 161 161 (16589440)
I0111 09:31:31.906042 42743 layer_factory.hpp:78] Creating layer conv2_1
I0111 09:31:31.906050 42743 net.cpp:67] Creating Layer conv2_1
I0111 09:31:31.906054 42743 net.cpp:394] conv2_1 <- pool1
I0111 09:31:31.906059 42743 net.cpp:356] conv2_1 -> conv2_1
I0111 09:31:31.906062 42743 net.cpp:96] Setting up conv2_1
I0111 09:31:31.911061 42743 net.cpp:103] Top shape: 10 128 161 161 (33178880)
I0111 09:31:31.911087 42743 layer_factory.hpp:78] Creating layer relu2_1
I0111 09:31:31.911095 42743 net.cpp:67] Creating Layer relu2_1
I0111 09:31:31.911099 42743 net.cpp:394] relu2_1 <- conv2_1
I0111 09:31:31.911108 42743 net.cpp:345] relu2_1 -> conv2_1 (in-place)
I0111 09:31:31.911113 42743 net.cpp:96] Setting up relu2_1
I0111 09:31:31.911123 42743 net.cpp:103] Top shape: 10 128 161 161 (33178880)
I0111 09:31:31.911139 42743 layer_factory.hpp:78] Creating layer conv2_2
I0111 09:31:31.911144 42743 net.cpp:67] Creating Layer conv2_2
I0111 09:31:31.911147 42743 net.cpp:394] conv2_2 <- conv2_1
I0111 09:31:31.911154 42743 net.cpp:356] conv2_2 -> conv2_2
I0111 09:31:31.911165 42743 net.cpp:96] Setting up conv2_2
I0111 09:31:31.911661 42743 net.cpp:103] Top shape: 10 128 161 161 (33178880)
I0111 09:31:31.911679 42743 layer_factory.hpp:78] Creating layer relu2_2
I0111 09:31:31.911687 42743 net.cpp:67] Creating Layer relu2_2
I0111 09:31:31.911690 42743 net.cpp:394] relu2_2 <- conv2_2
I0111 09:31:31.911695 42743 net.cpp:345] relu2_2 -> conv2_2 (in-place)
I0111 09:31:31.911700 42743 net.cpp:96] Setting up relu2_2
I0111 09:31:31.911708 42743 net.cpp:103] Top shape: 10 128 161 161 (33178880)
I0111 09:31:31.911712 42743 layer_factory.hpp:78] Creating layer pool2
I0111 09:31:31.911715 42743 layer_factory.cpp:51] CUDNN does not support padding or multiple tops. Using Caffe's own pooling layer.
I0111 09:31:31.911720 42743 net.cpp:67] Creating Layer pool2
I0111 09:31:31.911722 42743 net.cpp:394] pool2 <- conv2_2
I0111 09:31:31.911726 42743 net.cpp:356] pool2 -> pool2
I0111 09:31:31.911731 42743 net.cpp:96] Setting up pool2
I0111 09:31:31.911736 42743 net.cpp:103] Top shape: 10 128 81 81 (8398080)
I0111 09:31:31.911739 42743 layer_factory.hpp:78] Creating layer conv3_1
I0111 09:31:31.911746 42743 net.cpp:67] Creating Layer conv3_1
I0111 09:31:31.911748 42743 net.cpp:394] conv3_1 <- pool2
I0111 09:31:31.911753 42743 net.cpp:356] conv3_1 -> conv3_1
I0111 09:31:31.911757 42743 net.cpp:96] Setting up conv3_1
I0111 09:31:31.912488 42743 net.cpp:103] Top shape: 10 256 81 81 (16796160)
I0111 09:31:31.912508 42743 layer_factory.hpp:78] Creating layer relu3_1
I0111 09:31:31.912515 42743 net.cpp:67] Creating Layer relu3_1
I0111 09:31:31.912518 42743 net.cpp:394] relu3_1 <- conv3_1
I0111 09:31:31.912523 42743 net.cpp:345] relu3_1 -> conv3_1 (in-place)
I0111 09:31:31.912528 42743 net.cpp:96] Setting up relu3_1
I0111 09:31:31.912537 42743 net.cpp:103] Top shape: 10 256 81 81 (16796160)
I0111 09:31:31.912540 42743 layer_factory.hpp:78] Creating layer conv3_2
I0111 09:31:31.912546 42743 net.cpp:67] Creating Layer conv3_2
I0111 09:31:31.912549 42743 net.cpp:394] conv3_2 <- conv3_1
I0111 09:31:31.912554 42743 net.cpp:356] conv3_2 -> conv3_2
I0111 09:31:31.912559 42743 net.cpp:96] Setting up conv3_2
I0111 09:31:31.913636 42743 net.cpp:103] Top shape: 10 256 81 81 (16796160)
I0111 09:31:31.913655 42743 layer_factory.hpp:78] Creating layer relu3_2
I0111 09:31:31.913662 42743 net.cpp:67] Creating Layer relu3_2
I0111 09:31:31.913666 42743 net.cpp:394] relu3_2 <- conv3_2
I0111 09:31:31.913671 42743 net.cpp:345] relu3_2 -> conv3_2 (in-place)
I0111 09:31:31.913676 42743 net.cpp:96] Setting up relu3_2
I0111 09:31:31.913683 42743 net.cpp:103] Top shape: 10 256 81 81 (16796160)
I0111 09:31:31.913692 42743 layer_factory.hpp:78] Creating layer conv3_3
I0111 09:31:31.913699 42743 net.cpp:67] Creating Layer conv3_3
I0111 09:31:31.913703 42743 net.cpp:394] conv3_3 <- conv3_2
I0111 09:31:31.913707 42743 net.cpp:356] conv3_3 -> conv3_3
I0111 09:31:31.913744 42743 net.cpp:96] Setting up conv3_3
I0111 09:31:31.915138 42743 net.cpp:103] Top shape: 10 256 81 81 (16796160)
I0111 09:31:31.915156 42743 layer_factory.hpp:78] Creating layer relu3_3
I0111 09:31:31.915163 42743 net.cpp:67] Creating Layer relu3_3
I0111 09:31:31.915168 42743 net.cpp:394] relu3_3 <- conv3_3
I0111 09:31:31.915172 42743 net.cpp:345] relu3_3 -> conv3_3 (in-place)
I0111 09:31:31.915177 42743 net.cpp:96] Setting up relu3_3
I0111 09:31:31.915189 42743 net.cpp:103] Top shape: 10 256 81 81 (16796160)
I0111 09:31:31.915192 42743 layer_factory.hpp:78] Creating layer pool3
I0111 09:31:31.915196 42743 layer_factory.cpp:51] CUDNN does not support padding or multiple tops. Using Caffe's own pooling layer.
I0111 09:31:31.915201 42743 net.cpp:67] Creating Layer pool3
I0111 09:31:31.915205 42743 net.cpp:394] pool3 <- conv3_3
I0111 09:31:31.915208 42743 net.cpp:356] pool3 -> pool3
I0111 09:31:31.915213 42743 net.cpp:96] Setting up pool3
I0111 09:31:31.915218 42743 net.cpp:103] Top shape: 10 256 41 41 (4303360)
I0111 09:31:31.915221 42743 layer_factory.hpp:78] Creating layer conv4_1
I0111 09:31:31.915227 42743 net.cpp:67] Creating Layer conv4_1
I0111 09:31:31.915235 42743 net.cpp:394] conv4_1 <- pool3
I0111 09:31:31.915240 42743 net.cpp:356] conv4_1 -> conv4_1
I0111 09:31:31.915246 42743 net.cpp:96] Setting up conv4_1
I0111 09:31:31.918638 42743 net.cpp:103] Top shape: 10 512 41 41 (8606720)
I0111 09:31:31.918663 42743 layer_factory.hpp:78] Creating layer relu4_1
I0111 09:31:31.918669 42743 net.cpp:67] Creating Layer relu4_1
I0111 09:31:31.918673 42743 net.cpp:394] relu4_1 <- conv4_1
I0111 09:31:31.918678 42743 net.cpp:345] relu4_1 -> conv4_1 (in-place)
I0111 09:31:31.918684 42743 net.cpp:96] Setting up relu4_1
I0111 09:31:31.918692 42743 net.cpp:103] Top shape: 10 512 41 41 (8606720)
I0111 09:31:31.918699 42743 layer_factory.hpp:78] Creating layer conv4_2
I0111 09:31:31.918707 42743 net.cpp:67] Creating Layer conv4_2
I0111 09:31:31.918711 42743 net.cpp:394] conv4_2 <- conv4_1
I0111 09:31:31.918715 42743 net.cpp:356] conv4_2 -> conv4_2
I0111 09:31:31.918720 42743 net.cpp:96] Setting up conv4_2
I0111 09:31:31.922112 42743 net.cpp:103] Top shape: 10 512 41 41 (8606720)
I0111 09:31:31.922135 42743 layer_factory.hpp:78] Creating layer relu4_2
I0111 09:31:31.922142 42743 net.cpp:67] Creating Layer relu4_2
I0111 09:31:31.922147 42743 net.cpp:394] relu4_2 <- conv4_2
I0111 09:31:31.922153 42743 net.cpp:345] relu4_2 -> conv4_2 (in-place)
I0111 09:31:31.922158 42743 net.cpp:96] Setting up relu4_2
I0111 09:31:31.922166 42743 net.cpp:103] Top shape: 10 512 41 41 (8606720)
I0111 09:31:31.922170 42743 layer_factory.hpp:78] Creating layer conv4_3
I0111 09:31:31.922174 42743 net.cpp:67] Creating Layer conv4_3
I0111 09:31:31.922178 42743 net.cpp:394] conv4_3 <- conv4_2
I0111 09:31:31.922183 42743 net.cpp:356] conv4_3 -> conv4_3
I0111 09:31:31.922186 42743 net.cpp:96] Setting up conv4_3
I0111 09:31:31.925197 42743 net.cpp:103] Top shape: 10 512 41 41 (8606720)
I0111 09:31:31.925220 42743 layer_factory.hpp:78] Creating layer relu4_3
I0111 09:31:31.925227 42743 net.cpp:67] Creating Layer relu4_3
I0111 09:31:31.925231 42743 net.cpp:394] relu4_3 <- conv4_3
I0111 09:31:31.925236 42743 net.cpp:345] relu4_3 -> conv4_3 (in-place)
I0111 09:31:31.925241 42743 net.cpp:96] Setting up relu4_3
I0111 09:31:31.925249 42743 net.cpp:103] Top shape: 10 512 41 41 (8606720)
I0111 09:31:31.925258 42743 layer_factory.hpp:78] Creating layer pool4
I0111 09:31:31.925262 42743 layer_factory.cpp:51] CUDNN does not support padding or multiple tops. Using Caffe's own pooling layer.
I0111 09:31:31.925267 42743 net.cpp:67] Creating Layer pool4
I0111 09:31:31.925271 42743 net.cpp:394] pool4 <- conv4_3
I0111 09:31:31.925277 42743 net.cpp:356] pool4 -> pool4
I0111 09:31:31.925282 42743 net.cpp:96] Setting up pool4
I0111 09:31:31.925287 42743 net.cpp:103] Top shape: 10 512 41 41 (8606720)
I0111 09:31:31.925290 42743 layer_factory.hpp:78] Creating layer conv5_1
I0111 09:31:31.925295 42743 net.cpp:67] Creating Layer conv5_1
I0111 09:31:31.925330 42743 net.cpp:394] conv5_1 <- pool4
I0111 09:31:31.925340 42743 net.cpp:356] conv5_1 -> conv5_1
I0111 09:31:31.925345 42743 net.cpp:96] Setting up conv5_1
I0111 09:31:31.928711 42743 net.cpp:103] Top shape: 10 512 41 41 (8606720)
I0111 09:31:31.928732 42743 layer_factory.hpp:78] Creating layer relu5_1
I0111 09:31:31.928738 42743 net.cpp:67] Creating Layer relu5_1
I0111 09:31:31.928742 42743 net.cpp:394] relu5_1 <- conv5_1
I0111 09:31:31.928750 42743 net.cpp:345] relu5_1 -> conv5_1 (in-place)
I0111 09:31:31.928755 42743 net.cpp:96] Setting up relu5_1
I0111 09:31:31.928763 42743 net.cpp:103] Top shape: 10 512 41 41 (8606720)
I0111 09:31:31.928767 42743 layer_factory.hpp:78] Creating layer conv5_2
I0111 09:31:31.928772 42743 net.cpp:67] Creating Layer conv5_2
I0111 09:31:31.928776 42743 net.cpp:394] conv5_2 <- conv5_1
I0111 09:31:31.928779 42743 net.cpp:356] conv5_2 -> conv5_2
I0111 09:31:31.928784 42743 net.cpp:96] Setting up conv5_2
I0111 09:31:31.944654 42743 net.cpp:103] Top shape: 10 512 41 41 (8606720)
I0111 09:31:31.944680 42743 layer_factory.hpp:78] Creating layer relu5_2
I0111 09:31:31.944691 42743 net.cpp:67] Creating Layer relu5_2
I0111 09:31:31.944696 42743 net.cpp:394] relu5_2 <- conv5_2
I0111 09:31:31.944701 42743 net.cpp:345] relu5_2 -> conv5_2 (in-place)
I0111 09:31:31.944707 42743 net.cpp:96] Setting up relu5_2
I0111 09:31:31.944716 42743 net.cpp:103] Top shape: 10 512 41 41 (8606720)
I0111 09:31:31.944720 42743 layer_factory.hpp:78] Creating layer conv5_3
I0111 09:31:31.944725 42743 net.cpp:67] Creating Layer conv5_3
I0111 09:31:31.944728 42743 net.cpp:394] conv5_3 <- conv5_2
I0111 09:31:31.944732 42743 net.cpp:356] conv5_3 -> conv5_3
I0111 09:31:31.944738 42743 net.cpp:96] Setting up conv5_3
I0111 09:31:31.973366 42743 net.cpp:103] Top shape: 10 512 41 41 (8606720)
I0111 09:31:31.973394 42743 layer_factory.hpp:78] Creating layer relu5_3
I0111 09:31:31.973407 42743 net.cpp:67] Creating Layer relu5_3
I0111 09:31:31.973412 42743 net.cpp:394] relu5_3 <- conv5_3
I0111 09:31:31.973418 42743 net.cpp:345] relu5_3 -> conv5_3 (in-place)
I0111 09:31:31.973425 42743 net.cpp:96] Setting up relu5_3
I0111 09:31:31.973434 42743 net.cpp:103] Top shape: 10 512 41 41 (8606720)
I0111 09:31:31.973438 42743 layer_factory.hpp:78] Creating layer pool5
I0111 09:31:31.973443 42743 layer_factory.cpp:51] CUDNN does not support padding or multiple tops. Using Caffe's own pooling layer.
I0111 09:31:31.973448 42743 net.cpp:67] Creating Layer pool5
I0111 09:31:31.973450 42743 net.cpp:394] pool5 <- conv5_3
I0111 09:31:31.973455 42743 net.cpp:356] pool5 -> pool5
I0111 09:31:31.973460 42743 net.cpp:96] Setting up pool5
I0111 09:31:31.973466 42743 net.cpp:103] Top shape: 10 512 41 41 (8606720)
I0111 09:31:31.973469 42743 layer_factory.hpp:78] Creating layer fc6
I0111 09:31:31.973479 42743 net.cpp:67] Creating Layer fc6
I0111 09:31:31.973484 42743 net.cpp:394] fc6 <- pool5
I0111 09:31:31.973487 42743 net.cpp:356] fc6 -> fc6
I0111 09:31:31.973492 42743 net.cpp:96] Setting up fc6
I0111 09:31:32.034806 42743 net.cpp:103] Top shape: 10 4096 41 41 (68853760)
I0111 09:31:32.034849 42743 layer_factory.hpp:78] Creating layer relu6
I0111 09:31:32.034862 42743 net.cpp:67] Creating Layer relu6
I0111 09:31:32.034868 42743 net.cpp:394] relu6 <- fc6
I0111 09:31:32.034875 42743 net.cpp:345] relu6 -> fc6 (in-place)
I0111 09:31:32.034883 42743 net.cpp:96] Setting up relu6
I0111 09:31:32.034896 42743 net.cpp:103] Top shape: 10 4096 41 41 (68853760)
I0111 09:31:32.034900 42743 layer_factory.hpp:78] Creating layer drop6
I0111 09:31:32.034917 42743 net.cpp:67] Creating Layer drop6
I0111 09:31:32.034921 42743 net.cpp:394] drop6 <- fc6
I0111 09:31:32.034925 42743 net.cpp:345] drop6 -> fc6 (in-place)
I0111 09:31:32.034930 42743 net.cpp:96] Setting up drop6
I0111 09:31:32.034934 42743 net.cpp:103] Top shape: 10 4096 41 41 (68853760)
I0111 09:31:32.034937 42743 layer_factory.hpp:78] Creating layer fc7
I0111 09:31:32.034943 42743 net.cpp:67] Creating Layer fc7
I0111 09:31:32.034947 42743 net.cpp:394] fc7 <- fc6
I0111 09:31:32.034953 42743 net.cpp:356] fc7 -> fc7
I0111 09:31:32.034994 42743 net.cpp:96] Setting up fc7
I0111 09:31:32.086383 42743 net.cpp:103] Top shape: 10 4096 41 41 (68853760)
I0111 09:31:32.086423 42743 layer_factory.hpp:78] Creating layer relu7
I0111 09:31:32.086436 42743 net.cpp:67] Creating Layer relu7
I0111 09:31:32.086441 42743 net.cpp:394] relu7 <- fc7
I0111 09:31:32.088973 42743 net.cpp:345] relu7 -> fc7 (in-place)
I0111 09:31:32.088996 42743 net.cpp:96] Setting up relu7
I0111 09:31:32.089010 42743 net.cpp:103] Top shape: 10 4096 41 41 (68853760)
I0111 09:31:32.089015 42743 layer_factory.hpp:78] Creating layer drop7
I0111 09:31:32.089025 42743 net.cpp:67] Creating Layer drop7
I0111 09:31:32.089028 42743 net.cpp:394] drop7 <- fc7
I0111 09:31:32.089033 42743 net.cpp:345] drop7 -> fc7 (in-place)
I0111 09:31:32.089037 42743 net.cpp:96] Setting up drop7
I0111 09:31:32.089041 42743 net.cpp:103] Top shape: 10 4096 41 41 (68853760)
I0111 09:31:32.089046 42743 layer_factory.hpp:78] Creating layer fc8_weak2
I0111 09:31:32.089053 42743 net.cpp:67] Creating Layer fc8_weak2
I0111 09:31:32.089056 42743 net.cpp:394] fc8_weak2 <- fc7
I0111 09:31:32.089061 42743 net.cpp:356] fc8_weak2 -> fc8_weak2
I0111 09:31:32.089068 42743 net.cpp:96] Setting up fc8_weak2
I0111 09:31:32.091572 42743 net.cpp:103] Top shape: 10 21 41 41 (353010)
I0111 09:31:32.091598 42743 layer_factory.hpp:78] Creating layer fc8_weak2_fc8_weak2_0_split
I0111 09:31:32.091609 42743 net.cpp:67] Creating Layer fc8_weak2_fc8_weak2_0_split
I0111 09:31:32.091614 42743 net.cpp:394] fc8_weak2_fc8_weak2_0_split <- fc8_weak2
I0111 09:31:32.091619 42743 net.cpp:356] fc8_weak2_fc8_weak2_0_split -> fc8_weak2_fc8_weak2_0_split_0
I0111 09:31:32.091627 42743 net.cpp:356] fc8_weak2_fc8_weak2_0_split -> fc8_weak2_fc8_weak2_0_split_1
I0111 09:31:32.091634 42743 net.cpp:356] fc8_weak2_fc8_weak2_0_split -> fc8_weak2_fc8_weak2_0_split_2
I0111 09:31:32.091639 42743 net.cpp:96] Setting up fc8_weak2_fc8_weak2_0_split
I0111 09:31:32.091644 42743 net.cpp:103] Top shape: 10 21 41 41 (353010)
I0111 09:31:32.091646 42743 net.cpp:103] Top shape: 10 21 41 41 (353010)
I0111 09:31:32.091650 42743 net.cpp:103] Top shape: 10 21 41 41 (353010)
I0111 09:31:32.091652 42743 layer_factory.hpp:78] Creating layer fc8_biased
I0111 09:31:32.091660 42743 net.cpp:67] Creating Layer fc8_biased
I0111 09:31:32.091665 42743 net.cpp:394] fc8_biased <- fc8_weak2_fc8_weak2_0_split_0
I0111 09:31:32.091668 42743 net.cpp:394] fc8_biased <- label_weak
I0111 09:31:32.091673 42743 net.cpp:356] fc8_biased -> fc8_biased
I0111 09:31:32.091678 42743 net.cpp:96] Setting up fc8_biased
I0111 09:31:32.091683 42743 net.cpp:103] Top shape: 10 21 41 41 (353010)
I0111 09:31:32.091686 42743 layer_factory.hpp:78] Creating layer label_estep
I0111 09:31:32.091691 42743 net.cpp:67] Creating Layer label_estep
I0111 09:31:32.091694 42743 net.cpp:394] label_estep <- fc8_biased
I0111 09:31:32.091698 42743 net.cpp:356] label_estep -> label_estep
I0111 09:31:32.091703 42743 net.cpp:96] Setting up label_estep
I0111 09:31:32.091707 42743 net.cpp:103] Top shape: 10 1 41 41 (16810)
I0111 09:31:32.091711 42743 layer_factory.hpp:78] Creating layer loss
I0111 09:31:32.091719 42743 net.cpp:67] Creating Layer loss
I0111 09:31:32.091723 42743 net.cpp:394] loss <- fc8_weak2_fc8_weak2_0_split_1
I0111 09:31:32.091727 42743 net.cpp:394] loss <- label_estep
I0111 09:31:32.091742 42743 net.cpp:356] loss -> (automatic)
I0111 09:31:32.091754 42743 net.cpp:96] Setting up loss
I0111 09:31:32.091760 42743 softmax_loss_layer.cpp:40] Weight_Loss file is not provided. Assign all one to it.
I0111 09:31:32.091766 42743 net.cpp:103] Top shape: 1 1 1 1 (1)
I0111 09:31:32.091769 42743 net.cpp:109]     with loss weight 1
I0111 09:31:32.091816 42743 layer_factory.hpp:78] Creating layer label_shrink
I0111 09:31:32.091823 42743 net.cpp:67] Creating Layer label_shrink
I0111 09:31:32.091827 42743 net.cpp:394] label_shrink <- label_strong_data_1_split_1
I0111 09:31:32.091831 42743 net.cpp:356] label_shrink -> label_shrink
I0111 09:31:32.091837 42743 net.cpp:96] Setting up label_shrink
I0111 09:31:32.091841 42743 net.cpp:103] Top shape: 10 1 41 41 (16810)
I0111 09:31:32.091887 42743 layer_factory.hpp:78] Creating layer accuracy
I0111 09:31:32.091899 42743 net.cpp:67] Creating Layer accuracy
I0111 09:31:32.091902 42743 net.cpp:394] accuracy <- fc8_weak2_fc8_weak2_0_split_2
I0111 09:31:32.091907 42743 net.cpp:394] accuracy <- label_shrink
I0111 09:31:32.091912 42743 net.cpp:356] accuracy -> accuracy
I0111 09:31:32.091917 42743 net.cpp:96] Setting up accuracy
I0111 09:31:32.091928 42743 net.cpp:103] Top shape: 1 1 1 3 (3)
I0111 09:31:32.091931 42743 net.cpp:172] accuracy does not need backward computation.
I0111 09:31:32.091934 42743 net.cpp:172] label_shrink does not need backward computation.
I0111 09:31:32.091938 42743 net.cpp:170] loss needs backward computation.
I0111 09:31:32.091940 42743 net.cpp:170] label_estep needs backward computation.
I0111 09:31:32.091943 42743 net.cpp:170] fc8_biased needs backward computation.
…
