…
I0113 15:32:42.296484 57166 solver.cpp:58] Creating training net from train_net file: weak2/config/adapt/train_train.prototxt
I0113 15:32:42.297145 57166 net.cpp:39] Initializing net from parameters: 
name: "adapt"
layers {
  top: "data"
  top: "label_strong"
  name: "data"
  type: IMAGE_SEG_DATA
  image_data_param {
    source: "weak2/list/train.txt"
    batch_size: 10
    shuffle: true
    root_folder: "/home/zhangzhengqiang/git/deeplab-public//data/pascal/VOCdevkit/VOC2012"
    label_type: PIXEL
  }
  include {
    phase: TRAIN
  }
  transform_param {
    mirror: true
    crop_size: 321
    mean_value: 104.008
    mean_value: 116.669
    mean_value: 122.675
  }
}
layers {
  bottom: "label_strong"
  top: "label_weak"
  name: "label_weak"
  type: UNIQUE_LABEL
  include {
    phase: TRAIN
  }
  unique_label_param {
    max_labels: 10
    ignore_label: 255
  }
}
layers {
  bottom: "data"
  top: "conv1_1"
  name: "conv1_1"
  type: CONVOLUTION
  blobs_lr: 1
  blobs_lr: 2
  weight_decay: 1
  weight_decay: 0
  convolution_param {
    num_output: 64
    pad: 1
    kernel_size: 3
  }
}
layers {
  bottom: "conv1_1"
  top: "conv1_1"
  name: "relu1_1"
  type: RELU
}
layers {
  bottom: "conv1_1"
  top: "conv1_2"
  name: "conv1_2"
  type: CONVOLUTION
  blobs_lr: 1
  blobs_lr: 2
  weight_decay: 1
  weight_decay: 0
  convolution_param {
    num_output: 64
    pad: 1
    kernel_size: 3
  }
}
layers {
  bottom: "conv1_2"
  top: "conv1_2"
  name: "relu1_2"
  type: RELU
}
layers {
  bottom: "conv1_2"
  top: "pool1"
  name: "pool1"
  type: POOLING
  pooling_param {
    pool: MAX
    kernel_size: 3
    stride: 2
    pad: 1
  }
}
layers {
  bottom: "pool1"
  top: "conv2_1"
  name: "conv2_1"
  type: CONVOLUTION
  blobs_lr: 1
  blobs_lr: 2
  weight_decay: 1
  weight_decay: 0
  convolution_param {
    num_output: 128
    pad: 1
    kernel_size: 3
  }
}
layers {
  bottom: "conv2_1"
  top: "conv2_1"
  name: "relu2_1"
  type: RELU
}
layers {
  bottom: "conv2_1"
  top: "conv2_2"
  name: "conv2_2"
  type: CONVOLUTION
  blobs_lr: 1
  blobs_lr: 2
  weight_decay: 1
  weight_decay: 0
  convolution_param {
    num_output: 128
    pad: 1
    kernel_size: 3
  }
}
layers {
  bottom: "conv2_2"
  top: "conv2_2"
  name: "relu2_2"
  type: RELU
}
layers {
  bottom: "conv2_2"
  top: "pool2"
  name: "pool2"
  type: POOLING
  pooling_param {
    pool: MAX
    kernel_size: 3
    stride: 2
    pad: 1
  }
}
layers {
  bottom: "pool2"
  top: "conv3_1"
  name: "conv3_1"
  type: CONVOLUTION
  blobs_lr: 1
  blobs_lr: 2
  weight_decay: 1
  weight_decay: 0
  convolution_param {
    num_output: 256
    pad: 1
    kernel_size: 3
  }
}
layers {
  bottom: "conv3_1"
  top: "conv3_1"
  name: "relu3_1"
  type: RELU
}
layers {
  bottom: "conv3_1"
  top: "conv3_2"
  name: "conv3_2"
  type: CONVOLUTION
  blobs_lr: 1
  blobs_lr: 2
  weight_decay: 1
  weight_decay: 0
  convolution_param {
    num_output: 256
    pad: 1
    kernel_size: 3
  }
}
layers {
  bottom: "conv3_2"
  top: "conv3_2"
  name: "relu3_2"
  type: RELU
}
layers {
  bottom: "conv3_2"
  top: "conv3_3"
  name: "conv3_3"
  type: CONVOLUTION
  blobs_lr: 1
  blobs_lr: 2
  weight_decay: 1
  weight_decay: 0
  convolution_param {
    num_output: 256
    pad: 1
    kernel_size: 3
  }
}
layers {
  bottom: "conv3_3"
  top: "conv3_3"
  name: "relu3_3"
  type: RELU
}
layers {
  bottom: "conv3_3"
  top: "pool3"
  name: "pool3"
  type: POOLING
  pooling_param {
    pool: MAX
    kernel_size: 3
    stride: 2
    pad: 1
  }
}
layers {
  bottom: "pool3"
  top: "conv4_1"
  name: "conv4_1"
  type: CONVOLUTION
  blobs_lr: 1
  blobs_lr: 2
  weight_decay: 1
  weight_decay: 0
  convolution_param {
    num_output: 512
    pad: 1
    kernel_size: 3
  }
}
layers {
  bottom: "conv4_1"
  top: "conv4_1"
  name: "relu4_1"
  type: RELU
}
layers {
  bottom: "conv4_1"
  top: "conv4_2"
  name: "conv4_2"
  type: CONVOLUTION
  blobs_lr: 1
  blobs_lr: 2
  weight_decay: 1
  weight_decay: 0
  convolution_param {
    num_output: 512
    pad: 1
    kernel_size: 3
  }
}
layers {
  bottom: "conv4_2"
  top: "conv4_2"
  name: "relu4_2"
  type: RELU
}
layers {
  bottom: "conv4_2"
  top: "conv4_3"
  name: "conv4_3"
  type: CONVOLUTION
  blobs_lr: 1
  blobs_lr: 2
  weight_decay: 1
  weight_decay: 0
  convolution_param {
    num_output: 512
    pad: 1
    kernel_size: 3
  }
}
layers {
  bottom: "conv4_3"
  top: "conv4_3"
  name: "relu4_3"
  type: RELU
}
layers {
  bottom: "conv4_3"
  top: "pool4"
  name: "pool4"
  type: POOLING
  pooling_param {
    pool: MAX
    kernel_size: 3
    stride: 1
    pad: 1
  }
}
layers {
  bottom: "pool4"
  top: "conv5_1"
  name: "conv5_1"
  type: CONVOLUTION
  blobs_lr: 1
  blobs_lr: 2
  weight_decay: 1
  weight_decay: 0
  convolution_param {
    num_output: 512
    pad: 2
    kernel_size: 3
    hole: 2
  }
}
layers {
  bottom: "conv5_1"
  top: "conv5_1"
  name: "relu5_1"
  type: RELU
}
layers {
  bottom: "conv5_1"
  top: "conv5_2"
  name: "conv5_2"
  type: CONVOLUTION
  blobs_lr: 1
  blobs_lr: 2
  weight_decay: 1
  weight_decay: 0
  convolution_param {
    num_output: 512
    pad: 2
    kernel_size: 3
    hole: 2
  }
}
layers {
  bottom: "conv5_2"
  top: "conv5_2"
  name: "relu5_2"
  type: RELU
}
layers {
  bottom: "conv5_2"
  top: "conv5_3"
  name: "conv5_3"
  type: CONVOLUTION
  blobs_lr: 1
  blobs_lr: 2
  weight_decay: 1
  weight_decay: 0
  convolution_param {
    num_output: 512
    pad: 2
    kernel_size: 3
    hole: 2
  }
}
layers {
  bottom: "conv5_3"
  top: "conv5_3"
  name: "relu5_3"
  type: RELU
}
layers {
  bottom: "conv5_3"
  top: "pool5"
  name: "pool5"
  type: POOLING
  pooling_param {
    pool: MAX
    kernel_size: 3
    stride: 1
    pad: 1
  }
}
layers {
  bottom: "pool5"
  top: "fc6"
  name: "fc6"
  type: CONVOLUTION
  blobs_lr: 1
  blobs_lr: 2
  weight_decay: 1
  weight_decay: 0
  convolution_param {
    num_output: 4096
    pad: 6
    kernel_size: 4
    hole: 4
  }
  strict_dim: false
}
layers {
  bottom: "fc6"
  top: "fc6"
  name: "relu6"
  type: RELU
}
layers {
  bottom: "fc6"
  top: "fc6"
  name: "drop6"
  type: DROPOUT
  dropout_param {
    dropout_ratio: 0.5
  }
}
layers {
  bottom: "fc6"
  top: "fc7"
  name: "fc7"
  type: CONVOLUTION
  blobs_lr: 1
  blobs_lr: 2
  weight_decay: 1
  weight_decay: 0
  convolution_param {
    num_output: 4096
    kernel_size: 1
  }
  strict_dim: false
}
layers {
  bottom: "fc7"
  top: "fc7"
  name: "relu7"
  type: RELU
}
layers {
  bottom: "fc7"
  top: "fc7"
  name: "drop7"
  type: DROPOUT
  dropout_param {
    dropout_ratio: 0.5
  }
}
layers {
  bottom: "fc7"
  top: "fc8_weak2"
  name: "fc8_weak2"
  type: CONVOLUTION
  blobs_lr: 10
  blobs_lr: 20
  weight_decay: 1
  weight_decay: 0
  convolution_param {
    num_output: 21
    kernel_size: 1
    weight_filler {
      type: "gaussian"
      std: 0.01
    }
    bias_filler {
      type: "constant"
      value: 0
    }
  }
  strict_dim: false
}
layers {
  bottom: "fc8_weak2"
  bottom: "label_weak"
  top: "fc8_biased"
  name: "fc8_biased"
  type: ADAPTIVE_BIAS_CHANNEL
  adaptive_bias_channel_param {
    num_iter: 5
    bg_portion: 0.4
    fg_portion: 0.2
    suppress_others: true
    margin_others: 1e-05
  }
}
layers {
  bottom: "fc8_biased"
  top: "label_estep"
  name: "label_estep"
  type: ARGMAX
  argmax_param {
    out_max_val: false
    top_k: 1
  }
}
layers {
  bottom: "fc8_weak2"
  bottom: "label_estep"
  name: "loss"
  type: SOFTMAX_LOSS
  include {
    phase: TRAIN
  }
  softmaxloss_param {
    ignore_label: 255
  }
}
layers {
  bottom: "label_strong"
  top: "label_shrink"
  name: "label_shrink"
  type: INTERP
  interp_param {
    shrink_factor: 8
    pad_beg: 0
    pad_end: 0
  }
}
layers {
  bottom: "fc8_weak2"
  bottom: "label_shrink"
  top: "accuracy"
  name: "accuracy"
  type: SEG_ACCURACY
  seg_accuracy_param {
    ignore_label: 255
  }
}
state {
  phase: TRAIN
}
I0113 15:32:42.297380 57166 layer_factory.hpp:78] Creating layer data
I0113 15:32:42.297441 57166 net.cpp:67] Creating Layer data
I0113 15:32:42.297456 57166 net.cpp:356] data -> data
I0113 15:32:42.297477 57166 net.cpp:356] data -> label_strong
I0113 15:32:42.297492 57166 net.cpp:356] data -> (automatic)
I0113 15:32:42.297499 57166 net.cpp:96] Setting up data
I0113 15:32:42.297504 57166 image_seg_data_layer.cpp:45] Opening file weak2/list/train.txt
I0113 15:32:42.298955 57166 image_seg_data_layer.cpp:62] Shuffling data
I0113 15:32:42.299046 57166 image_seg_data_layer.cpp:67] A total of 1464 images.
I0113 15:32:42.302150 57166 image_seg_data_layer.cpp:113] output data size: 10,3,321,321
I0113 15:32:42.302186 57166 image_seg_data_layer.cpp:117] output label size: 10,1,321,321
I0113 15:32:42.302191 57166 image_seg_data_layer.cpp:121] output data_dim size: 10,1,1,2
I0113 15:32:42.302404 57166 net.cpp:103] Top shape: 10 3 321 321 (3091230)
I0113 15:32:42.302417 57166 net.cpp:103] Top shape: 10 1 321 321 (1030410)
I0113 15:32:42.302422 57166 net.cpp:103] Top shape: 10 1 1 2 (20)
I0113 15:32:42.302425 57166 layer_factory.hpp:78] Creating layer label_strong_data_1_split
I0113 15:32:42.302465 57166 net.cpp:67] Creating Layer label_strong_data_1_split
I0113 15:32:42.302476 57166 net.cpp:394] label_strong_data_1_split <- label_strong
I0113 15:32:42.302500 57166 net.cpp:356] label_strong_data_1_split -> label_strong_data_1_split_0
I0113 15:32:42.302513 57166 net.cpp:356] label_strong_data_1_split -> label_strong_data_1_split_1
I0113 15:32:42.302528 57166 net.cpp:96] Setting up label_strong_data_1_split
I0113 15:32:42.302533 57166 net.cpp:103] Top shape: 10 1 321 321 (1030410)
I0113 15:32:42.302546 57166 net.cpp:103] Top shape: 10 1 321 321 (1030410)
I0113 15:32:42.302548 57166 layer_factory.hpp:78] Creating layer label_weak
I0113 15:32:42.302562 57166 net.cpp:67] Creating Layer label_weak
I0113 15:32:42.302570 57166 net.cpp:394] label_weak <- label_strong_data_1_split_0
I0113 15:32:42.302577 57166 net.cpp:356] label_weak -> label_weak
I0113 15:32:42.302587 57166 net.cpp:96] Setting up label_weak
I0113 15:32:42.302592 57166 net.cpp:103] Top shape: 10 10 1 1 (100)
I0113 15:32:42.302595 57166 layer_factory.hpp:78] Creating layer conv1_1
I0113 15:32:42.302601 57166 net.cpp:67] Creating Layer conv1_1
I0113 15:32:42.302604 57166 net.cpp:394] conv1_1 <- data
I0113 15:32:42.302609 57166 net.cpp:356] conv1_1 -> conv1_1
I0113 15:32:42.302615 57166 net.cpp:96] Setting up conv1_1
I0113 15:32:42.375797 57166 net.cpp:103] Top shape: 10 64 321 321 (65946240)
I0113 15:32:42.375840 57166 layer_factory.hpp:78] Creating layer relu1_1
I0113 15:32:42.375851 57166 net.cpp:67] Creating Layer relu1_1
I0113 15:32:42.375859 57166 net.cpp:394] relu1_1 <- conv1_1
I0113 15:32:42.375865 57166 net.cpp:345] relu1_1 -> conv1_1 (in-place)
I0113 15:32:42.375874 57166 net.cpp:96] Setting up relu1_1
I0113 15:32:42.375891 57166 net.cpp:103] Top shape: 10 64 321 321 (65946240)
I0113 15:32:42.375901 57166 layer_factory.hpp:78] Creating layer conv1_2
I0113 15:32:42.375907 57166 net.cpp:67] Creating Layer conv1_2
I0113 15:32:42.375910 57166 net.cpp:394] conv1_2 <- conv1_1
I0113 15:32:42.375916 57166 net.cpp:356] conv1_2 -> conv1_2
I0113 15:32:42.375923 57166 net.cpp:96] Setting up conv1_2
I0113 15:32:42.376324 57166 net.cpp:103] Top shape: 10 64 321 321 (65946240)
I0113 15:32:42.376343 57166 layer_factory.hpp:78] Creating layer relu1_2
I0113 15:32:42.376353 57166 net.cpp:67] Creating Layer relu1_2
I0113 15:32:42.376356 57166 net.cpp:394] relu1_2 <- conv1_2
I0113 15:32:42.376360 57166 net.cpp:345] relu1_2 -> conv1_2 (in-place)
I0113 15:32:42.376368 57166 net.cpp:96] Setting up relu1_2
I0113 15:32:42.376376 57166 net.cpp:103] Top shape: 10 64 321 321 (65946240)
I0113 15:32:42.376384 57166 layer_factory.hpp:78] Creating layer pool1
I0113 15:32:42.376389 57166 layer_factory.cpp:51] CUDNN does not support padding or multiple tops. Using Caffe's own pooling layer.
I0113 15:32:42.376394 57166 net.cpp:67] Creating Layer pool1
I0113 15:32:42.376397 57166 net.cpp:394] pool1 <- conv1_2
I0113 15:32:42.376435 57166 net.cpp:356] pool1 -> pool1
I0113 15:32:42.376446 57166 net.cpp:96] Setting up pool1
I0113 15:32:42.376466 57166 net.cpp:103] Top shape: 10 64 161 161 (16589440)
I0113 15:32:42.376487 57166 layer_factory.hpp:78] Creating layer conv2_1
I0113 15:32:42.376499 57166 net.cpp:67] Creating Layer conv2_1
I0113 15:32:42.376505 57166 net.cpp:394] conv2_1 <- pool1
I0113 15:32:42.376510 57166 net.cpp:356] conv2_1 -> conv2_1
I0113 15:32:42.376514 57166 net.cpp:96] Setting up conv2_1
I0113 15:32:42.377867 57166 net.cpp:103] Top shape: 10 128 161 161 (33178880)
I0113 15:32:42.377916 57166 layer_factory.hpp:78] Creating layer relu2_1
I0113 15:32:42.377923 57166 net.cpp:67] Creating Layer relu2_1
I0113 15:32:42.377928 57166 net.cpp:394] relu2_1 <- conv2_1
I0113 15:32:42.377933 57166 net.cpp:345] relu2_1 -> conv2_1 (in-place)
I0113 15:32:42.377940 57166 net.cpp:96] Setting up relu2_1
I0113 15:32:42.377955 57166 net.cpp:103] Top shape: 10 128 161 161 (33178880)
I0113 15:32:42.377964 57166 layer_factory.hpp:78] Creating layer conv2_2
I0113 15:32:42.377972 57166 net.cpp:67] Creating Layer conv2_2
I0113 15:32:42.377975 57166 net.cpp:394] conv2_2 <- conv2_1
I0113 15:32:42.377979 57166 net.cpp:356] conv2_2 -> conv2_2
I0113 15:32:42.377985 57166 net.cpp:96] Setting up conv2_2
I0113 15:32:42.378499 57166 net.cpp:103] Top shape: 10 128 161 161 (33178880)
I0113 15:32:42.378530 57166 layer_factory.hpp:78] Creating layer relu2_2
I0113 15:32:42.378536 57166 net.cpp:67] Creating Layer relu2_2
I0113 15:32:42.378540 57166 net.cpp:394] relu2_2 <- conv2_2
I0113 15:32:42.378545 57166 net.cpp:345] relu2_2 -> conv2_2 (in-place)
I0113 15:32:42.378549 57166 net.cpp:96] Setting up relu2_2
I0113 15:32:42.378557 57166 net.cpp:103] Top shape: 10 128 161 161 (33178880)
I0113 15:32:42.378566 57166 layer_factory.hpp:78] Creating layer pool2
I0113 15:32:42.378568 57166 layer_factory.cpp:51] CUDNN does not support padding or multiple tops. Using Caffe's own pooling layer.
I0113 15:32:42.378573 57166 net.cpp:67] Creating Layer pool2
I0113 15:32:42.378588 57166 net.cpp:394] pool2 <- conv2_2
I0113 15:32:42.378593 57166 net.cpp:356] pool2 -> pool2
I0113 15:32:42.378598 57166 net.cpp:96] Setting up pool2
I0113 15:32:42.378603 57166 net.cpp:103] Top shape: 10 128 81 81 (8398080)
I0113 15:32:42.378607 57166 layer_factory.hpp:78] Creating layer conv3_1
I0113 15:32:42.378612 57166 net.cpp:67] Creating Layer conv3_1
I0113 15:32:42.378614 57166 net.cpp:394] conv3_1 <- pool2
I0113 15:32:42.378621 57166 net.cpp:356] conv3_1 -> conv3_1
I0113 15:32:42.378630 57166 net.cpp:96] Setting up conv3_1
I0113 15:32:42.379348 57166 net.cpp:103] Top shape: 10 256 81 81 (16796160)
I0113 15:32:42.379366 57166 layer_factory.hpp:78] Creating layer relu3_1
I0113 15:32:42.379371 57166 net.cpp:67] Creating Layer relu3_1
I0113 15:32:42.379375 57166 net.cpp:394] relu3_1 <- conv3_1
I0113 15:32:42.379381 57166 net.cpp:345] relu3_1 -> conv3_1 (in-place)
I0113 15:32:42.379386 57166 net.cpp:96] Setting up relu3_1
I0113 15:32:42.379395 57166 net.cpp:103] Top shape: 10 256 81 81 (16796160)
I0113 15:32:42.379400 57166 layer_factory.hpp:78] Creating layer conv3_2
I0113 15:32:42.379405 57166 net.cpp:67] Creating Layer conv3_2
I0113 15:32:42.379407 57166 net.cpp:394] conv3_2 <- conv3_1
I0113 15:32:42.379411 57166 net.cpp:356] conv3_2 -> conv3_2
I0113 15:32:42.379418 57166 net.cpp:96] Setting up conv3_2
I0113 15:32:42.391744 57166 net.cpp:103] Top shape: 10 256 81 81 (16796160)
I0113 15:32:42.391768 57166 layer_factory.hpp:78] Creating layer relu3_2
I0113 15:32:42.391779 57166 net.cpp:67] Creating Layer relu3_2
I0113 15:32:42.391783 57166 net.cpp:394] relu3_2 <- conv3_2
I0113 15:32:42.391790 57166 net.cpp:345] relu3_2 -> conv3_2 (in-place)
I0113 15:32:42.391796 57166 net.cpp:96] Setting up relu3_2
I0113 15:32:42.391805 57166 net.cpp:103] Top shape: 10 256 81 81 (16796160)
I0113 15:32:42.391809 57166 layer_factory.hpp:78] Creating layer conv3_3
I0113 15:32:42.391814 57166 net.cpp:67] Creating Layer conv3_3
I0113 15:32:42.391818 57166 net.cpp:394] conv3_3 <- conv3_2
I0113 15:32:42.391821 57166 net.cpp:356] conv3_3 -> conv3_3
I0113 15:32:42.391851 57166 net.cpp:96] Setting up conv3_3
I0113 15:32:42.393257 57166 net.cpp:103] Top shape: 10 256 81 81 (16796160)
I0113 15:32:42.393280 57166 layer_factory.hpp:78] Creating layer relu3_3
I0113 15:32:42.393287 57166 net.cpp:67] Creating Layer relu3_3
I0113 15:32:42.393291 57166 net.cpp:394] relu3_3 <- conv3_3
I0113 15:32:42.393296 57166 net.cpp:345] relu3_3 -> conv3_3 (in-place)
I0113 15:32:42.393301 57166 net.cpp:96] Setting up relu3_3
I0113 15:32:42.393314 57166 net.cpp:103] Top shape: 10 256 81 81 (16796160)
I0113 15:32:42.393322 57166 layer_factory.hpp:78] Creating layer pool3
I0113 15:32:42.393326 57166 layer_factory.cpp:51] CUDNN does not support padding or multiple tops. Using Caffe's own pooling layer.
I0113 15:32:42.393332 57166 net.cpp:67] Creating Layer pool3
I0113 15:32:42.393334 57166 net.cpp:394] pool3 <- conv3_3
I0113 15:32:42.393338 57166 net.cpp:356] pool3 -> pool3
I0113 15:32:42.393343 57166 net.cpp:96] Setting up pool3
I0113 15:32:42.393350 57166 net.cpp:103] Top shape: 10 256 41 41 (4303360)
I0113 15:32:42.393353 57166 layer_factory.hpp:78] Creating layer conv4_1
I0113 15:32:42.393358 57166 net.cpp:67] Creating Layer conv4_1
I0113 15:32:42.393362 57166 net.cpp:394] conv4_1 <- pool3
I0113 15:32:42.393365 57166 net.cpp:356] conv4_1 -> conv4_1
I0113 15:32:42.393374 57166 net.cpp:96] Setting up conv4_1
I0113 15:32:42.433557 57166 net.cpp:103] Top shape: 10 512 41 41 (8606720)
I0113 15:32:42.433581 57166 layer_factory.hpp:78] Creating layer relu4_1
I0113 15:32:42.433589 57166 net.cpp:67] Creating Layer relu4_1
I0113 15:32:42.433593 57166 net.cpp:394] relu4_1 <- conv4_1
I0113 15:32:42.433601 57166 net.cpp:345] relu4_1 -> conv4_1 (in-place)
I0113 15:32:42.433607 57166 net.cpp:96] Setting up relu4_1
I0113 15:32:42.433616 57166 net.cpp:103] Top shape: 10 512 41 41 (8606720)
I0113 15:32:42.433619 57166 layer_factory.hpp:78] Creating layer conv4_2
I0113 15:32:42.433624 57166 net.cpp:67] Creating Layer conv4_2
I0113 15:32:42.433627 57166 net.cpp:394] conv4_2 <- conv4_1
I0113 15:32:42.433634 57166 net.cpp:356] conv4_2 -> conv4_2
I0113 15:32:42.433640 57166 net.cpp:96] Setting up conv4_2
I0113 15:32:42.437094 57166 net.cpp:103] Top shape: 10 512 41 41 (8606720)
I0113 15:32:42.437117 57166 layer_factory.hpp:78] Creating layer relu4_2
I0113 15:32:42.437124 57166 net.cpp:67] Creating Layer relu4_2
I0113 15:32:42.437129 57166 net.cpp:394] relu4_2 <- conv4_2
I0113 15:32:42.437134 57166 net.cpp:345] relu4_2 -> conv4_2 (in-place)
I0113 15:32:42.437139 57166 net.cpp:96] Setting up relu4_2
I0113 15:32:42.437146 57166 net.cpp:103] Top shape: 10 512 41 41 (8606720)
I0113 15:32:42.437150 57166 layer_factory.hpp:78] Creating layer conv4_3
I0113 15:32:42.437158 57166 net.cpp:67] Creating Layer conv4_3
I0113 15:32:42.437161 57166 net.cpp:394] conv4_3 <- conv4_2
I0113 15:32:42.437167 57166 net.cpp:356] conv4_3 -> conv4_3
I0113 15:32:42.437172 57166 net.cpp:96] Setting up conv4_3
I0113 15:32:42.450182 57166 net.cpp:103] Top shape: 10 512 41 41 (8606720)
I0113 15:32:42.450207 57166 layer_factory.hpp:78] Creating layer relu4_3
I0113 15:32:42.450214 57166 net.cpp:67] Creating Layer relu4_3
I0113 15:32:42.450219 57166 net.cpp:394] relu4_3 <- conv4_3
I0113 15:32:42.450227 57166 net.cpp:345] relu4_3 -> conv4_3 (in-place)
I0113 15:32:42.450232 57166 net.cpp:96] Setting up relu4_3
I0113 15:32:42.450244 57166 net.cpp:103] Top shape: 10 512 41 41 (8606720)
I0113 15:32:42.450256 57166 layer_factory.hpp:78] Creating layer pool4
I0113 15:32:42.450266 57166 layer_factory.cpp:51] CUDNN does not support padding or multiple tops. Using Caffe's own pooling layer.
I0113 15:32:42.450283 57166 net.cpp:67] Creating Layer pool4
I0113 15:32:42.450295 57166 net.cpp:394] pool4 <- conv4_3
I0113 15:32:42.450304 57166 net.cpp:356] pool4 -> pool4
I0113 15:32:42.450315 57166 net.cpp:96] Setting up pool4
I0113 15:32:42.450325 57166 net.cpp:103] Top shape: 10 512 41 41 (8606720)
I0113 15:32:42.450354 57166 layer_factory.hpp:78] Creating layer conv5_1
I0113 15:32:42.450373 57166 net.cpp:67] Creating Layer conv5_1
I0113 15:32:42.450409 57166 net.cpp:394] conv5_1 <- pool4
I0113 15:32:42.450417 57166 net.cpp:356] conv5_1 -> conv5_1
I0113 15:32:42.450423 57166 net.cpp:96] Setting up conv5_1
I0113 15:32:42.454027 57166 net.cpp:103] Top shape: 10 512 41 41 (8606720)
I0113 15:32:42.454052 57166 layer_factory.hpp:78] Creating layer relu5_1
I0113 15:32:42.454061 57166 net.cpp:67] Creating Layer relu5_1
I0113 15:32:42.454064 57166 net.cpp:394] relu5_1 <- conv5_1
I0113 15:32:42.454071 57166 net.cpp:345] relu5_1 -> conv5_1 (in-place)
I0113 15:32:42.454075 57166 net.cpp:96] Setting up relu5_1
I0113 15:32:42.454083 57166 net.cpp:103] Top shape: 10 512 41 41 (8606720)
I0113 15:32:42.454087 57166 layer_factory.hpp:78] Creating layer conv5_2
I0113 15:32:42.454097 57166 net.cpp:67] Creating Layer conv5_2
I0113 15:32:42.454102 57166 net.cpp:394] conv5_2 <- conv5_1
I0113 15:32:42.454107 57166 net.cpp:356] conv5_2 -> conv5_2
I0113 15:32:42.454113 57166 net.cpp:96] Setting up conv5_2
I0113 15:32:42.457072 57166 net.cpp:103] Top shape: 10 512 41 41 (8606720)
I0113 15:32:42.457098 57166 layer_factory.hpp:78] Creating layer relu5_2
I0113 15:32:42.457104 57166 net.cpp:67] Creating Layer relu5_2
I0113 15:32:42.457108 57166 net.cpp:394] relu5_2 <- conv5_2
I0113 15:32:42.457114 57166 net.cpp:345] relu5_2 -> conv5_2 (in-place)
I0113 15:32:42.457123 57166 net.cpp:96] Setting up relu5_2
I0113 15:32:42.457131 57166 net.cpp:103] Top shape: 10 512 41 41 (8606720)
I0113 15:32:42.457135 57166 layer_factory.hpp:78] Creating layer conv5_3
I0113 15:32:42.457140 57166 net.cpp:67] Creating Layer conv5_3
I0113 15:32:42.457144 57166 net.cpp:394] conv5_3 <- conv5_2
I0113 15:32:42.457147 57166 net.cpp:356] conv5_3 -> conv5_3
I0113 15:32:42.457154 57166 net.cpp:96] Setting up conv5_3
I0113 15:32:42.471469 57166 net.cpp:103] Top shape: 10 512 41 41 (8606720)
I0113 15:32:42.471495 57166 layer_factory.hpp:78] Creating layer relu5_3
I0113 15:32:42.471509 57166 net.cpp:67] Creating Layer relu5_3
I0113 15:32:42.471514 57166 net.cpp:394] relu5_3 <- conv5_3
I0113 15:32:42.471519 57166 net.cpp:345] relu5_3 -> conv5_3 (in-place)
I0113 15:32:42.471525 57166 net.cpp:96] Setting up relu5_3
I0113 15:32:42.471534 57166 net.cpp:103] Top shape: 10 512 41 41 (8606720)
I0113 15:32:42.471537 57166 layer_factory.hpp:78] Creating layer pool5
I0113 15:32:42.471541 57166 layer_factory.cpp:51] CUDNN does not support padding or multiple tops. Using Caffe's own pooling layer.
I0113 15:32:42.471546 57166 net.cpp:67] Creating Layer pool5
I0113 15:32:42.471549 57166 net.cpp:394] pool5 <- conv5_3
I0113 15:32:42.471554 57166 net.cpp:356] pool5 -> pool5
I0113 15:32:42.471560 57166 net.cpp:96] Setting up pool5
I0113 15:32:42.471565 57166 net.cpp:103] Top shape: 10 512 41 41 (8606720)
I0113 15:32:42.471568 57166 layer_factory.hpp:78] Creating layer fc6
I0113 15:32:42.471573 57166 net.cpp:67] Creating Layer fc6
I0113 15:32:42.471576 57166 net.cpp:394] fc6 <- pool5
I0113 15:32:42.471581 57166 net.cpp:356] fc6 -> fc6
I0113 15:32:42.471585 57166 net.cpp:96] Setting up fc6
I0113 15:32:42.555146 57166 net.cpp:103] Top shape: 10 4096 41 41 (68853760)
I0113 15:32:42.555202 57166 layer_factory.hpp:78] Creating layer relu6
I0113 15:32:42.555215 57166 net.cpp:67] Creating Layer relu6
I0113 15:32:42.555222 57166 net.cpp:394] relu6 <- fc6
I0113 15:32:42.555230 57166 net.cpp:345] relu6 -> fc6 (in-place)
I0113 15:32:42.555238 57166 net.cpp:96] Setting up relu6
I0113 15:32:42.555249 57166 net.cpp:103] Top shape: 10 4096 41 41 (68853760)
I0113 15:32:42.555253 57166 layer_factory.hpp:78] Creating layer drop6
I0113 15:32:42.555268 57166 net.cpp:67] Creating Layer drop6
I0113 15:32:42.555271 57166 net.cpp:394] drop6 <- fc6
I0113 15:32:42.555275 57166 net.cpp:345] drop6 -> fc6 (in-place)
I0113 15:32:42.555280 57166 net.cpp:96] Setting up drop6
I0113 15:32:42.555284 57166 net.cpp:103] Top shape: 10 4096 41 41 (68853760)
I0113 15:32:42.555289 57166 layer_factory.hpp:78] Creating layer fc7
I0113 15:32:42.555295 57166 net.cpp:67] Creating Layer fc7
I0113 15:32:42.555299 57166 net.cpp:394] fc7 <- fc6
I0113 15:32:42.555304 57166 net.cpp:356] fc7 -> fc7
I0113 15:32:42.555342 57166 net.cpp:96] Setting up fc7
I0113 15:32:42.594017 57166 net.cpp:103] Top shape: 10 4096 41 41 (68853760)
I0113 15:32:42.594055 57166 layer_factory.hpp:78] Creating layer relu7
I0113 15:32:42.594068 57166 net.cpp:67] Creating Layer relu7
I0113 15:32:42.594074 57166 net.cpp:394] relu7 <- fc7
I0113 15:32:42.594085 57166 net.cpp:345] relu7 -> fc7 (in-place)
I0113 15:32:42.594094 57166 net.cpp:96] Setting up relu7
I0113 15:32:42.594105 57166 net.cpp:103] Top shape: 10 4096 41 41 (68853760)
I0113 15:32:42.594108 57166 layer_factory.hpp:78] Creating layer drop7
I0113 15:32:42.594113 57166 net.cpp:67] Creating Layer drop7
I0113 15:32:42.594116 57166 net.cpp:394] drop7 <- fc7
I0113 15:32:42.594120 57166 net.cpp:345] drop7 -> fc7 (in-place)
I0113 15:32:42.594125 57166 net.cpp:96] Setting up drop7
I0113 15:32:42.594131 57166 net.cpp:103] Top shape: 10 4096 41 41 (68853760)
I0113 15:32:42.594135 57166 layer_factory.hpp:78] Creating layer fc8_weak2
I0113 15:32:42.594141 57166 net.cpp:67] Creating Layer fc8_weak2
I0113 15:32:42.594144 57166 net.cpp:394] fc8_weak2 <- fc7
I0113 15:32:42.594149 57166 net.cpp:356] fc8_weak2 -> fc8_weak2
I0113 15:32:42.594157 57166 net.cpp:96] Setting up fc8_weak2
I0113 15:32:42.595415 57166 net.cpp:103] Top shape: 10 21 41 41 (353010)
I0113 15:32:42.595435 57166 layer_factory.hpp:78] Creating layer fc8_weak2_fc8_weak2_0_split
I0113 15:32:42.595443 57166 net.cpp:67] Creating Layer fc8_weak2_fc8_weak2_0_split
I0113 15:32:42.595448 57166 net.cpp:394] fc8_weak2_fc8_weak2_0_split <- fc8_weak2
I0113 15:32:42.595455 57166 net.cpp:356] fc8_weak2_fc8_weak2_0_split -> fc8_weak2_fc8_weak2_0_split_0
I0113 15:32:42.595465 57166 net.cpp:356] fc8_weak2_fc8_weak2_0_split -> fc8_weak2_fc8_weak2_0_split_1
I0113 15:32:42.595471 57166 net.cpp:356] fc8_weak2_fc8_weak2_0_split -> fc8_weak2_fc8_weak2_0_split_2
I0113 15:32:42.595476 57166 net.cpp:96] Setting up fc8_weak2_fc8_weak2_0_split
I0113 15:32:42.595480 57166 net.cpp:103] Top shape: 10 21 41 41 (353010)
I0113 15:32:42.595484 57166 net.cpp:103] Top shape: 10 21 41 41 (353010)
I0113 15:32:42.595487 57166 net.cpp:103] Top shape: 10 21 41 41 (353010)
I0113 15:32:42.595490 57166 layer_factory.hpp:78] Creating layer fc8_biased
I0113 15:32:42.595496 57166 net.cpp:67] Creating Layer fc8_biased
I0113 15:32:42.595500 57166 net.cpp:394] fc8_biased <- fc8_weak2_fc8_weak2_0_split_0
I0113 15:32:42.595505 57166 net.cpp:394] fc8_biased <- label_weak
I0113 15:32:42.595511 57166 net.cpp:356] fc8_biased -> fc8_biased
I0113 15:32:42.595516 57166 net.cpp:96] Setting up fc8_biased
I0113 15:32:42.595521 57166 net.cpp:103] Top shape: 10 21 41 41 (353010)
I0113 15:32:42.595525 57166 layer_factory.hpp:78] Creating layer label_estep
I0113 15:32:42.595530 57166 net.cpp:67] Creating Layer label_estep
I0113 15:32:42.595533 57166 net.cpp:394] label_estep <- fc8_biased
I0113 15:32:42.595537 57166 net.cpp:356] label_estep -> label_estep
I0113 15:32:42.595541 57166 net.cpp:96] Setting up label_estep
I0113 15:32:42.595546 57166 net.cpp:103] Top shape: 10 1 41 41 (16810)
I0113 15:32:42.595548 57166 layer_factory.hpp:78] Creating layer loss
I0113 15:32:42.595558 57166 net.cpp:67] Creating Layer loss
I0113 15:32:42.595582 57166 net.cpp:394] loss <- fc8_weak2_fc8_weak2_0_split_1
I0113 15:32:42.595585 57166 net.cpp:394] loss <- label_estep
I0113 15:32:42.595602 57166 net.cpp:356] loss -> (automatic)
I0113 15:32:42.595624 57166 net.cpp:96] Setting up loss
I0113 15:32:42.595631 57166 softmax_loss_layer.cpp:40] Weight_Loss file is not provided. Assign all one to it.
I0113 15:32:42.595639 57166 net.cpp:103] Top shape: 1 1 1 1 (1)
I0113 15:32:42.595643 57166 net.cpp:109]     with loss weight 1
I0113 15:32:42.595669 57166 layer_factory.hpp:78] Creating layer label_shrink
I0113 15:32:42.595675 57166 net.cpp:67] Creating Layer label_shrink
I0113 15:32:42.595679 57166 net.cpp:394] label_shrink <- label_strong_data_1_split_1
I0113 15:32:42.595683 57166 net.cpp:356] label_shrink -> label_shrink
I0113 15:32:42.595688 57166 net.cpp:96] Setting up label_shrink
I0113 15:32:42.595693 57166 net.cpp:103] Top shape: 10 1 41 41 (16810)
I0113 15:32:42.595728 57166 layer_factory.hpp:78] Creating layer accuracy
I0113 15:32:42.595738 57166 net.cpp:67] Creating Layer accuracy
I0113 15:32:42.595746 57166 net.cpp:394] accuracy <- fc8_weak2_fc8_weak2_0_split_2
I0113 15:32:42.595751 57166 net.cpp:394] accuracy <- label_shrink
I0113 15:32:42.595755 57166 net.cpp:356] accuracy -> accuracy
I0113 15:32:42.595759 57166 net.cpp:96] Setting up accuracy
I0113 15:32:42.595769 57166 net.cpp:103] Top shape: 1 1 1 3 (3)
I0113 15:32:42.595774 57166 net.cpp:172] accuracy does not need backward computation.
I0113 15:32:42.595777 57166 net.cpp:172] label_shrink does not need backward computation.
I0113 15:32:42.595780 57166 net.cpp:170] loss needs backward computation.
I0113 15:32:42.595784 57166 net.cpp:170] label_estep needs backward computation.
I0113 15:32:42.595788 57166 net.cpp:170] fc8_biased needs backward computation.
…
