…
I0113 12:15:39.748728 28037 solver.cpp:58] Creating training net from train_net file: weak2/config/adapt/train_train.prototxt
I0113 12:15:39.749583 28037 net.cpp:39] Initializing net from parameters: 
name: "adapt"
layers {
  top: "data"
  top: "label_strong"
  name: "data"
  type: IMAGE_SEG_DATA
  image_data_param {
    source: "weak2/list/train.txt"
    batch_size: 10
    shuffle: true
    root_folder: "/home/zhangzhengqiang/git/deeplab-public//data/pascal/VOCdevkit/VOC2012"
    label_type: PIXEL
  }
  include {
    phase: TRAIN
  }
  transform_param {
    mirror: true
    crop_size: 321
    mean_value: 104.008
    mean_value: 116.669
    mean_value: 122.675
  }
}
layers {
  bottom: "label_strong"
  top: "label_weak"
  name: "label_weak"
  type: UNIQUE_LABEL
  include {
    phase: TRAIN
  }
  unique_label_param {
    max_labels: 10
    ignore_label: 255
  }
}
layers {
  bottom: "data"
  top: "conv1_1"
  name: "conv1_1"
  type: CONVOLUTION
  blobs_lr: 1
  blobs_lr: 2
  weight_decay: 1
  weight_decay: 0
  convolution_param {
    num_output: 64
    pad: 1
    kernel_size: 3
  }
}
layers {
  bottom: "conv1_1"
  top: "conv1_1"
  name: "relu1_1"
  type: RELU
}
layers {
  bottom: "conv1_1"
  top: "conv1_2"
  name: "conv1_2"
  type: CONVOLUTION
  blobs_lr: 1
  blobs_lr: 2
  weight_decay: 1
  weight_decay: 0
  convolution_param {
    num_output: 64
    pad: 1
    kernel_size: 3
  }
}
layers {
  bottom: "conv1_2"
  top: "conv1_2"
  name: "relu1_2"
  type: RELU
}
layers {
  bottom: "conv1_2"
  top: "pool1"
  name: "pool1"
  type: POOLING
  pooling_param {
    pool: MAX
    kernel_size: 3
    stride: 2
    pad: 1
  }
}
layers {
  bottom: "pool1"
  top: "conv2_1"
  name: "conv2_1"
  type: CONVOLUTION
  blobs_lr: 1
  blobs_lr: 2
  weight_decay: 1
  weight_decay: 0
  convolution_param {
    num_output: 128
    pad: 1
    kernel_size: 3
  }
}
layers {
  bottom: "conv2_1"
  top: "conv2_1"
  name: "relu2_1"
  type: RELU
}
layers {
  bottom: "conv2_1"
  top: "conv2_2"
  name: "conv2_2"
  type: CONVOLUTION
  blobs_lr: 1
  blobs_lr: 2
  weight_decay: 1
  weight_decay: 0
  convolution_param {
    num_output: 128
    pad: 1
    kernel_size: 3
  }
}
layers {
  bottom: "conv2_2"
  top: "conv2_2"
  name: "relu2_2"
  type: RELU
}
layers {
  bottom: "conv2_2"
  top: "pool2"
  name: "pool2"
  type: POOLING
  pooling_param {
    pool: MAX
    kernel_size: 3
    stride: 2
    pad: 1
  }
}
layers {
  bottom: "pool2"
  top: "conv3_1"
  name: "conv3_1"
  type: CONVOLUTION
  blobs_lr: 1
  blobs_lr: 2
  weight_decay: 1
  weight_decay: 0
  convolution_param {
    num_output: 256
    pad: 1
    kernel_size: 3
  }
}
layers {
  bottom: "conv3_1"
  top: "conv3_1"
  name: "relu3_1"
  type: RELU
}
layers {
  bottom: "conv3_1"
  top: "conv3_2"
  name: "conv3_2"
  type: CONVOLUTION
  blobs_lr: 1
  blobs_lr: 2
  weight_decay: 1
  weight_decay: 0
  convolution_param {
    num_output: 256
    pad: 1
    kernel_size: 3
  }
}
layers {
  bottom: "conv3_2"
  top: "conv3_2"
  name: "relu3_2"
  type: RELU
}
layers {
  bottom: "conv3_2"
  top: "conv3_3"
  name: "conv3_3"
  type: CONVOLUTION
  blobs_lr: 1
  blobs_lr: 2
  weight_decay: 1
  weight_decay: 0
  convolution_param {
    num_output: 256
    pad: 1
    kernel_size: 3
  }
}
layers {
  bottom: "conv3_3"
  top: "conv3_3"
  name: "relu3_3"
  type: RELU
}
layers {
  bottom: "conv3_3"
  top: "pool3"
  name: "pool3"
  type: POOLING
  pooling_param {
    pool: MAX
    kernel_size: 3
    stride: 2
    pad: 1
  }
}
layers {
  bottom: "pool3"
  top: "conv4_1"
  name: "conv4_1"
  type: CONVOLUTION
  blobs_lr: 1
  blobs_lr: 2
  weight_decay: 1
  weight_decay: 0
  convolution_param {
    num_output: 512
    pad: 1
    kernel_size: 3
  }
}
layers {
  bottom: "conv4_1"
  top: "conv4_1"
  name: "relu4_1"
  type: RELU
}
layers {
  bottom: "conv4_1"
  top: "conv4_2"
  name: "conv4_2"
  type: CONVOLUTION
  blobs_lr: 1
  blobs_lr: 2
  weight_decay: 1
  weight_decay: 0
  convolution_param {
    num_output: 512
    pad: 1
    kernel_size: 3
  }
}
layers {
  bottom: "conv4_2"
  top: "conv4_2"
  name: "relu4_2"
  type: RELU
}
layers {
  bottom: "conv4_2"
  top: "conv4_3"
  name: "conv4_3"
  type: CONVOLUTION
  blobs_lr: 1
  blobs_lr: 2
  weight_decay: 1
  weight_decay: 0
  convolution_param {
    num_output: 512
    pad: 1
    kernel_size: 3
  }
}
layers {
  bottom: "conv4_3"
  top: "conv4_3"
  name: "relu4_3"
  type: RELU
}
layers {
  bottom: "conv4_3"
  top: "pool4"
  name: "pool4"
  type: POOLING
  pooling_param {
    pool: MAX
    kernel_size: 3
    stride: 1
    pad: 1
  }
}
layers {
  bottom: "pool4"
  top: "conv5_1"
  name: "conv5_1"
  type: CONVOLUTION
  blobs_lr: 1
  blobs_lr: 2
  weight_decay: 1
  weight_decay: 0
  convolution_param {
    num_output: 512
    pad: 2
    kernel_size: 3
    hole: 2
  }
}
layers {
  bottom: "conv5_1"
  top: "conv5_1"
  name: "relu5_1"
  type: RELU
}
layers {
  bottom: "conv5_1"
  top: "conv5_2"
  name: "conv5_2"
  type: CONVOLUTION
  blobs_lr: 1
  blobs_lr: 2
  weight_decay: 1
  weight_decay: 0
  convolution_param {
    num_output: 512
    pad: 2
    kernel_size: 3
    hole: 2
  }
}
layers {
  bottom: "conv5_2"
  top: "conv5_2"
  name: "relu5_2"
  type: RELU
}
layers {
  bottom: "conv5_2"
  top: "conv5_3"
  name: "conv5_3"
  type: CONVOLUTION
  blobs_lr: 1
  blobs_lr: 2
  weight_decay: 1
  weight_decay: 0
  convolution_param {
    num_output: 512
    pad: 2
    kernel_size: 3
    hole: 2
  }
}
layers {
  bottom: "conv5_3"
  top: "conv5_3"
  name: "relu5_3"
  type: RELU
}
layers {
  bottom: "conv5_3"
  top: "pool5"
  name: "pool5"
  type: POOLING
  pooling_param {
    pool: MAX
    kernel_size: 3
    stride: 1
    pad: 1
  }
}
layers {
  bottom: "pool5"
  top: "fc6"
  name: "fc6"
  type: CONVOLUTION
  blobs_lr: 1
  blobs_lr: 2
  weight_decay: 1
  weight_decay: 0
  convolution_param {
    num_output: 4096
    pad: 6
    kernel_size: 4
    hole: 4
  }
  strict_dim: false
}
layers {
  bottom: "fc6"
  top: "fc6"
  name: "relu6"
  type: RELU
}
layers {
  bottom: "fc6"
  top: "fc6"
  name: "drop6"
  type: DROPOUT
  dropout_param {
    dropout_ratio: 0.5
  }
}
layers {
  bottom: "fc6"
  top: "fc7"
  name: "fc7"
  type: CONVOLUTION
  blobs_lr: 1
  blobs_lr: 2
  weight_decay: 1
  weight_decay: 0
  convolution_param {
    num_output: 4096
    kernel_size: 1
  }
  strict_dim: false
}
layers {
  bottom: "fc7"
  top: "fc7"
  name: "relu7"
  type: RELU
}
layers {
  bottom: "fc7"
  top: "fc7"
  name: "drop7"
  type: DROPOUT
  dropout_param {
    dropout_ratio: 0.5
  }
}
layers {
  bottom: "fc7"
  top: "fc8_weak2"
  name: "fc8_weak2"
  type: CONVOLUTION
  blobs_lr: 10
  blobs_lr: 20
  weight_decay: 1
  weight_decay: 0
  convolution_param {
    num_output: 21
    kernel_size: 1
    weight_filler {
      type: "gaussian"
      std: 0.01
    }
    bias_filler {
      type: "constant"
      value: 0
    }
  }
  strict_dim: false
}
layers {
  bottom: "fc8_weak2"
  bottom: "label_weak"
  top: "fc8_biased"
  name: "fc8_biased"
  type: ADAPTIVE_BIAS_CHANNEL
  adaptive_bias_channel_param {
    num_iter: 5
    bg_portion: 0.4
    fg_portion: 0.2
    suppress_others: true
    margin_others: 1e-05
  }
}
layers {
  bottom: "fc8_biased"
  top: "label_estep"
  name: "label_estep"
  type: ARGMAX
  argmax_param {
    out_max_val: false
    top_k: 1
  }
}
layers {
  bottom: "fc8_weak2"
  bottom: "label_estep"
  name: "loss"
  type: SOFTMAX_LOSS
  include {
    phase: TRAIN
  }
  softmaxloss_param {
    ignore_label: 255
  }
}
layers {
  bottom: "label_strong"
  top: "label_shrink"
  name: "label_shrink"
  type: INTERP
  interp_param {
    shrink_factor: 8
    pad_beg: 0
    pad_end: 0
  }
}
layers {
  bottom: "fc8_weak2"
  bottom: "label_shrink"
  top: "accuracy"
  name: "accuracy"
  type: SEG_ACCURACY
  seg_accuracy_param {
    ignore_label: 255
  }
}
state {
  phase: TRAIN
}
I0113 12:15:39.749867 28037 layer_factory.hpp:78] Creating layer data
I0113 12:15:39.749913 28037 net.cpp:67] Creating Layer data
I0113 12:15:39.749920 28037 net.cpp:356] data -> data
I0113 12:15:39.749963 28037 net.cpp:356] data -> label_strong
I0113 12:15:39.750000 28037 net.cpp:356] data -> (automatic)
I0113 12:15:39.750012 28037 net.cpp:96] Setting up data
I0113 12:15:39.750018 28037 image_seg_data_layer.cpp:45] Opening file weak2/list/train.txt
I0113 12:15:39.751593 28037 image_seg_data_layer.cpp:62] Shuffling data
I0113 12:15:39.751687 28037 image_seg_data_layer.cpp:67] A total of 1464 images.
I0113 12:15:39.755367 28037 image_seg_data_layer.cpp:113] output data size: 10,3,321,321
I0113 12:15:39.755384 28037 image_seg_data_layer.cpp:117] output label size: 10,1,321,321
I0113 12:15:39.755389 28037 image_seg_data_layer.cpp:121] output data_dim size: 10,1,1,2
I0113 12:15:39.756291 28037 net.cpp:103] Top shape: 10 3 321 321 (3091230)
I0113 12:15:39.756309 28037 net.cpp:103] Top shape: 10 1 321 321 (1030410)
I0113 12:15:39.756314 28037 net.cpp:103] Top shape: 10 1 1 2 (20)
I0113 12:15:39.756317 28037 layer_factory.hpp:78] Creating layer label_strong_data_1_split
I0113 12:15:39.756332 28037 net.cpp:67] Creating Layer label_strong_data_1_split
I0113 12:15:39.756336 28037 net.cpp:394] label_strong_data_1_split <- label_strong
I0113 12:15:39.756353 28037 net.cpp:356] label_strong_data_1_split -> label_strong_data_1_split_0
I0113 12:15:39.756361 28037 net.cpp:356] label_strong_data_1_split -> label_strong_data_1_split_1
I0113 12:15:39.756368 28037 net.cpp:96] Setting up label_strong_data_1_split
I0113 12:15:39.756372 28037 net.cpp:103] Top shape: 10 1 321 321 (1030410)
I0113 12:15:39.756389 28037 net.cpp:103] Top shape: 10 1 321 321 (1030410)
I0113 12:15:39.756393 28037 layer_factory.hpp:78] Creating layer label_weak
I0113 12:15:39.756420 28037 net.cpp:67] Creating Layer label_weak
I0113 12:15:39.756428 28037 net.cpp:394] label_weak <- label_strong_data_1_split_0
I0113 12:15:39.756434 28037 net.cpp:356] label_weak -> label_weak
I0113 12:15:39.756440 28037 net.cpp:96] Setting up label_weak
I0113 12:15:39.756455 28037 net.cpp:103] Top shape: 10 10 1 1 (100)
I0113 12:15:39.756466 28037 layer_factory.hpp:78] Creating layer conv1_1
I0113 12:15:39.756474 28037 net.cpp:67] Creating Layer conv1_1
I0113 12:15:39.756477 28037 net.cpp:394] conv1_1 <- data
I0113 12:15:39.756482 28037 net.cpp:356] conv1_1 -> conv1_1
I0113 12:15:39.756492 28037 net.cpp:96] Setting up conv1_1
I0113 12:15:39.873854 28037 net.cpp:103] Top shape: 10 64 321 321 (65946240)
I0113 12:15:39.873899 28037 layer_factory.hpp:78] Creating layer relu1_1
I0113 12:15:39.873914 28037 net.cpp:67] Creating Layer relu1_1
I0113 12:15:39.873919 28037 net.cpp:394] relu1_1 <- conv1_1
I0113 12:15:39.873926 28037 net.cpp:345] relu1_1 -> conv1_1 (in-place)
I0113 12:15:39.873934 28037 net.cpp:96] Setting up relu1_1
I0113 12:15:39.873960 28037 net.cpp:103] Top shape: 10 64 321 321 (65946240)
I0113 12:15:39.873970 28037 layer_factory.hpp:78] Creating layer conv1_2
I0113 12:15:39.873978 28037 net.cpp:67] Creating Layer conv1_2
I0113 12:15:39.873982 28037 net.cpp:394] conv1_2 <- conv1_1
I0113 12:15:39.873987 28037 net.cpp:356] conv1_2 -> conv1_2
I0113 12:15:39.873993 28037 net.cpp:96] Setting up conv1_2
I0113 12:15:39.874402 28037 net.cpp:103] Top shape: 10 64 321 321 (65946240)
I0113 12:15:39.874423 28037 layer_factory.hpp:78] Creating layer relu1_2
I0113 12:15:39.874431 28037 net.cpp:67] Creating Layer relu1_2
I0113 12:15:39.874438 28037 net.cpp:394] relu1_2 <- conv1_2
I0113 12:15:39.874442 28037 net.cpp:345] relu1_2 -> conv1_2 (in-place)
I0113 12:15:39.874447 28037 net.cpp:96] Setting up relu1_2
I0113 12:15:39.874456 28037 net.cpp:103] Top shape: 10 64 321 321 (65946240)
I0113 12:15:39.874464 28037 layer_factory.hpp:78] Creating layer pool1
I0113 12:15:39.874469 28037 layer_factory.cpp:51] CUDNN does not support padding or multiple tops. Using Caffe's own pooling layer.
I0113 12:15:39.874476 28037 net.cpp:67] Creating Layer pool1
I0113 12:15:39.874480 28037 net.cpp:394] pool1 <- conv1_2
I0113 12:15:39.874516 28037 net.cpp:356] pool1 -> pool1
I0113 12:15:39.874523 28037 net.cpp:96] Setting up pool1
I0113 12:15:39.874544 28037 net.cpp:103] Top shape: 10 64 161 161 (16589440)
I0113 12:15:39.874553 28037 layer_factory.hpp:78] Creating layer conv2_1
I0113 12:15:39.874562 28037 net.cpp:67] Creating Layer conv2_1
I0113 12:15:39.874564 28037 net.cpp:394] conv2_1 <- pool1
I0113 12:15:39.874569 28037 net.cpp:356] conv2_1 -> conv2_1
I0113 12:15:39.874574 28037 net.cpp:96] Setting up conv2_1
I0113 12:15:39.876175 28037 net.cpp:103] Top shape: 10 128 161 161 (33178880)
I0113 12:15:39.876200 28037 layer_factory.hpp:78] Creating layer relu2_1
I0113 12:15:39.876209 28037 net.cpp:67] Creating Layer relu2_1
I0113 12:15:39.876212 28037 net.cpp:394] relu2_1 <- conv2_1
I0113 12:15:39.876220 28037 net.cpp:345] relu2_1 -> conv2_1 (in-place)
I0113 12:15:39.876235 28037 net.cpp:96] Setting up relu2_1
I0113 12:15:39.876245 28037 net.cpp:103] Top shape: 10 128 161 161 (33178880)
I0113 12:15:39.876251 28037 layer_factory.hpp:78] Creating layer conv2_2
I0113 12:15:39.876257 28037 net.cpp:67] Creating Layer conv2_2
I0113 12:15:39.876260 28037 net.cpp:394] conv2_2 <- conv2_1
I0113 12:15:39.876268 28037 net.cpp:356] conv2_2 -> conv2_2
I0113 12:15:39.876273 28037 net.cpp:96] Setting up conv2_2
I0113 12:15:39.876833 28037 net.cpp:103] Top shape: 10 128 161 161 (33178880)
I0113 12:15:39.876852 28037 layer_factory.hpp:78] Creating layer relu2_2
I0113 12:15:39.876862 28037 net.cpp:67] Creating Layer relu2_2
I0113 12:15:39.876865 28037 net.cpp:394] relu2_2 <- conv2_2
I0113 12:15:39.876870 28037 net.cpp:345] relu2_2 -> conv2_2 (in-place)
I0113 12:15:39.876874 28037 net.cpp:96] Setting up relu2_2
I0113 12:15:39.876884 28037 net.cpp:103] Top shape: 10 128 161 161 (33178880)
I0113 12:15:39.876888 28037 layer_factory.hpp:78] Creating layer pool2
I0113 12:15:39.876893 28037 layer_factory.cpp:51] CUDNN does not support padding or multiple tops. Using Caffe's own pooling layer.
I0113 12:15:39.876896 28037 net.cpp:67] Creating Layer pool2
I0113 12:15:39.876899 28037 net.cpp:394] pool2 <- conv2_2
I0113 12:15:39.876904 28037 net.cpp:356] pool2 -> pool2
I0113 12:15:39.876909 28037 net.cpp:96] Setting up pool2
I0113 12:15:39.876914 28037 net.cpp:103] Top shape: 10 128 81 81 (8398080)
I0113 12:15:39.876917 28037 layer_factory.hpp:78] Creating layer conv3_1
I0113 12:15:39.876924 28037 net.cpp:67] Creating Layer conv3_1
I0113 12:15:39.876930 28037 net.cpp:394] conv3_1 <- pool2
I0113 12:15:39.876935 28037 net.cpp:356] conv3_1 -> conv3_1
I0113 12:15:39.876940 28037 net.cpp:96] Setting up conv3_1
I0113 12:15:39.877760 28037 net.cpp:103] Top shape: 10 256 81 81 (16796160)
I0113 12:15:39.877781 28037 layer_factory.hpp:78] Creating layer relu3_1
I0113 12:15:39.877789 28037 net.cpp:67] Creating Layer relu3_1
I0113 12:15:39.877794 28037 net.cpp:394] relu3_1 <- conv3_1
I0113 12:15:39.877799 28037 net.cpp:345] relu3_1 -> conv3_1 (in-place)
I0113 12:15:39.877804 28037 net.cpp:96] Setting up relu3_1
I0113 12:15:39.877812 28037 net.cpp:103] Top shape: 10 256 81 81 (16796160)
I0113 12:15:39.877820 28037 layer_factory.hpp:78] Creating layer conv3_2
I0113 12:15:39.877826 28037 net.cpp:67] Creating Layer conv3_2
I0113 12:15:39.877830 28037 net.cpp:394] conv3_2 <- conv3_1
I0113 12:15:39.877835 28037 net.cpp:356] conv3_2 -> conv3_2
I0113 12:15:39.877840 28037 net.cpp:96] Setting up conv3_2
I0113 12:15:39.879326 28037 net.cpp:103] Top shape: 10 256 81 81 (16796160)
I0113 12:15:39.879348 28037 layer_factory.hpp:78] Creating layer relu3_2
I0113 12:15:39.879357 28037 net.cpp:67] Creating Layer relu3_2
I0113 12:15:39.879361 28037 net.cpp:394] relu3_2 <- conv3_2
I0113 12:15:39.879366 28037 net.cpp:345] relu3_2 -> conv3_2 (in-place)
I0113 12:15:39.879371 28037 net.cpp:96] Setting up relu3_2
I0113 12:15:39.879380 28037 net.cpp:103] Top shape: 10 256 81 81 (16796160)
I0113 12:15:39.879389 28037 layer_factory.hpp:78] Creating layer conv3_3
I0113 12:15:39.879395 28037 net.cpp:67] Creating Layer conv3_3
I0113 12:15:39.879400 28037 net.cpp:394] conv3_3 <- conv3_2
I0113 12:15:39.879403 28037 net.cpp:356] conv3_3 -> conv3_3
I0113 12:15:39.879438 28037 net.cpp:96] Setting up conv3_3
I0113 12:15:39.880754 28037 net.cpp:103] Top shape: 10 256 81 81 (16796160)
I0113 12:15:39.880774 28037 layer_factory.hpp:78] Creating layer relu3_3
I0113 12:15:39.880779 28037 net.cpp:67] Creating Layer relu3_3
I0113 12:15:39.880784 28037 net.cpp:394] relu3_3 <- conv3_3
I0113 12:15:39.880789 28037 net.cpp:345] relu3_3 -> conv3_3 (in-place)
I0113 12:15:39.880795 28037 net.cpp:96] Setting up relu3_3
I0113 12:15:39.880803 28037 net.cpp:103] Top shape: 10 256 81 81 (16796160)
I0113 12:15:39.880807 28037 layer_factory.hpp:78] Creating layer pool3
I0113 12:15:39.880811 28037 layer_factory.cpp:51] CUDNN does not support padding or multiple tops. Using Caffe's own pooling layer.
I0113 12:15:39.880816 28037 net.cpp:67] Creating Layer pool3
I0113 12:15:39.880820 28037 net.cpp:394] pool3 <- conv3_3
I0113 12:15:39.880823 28037 net.cpp:356] pool3 -> pool3
I0113 12:15:39.880828 28037 net.cpp:96] Setting up pool3
I0113 12:15:39.880832 28037 net.cpp:103] Top shape: 10 256 41 41 (4303360)
I0113 12:15:39.880836 28037 layer_factory.hpp:78] Creating layer conv4_1
I0113 12:15:39.880842 28037 net.cpp:67] Creating Layer conv4_1
I0113 12:15:39.880851 28037 net.cpp:394] conv4_1 <- pool3
I0113 12:15:39.880854 28037 net.cpp:356] conv4_1 -> conv4_1
I0113 12:15:39.880861 28037 net.cpp:96] Setting up conv4_1
I0113 12:15:39.892385 28037 net.cpp:103] Top shape: 10 512 41 41 (8606720)
I0113 12:15:39.892407 28037 layer_factory.hpp:78] Creating layer relu4_1
I0113 12:15:39.892416 28037 net.cpp:67] Creating Layer relu4_1
I0113 12:15:39.892421 28037 net.cpp:394] relu4_1 <- conv4_1
I0113 12:15:39.892426 28037 net.cpp:345] relu4_1 -> conv4_1 (in-place)
I0113 12:15:39.892431 28037 net.cpp:96] Setting up relu4_1
I0113 12:15:39.892439 28037 net.cpp:103] Top shape: 10 512 41 41 (8606720)
I0113 12:15:39.892443 28037 layer_factory.hpp:78] Creating layer conv4_2
I0113 12:15:39.892452 28037 net.cpp:67] Creating Layer conv4_2
I0113 12:15:39.892455 28037 net.cpp:394] conv4_2 <- conv4_1
I0113 12:15:39.892459 28037 net.cpp:356] conv4_2 -> conv4_2
I0113 12:15:39.892464 28037 net.cpp:96] Setting up conv4_2
I0113 12:15:39.908864 28037 net.cpp:103] Top shape: 10 512 41 41 (8606720)
I0113 12:15:39.908890 28037 layer_factory.hpp:78] Creating layer relu4_2
I0113 12:15:39.908900 28037 net.cpp:67] Creating Layer relu4_2
I0113 12:15:39.908905 28037 net.cpp:394] relu4_2 <- conv4_2
I0113 12:15:39.908910 28037 net.cpp:345] relu4_2 -> conv4_2 (in-place)
I0113 12:15:39.908916 28037 net.cpp:96] Setting up relu4_2
I0113 12:15:39.908926 28037 net.cpp:103] Top shape: 10 512 41 41 (8606720)
I0113 12:15:39.908929 28037 layer_factory.hpp:78] Creating layer conv4_3
I0113 12:15:39.908934 28037 net.cpp:67] Creating Layer conv4_3
I0113 12:15:39.908937 28037 net.cpp:394] conv4_3 <- conv4_2
I0113 12:15:39.908942 28037 net.cpp:356] conv4_3 -> conv4_3
I0113 12:15:39.908947 28037 net.cpp:96] Setting up conv4_3
I0113 12:15:39.911823 28037 net.cpp:103] Top shape: 10 512 41 41 (8606720)
I0113 12:15:39.911865 28037 layer_factory.hpp:78] Creating layer relu4_3
I0113 12:15:39.911878 28037 net.cpp:67] Creating Layer relu4_3
I0113 12:15:39.911883 28037 net.cpp:394] relu4_3 <- conv4_3
I0113 12:15:39.911888 28037 net.cpp:345] relu4_3 -> conv4_3 (in-place)
I0113 12:15:39.911897 28037 net.cpp:96] Setting up relu4_3
I0113 12:15:39.911907 28037 net.cpp:103] Top shape: 10 512 41 41 (8606720)
I0113 12:15:39.911914 28037 layer_factory.hpp:78] Creating layer pool4
I0113 12:15:39.911921 28037 layer_factory.cpp:51] CUDNN does not support padding or multiple tops. Using Caffe's own pooling layer.
I0113 12:15:39.911939 28037 net.cpp:67] Creating Layer pool4
I0113 12:15:39.911943 28037 net.cpp:394] pool4 <- conv4_3
I0113 12:15:39.911952 28037 net.cpp:356] pool4 -> pool4
I0113 12:15:39.911962 28037 net.cpp:96] Setting up pool4
I0113 12:15:39.911967 28037 net.cpp:103] Top shape: 10 512 41 41 (8606720)
I0113 12:15:39.911970 28037 layer_factory.hpp:78] Creating layer conv5_1
I0113 12:15:39.911975 28037 net.cpp:67] Creating Layer conv5_1
I0113 12:15:39.912011 28037 net.cpp:394] conv5_1 <- pool4
I0113 12:15:39.912021 28037 net.cpp:356] conv5_1 -> conv5_1
I0113 12:15:39.912026 28037 net.cpp:96] Setting up conv5_1
I0113 12:15:39.915875 28037 net.cpp:103] Top shape: 10 512 41 41 (8606720)
I0113 12:15:39.915897 28037 layer_factory.hpp:78] Creating layer relu5_1
I0113 12:15:39.915904 28037 net.cpp:67] Creating Layer relu5_1
I0113 12:15:39.915908 28037 net.cpp:394] relu5_1 <- conv5_1
I0113 12:15:39.915915 28037 net.cpp:345] relu5_1 -> conv5_1 (in-place)
I0113 12:15:39.915920 28037 net.cpp:96] Setting up relu5_1
I0113 12:15:39.915930 28037 net.cpp:103] Top shape: 10 512 41 41 (8606720)
I0113 12:15:39.915933 28037 layer_factory.hpp:78] Creating layer conv5_2
I0113 12:15:39.915938 28037 net.cpp:67] Creating Layer conv5_2
I0113 12:15:39.915941 28037 net.cpp:394] conv5_2 <- conv5_1
I0113 12:15:39.915946 28037 net.cpp:356] conv5_2 -> conv5_2
I0113 12:15:39.915951 28037 net.cpp:96] Setting up conv5_2
I0113 12:15:39.919235 28037 net.cpp:103] Top shape: 10 512 41 41 (8606720)
I0113 12:15:39.919257 28037 layer_factory.hpp:78] Creating layer relu5_2
I0113 12:15:39.919267 28037 net.cpp:67] Creating Layer relu5_2
I0113 12:15:39.919271 28037 net.cpp:394] relu5_2 <- conv5_2
I0113 12:15:39.919276 28037 net.cpp:345] relu5_2 -> conv5_2 (in-place)
I0113 12:15:39.919281 28037 net.cpp:96] Setting up relu5_2
I0113 12:15:39.919289 28037 net.cpp:103] Top shape: 10 512 41 41 (8606720)
I0113 12:15:39.919293 28037 layer_factory.hpp:78] Creating layer conv5_3
I0113 12:15:39.919299 28037 net.cpp:67] Creating Layer conv5_3
I0113 12:15:39.919302 28037 net.cpp:394] conv5_3 <- conv5_2
I0113 12:15:39.919306 28037 net.cpp:356] conv5_3 -> conv5_3
I0113 12:15:39.919312 28037 net.cpp:96] Setting up conv5_3
I0113 12:15:39.939718 28037 net.cpp:103] Top shape: 10 512 41 41 (8606720)
I0113 12:15:39.939743 28037 layer_factory.hpp:78] Creating layer relu5_3
I0113 12:15:39.939755 28037 net.cpp:67] Creating Layer relu5_3
I0113 12:15:39.939760 28037 net.cpp:394] relu5_3 <- conv5_3
I0113 12:15:39.939765 28037 net.cpp:345] relu5_3 -> conv5_3 (in-place)
I0113 12:15:39.939771 28037 net.cpp:96] Setting up relu5_3
I0113 12:15:39.939780 28037 net.cpp:103] Top shape: 10 512 41 41 (8606720)
I0113 12:15:39.939785 28037 layer_factory.hpp:78] Creating layer pool5
I0113 12:15:39.939790 28037 layer_factory.cpp:51] CUDNN does not support padding or multiple tops. Using Caffe's own pooling layer.
I0113 12:15:39.939795 28037 net.cpp:67] Creating Layer pool5
I0113 12:15:39.939797 28037 net.cpp:394] pool5 <- conv5_3
I0113 12:15:39.939802 28037 net.cpp:356] pool5 -> pool5
I0113 12:15:39.939808 28037 net.cpp:96] Setting up pool5
I0113 12:15:39.939813 28037 net.cpp:103] Top shape: 10 512 41 41 (8606720)
I0113 12:15:39.939816 28037 layer_factory.hpp:78] Creating layer fc6
I0113 12:15:39.939824 28037 net.cpp:67] Creating Layer fc6
I0113 12:15:39.939837 28037 net.cpp:394] fc6 <- pool5
I0113 12:15:39.939841 28037 net.cpp:356] fc6 -> fc6
I0113 12:15:39.939846 28037 net.cpp:96] Setting up fc6
I0113 12:15:40.018903 28037 net.cpp:103] Top shape: 10 4096 41 41 (68853760)
I0113 12:15:40.018941 28037 layer_factory.hpp:78] Creating layer relu6
I0113 12:15:40.018954 28037 net.cpp:67] Creating Layer relu6
I0113 12:15:40.018959 28037 net.cpp:394] relu6 <- fc6
I0113 12:15:40.018970 28037 net.cpp:345] relu6 -> fc6 (in-place)
I0113 12:15:40.018978 28037 net.cpp:96] Setting up relu6
I0113 12:15:40.018988 28037 net.cpp:103] Top shape: 10 4096 41 41 (68853760)
I0113 12:15:40.019001 28037 layer_factory.hpp:78] Creating layer drop6
I0113 12:15:40.019024 28037 net.cpp:67] Creating Layer drop6
I0113 12:15:40.019032 28037 net.cpp:394] drop6 <- fc6
I0113 12:15:40.019037 28037 net.cpp:345] drop6 -> fc6 (in-place)
I0113 12:15:40.019042 28037 net.cpp:96] Setting up drop6
I0113 12:15:40.019047 28037 net.cpp:103] Top shape: 10 4096 41 41 (68853760)
I0113 12:15:40.019050 28037 layer_factory.hpp:78] Creating layer fc7
I0113 12:15:40.019058 28037 net.cpp:67] Creating Layer fc7
I0113 12:15:40.019062 28037 net.cpp:394] fc7 <- fc6
I0113 12:15:40.019067 28037 net.cpp:356] fc7 -> fc7
I0113 12:15:40.019107 28037 net.cpp:96] Setting up fc7
I0113 12:15:40.065578 28037 net.cpp:103] Top shape: 10 4096 41 41 (68853760)
I0113 12:15:40.065618 28037 layer_factory.hpp:78] Creating layer relu7
I0113 12:15:40.065649 28037 net.cpp:67] Creating Layer relu7
I0113 12:15:40.065659 28037 net.cpp:394] relu7 <- fc7
I0113 12:15:40.065670 28037 net.cpp:345] relu7 -> fc7 (in-place)
I0113 12:15:40.065678 28037 net.cpp:96] Setting up relu7
I0113 12:15:40.065688 28037 net.cpp:103] Top shape: 10 4096 41 41 (68853760)
I0113 12:15:40.065704 28037 layer_factory.hpp:78] Creating layer drop7
I0113 12:15:40.065726 28037 net.cpp:67] Creating Layer drop7
I0113 12:15:40.065731 28037 net.cpp:394] drop7 <- fc7
I0113 12:15:40.065735 28037 net.cpp:345] drop7 -> fc7 (in-place)
I0113 12:15:40.065740 28037 net.cpp:96] Setting up drop7
I0113 12:15:40.065745 28037 net.cpp:103] Top shape: 10 4096 41 41 (68853760)
I0113 12:15:40.065749 28037 layer_factory.hpp:78] Creating layer fc8_weak2
I0113 12:15:40.065758 28037 net.cpp:67] Creating Layer fc8_weak2
I0113 12:15:40.065763 28037 net.cpp:394] fc8_weak2 <- fc7
I0113 12:15:40.065768 28037 net.cpp:356] fc8_weak2 -> fc8_weak2
I0113 12:15:40.065774 28037 net.cpp:96] Setting up fc8_weak2
I0113 12:15:40.067199 28037 net.cpp:103] Top shape: 10 21 41 41 (353010)
I0113 12:15:40.067222 28037 layer_factory.hpp:78] Creating layer fc8_weak2_fc8_weak2_0_split
I0113 12:15:40.067231 28037 net.cpp:67] Creating Layer fc8_weak2_fc8_weak2_0_split
I0113 12:15:40.067236 28037 net.cpp:394] fc8_weak2_fc8_weak2_0_split <- fc8_weak2
I0113 12:15:40.067243 28037 net.cpp:356] fc8_weak2_fc8_weak2_0_split -> fc8_weak2_fc8_weak2_0_split_0
I0113 12:15:40.067251 28037 net.cpp:356] fc8_weak2_fc8_weak2_0_split -> fc8_weak2_fc8_weak2_0_split_1
I0113 12:15:40.067257 28037 net.cpp:356] fc8_weak2_fc8_weak2_0_split -> fc8_weak2_fc8_weak2_0_split_2
I0113 12:15:40.067265 28037 net.cpp:96] Setting up fc8_weak2_fc8_weak2_0_split
I0113 12:15:40.067270 28037 net.cpp:103] Top shape: 10 21 41 41 (353010)
I0113 12:15:40.067275 28037 net.cpp:103] Top shape: 10 21 41 41 (353010)
I0113 12:15:40.067277 28037 net.cpp:103] Top shape: 10 21 41 41 (353010)
I0113 12:15:40.067281 28037 layer_factory.hpp:78] Creating layer fc8_biased
I0113 12:15:40.067287 28037 net.cpp:67] Creating Layer fc8_biased
I0113 12:15:40.067291 28037 net.cpp:394] fc8_biased <- fc8_weak2_fc8_weak2_0_split_0
I0113 12:15:40.067296 28037 net.cpp:394] fc8_biased <- label_weak
I0113 12:15:40.067301 28037 net.cpp:356] fc8_biased -> fc8_biased
I0113 12:15:40.067306 28037 net.cpp:96] Setting up fc8_biased
I0113 12:15:40.067311 28037 net.cpp:103] Top shape: 10 21 41 41 (353010)
I0113 12:15:40.067314 28037 layer_factory.hpp:78] Creating layer label_estep
I0113 12:15:40.067319 28037 net.cpp:67] Creating Layer label_estep
I0113 12:15:40.067322 28037 net.cpp:394] label_estep <- fc8_biased
I0113 12:15:40.067327 28037 net.cpp:356] label_estep -> label_estep
I0113 12:15:40.067333 28037 net.cpp:96] Setting up label_estep
I0113 12:15:40.067337 28037 net.cpp:103] Top shape: 10 1 41 41 (16810)
I0113 12:15:40.067342 28037 layer_factory.hpp:78] Creating layer loss
I0113 12:15:40.067349 28037 net.cpp:67] Creating Layer loss
I0113 12:15:40.067353 28037 net.cpp:394] loss <- fc8_weak2_fc8_weak2_0_split_1
I0113 12:15:40.067358 28037 net.cpp:394] loss <- label_estep
I0113 12:15:40.067365 28037 net.cpp:356] loss -> (automatic)
I0113 12:15:40.067376 28037 net.cpp:96] Setting up loss
I0113 12:15:40.067382 28037 softmax_loss_layer.cpp:40] Weight_Loss file is not provided. Assign all one to it.
I0113 12:15:40.067392 28037 net.cpp:103] Top shape: 1 1 1 1 (1)
I0113 12:15:40.067396 28037 net.cpp:109]     with loss weight 1
I0113 12:15:40.067430 28037 layer_factory.hpp:78] Creating layer label_shrink
I0113 12:15:40.067437 28037 net.cpp:67] Creating Layer label_shrink
I0113 12:15:40.067440 28037 net.cpp:394] label_shrink <- label_strong_data_1_split_1
I0113 12:15:40.067446 28037 net.cpp:356] label_shrink -> label_shrink
I0113 12:15:40.067451 28037 net.cpp:96] Setting up label_shrink
I0113 12:15:40.067461 28037 net.cpp:103] Top shape: 10 1 41 41 (16810)
I0113 12:15:40.067498 28037 layer_factory.hpp:78] Creating layer accuracy
I0113 12:15:40.067507 28037 net.cpp:67] Creating Layer accuracy
I0113 12:15:40.067510 28037 net.cpp:394] accuracy <- fc8_weak2_fc8_weak2_0_split_2
I0113 12:15:40.067515 28037 net.cpp:394] accuracy <- label_shrink
I0113 12:15:40.067519 28037 net.cpp:356] accuracy -> accuracy
I0113 12:15:40.067524 28037 net.cpp:96] Setting up accuracy
I0113 12:15:40.067536 28037 net.cpp:103] Top shape: 1 1 1 3 (3)
I0113 12:15:40.067543 28037 net.cpp:172] accuracy does not need backward computation.
I0113 12:15:40.067548 28037 net.cpp:172] label_shrink does not need backward computation.
I0113 12:15:40.067550 28037 net.cpp:170] loss needs backward computation.
I0113 12:15:40.067554 28037 net.cpp:170] label_estep needs backward computation.
I0113 12:15:40.067558 28037 net.cpp:170] fc8_biased needs backward computation.
…
