…
I0106 15:37:34.996273 50979 solver.cpp:58] Creating training net from train_net file: weak2/config/adapt/train_train.prototxt
I0106 15:37:34.996960 50979 net.cpp:39] Initializing net from parameters: 
name: "adapt"
layers {
  top: "data"
  top: "label_strong"
  name: "data"
  type: IMAGE_SEG_DATA
  image_data_param {
    source: "weak2/list/train.txt"
    batch_size: 10
    shuffle: true
    root_folder: "/home/zhangzhengqiang/git/deeplab-public//data/pascal/VOCdevkit/VOC2012"
    label_type: PIXEL
  }
  include {
    phase: TRAIN
  }
  transform_param {
    mirror: true
    crop_size: 321
    mean_value: 104.008
    mean_value: 116.669
    mean_value: 122.675
  }
}
layers {
  bottom: "label_strong"
  top: "label_weak"
  name: "label_weak"
  type: UNIQUE_LABEL
  include {
    phase: TRAIN
  }
  unique_label_param {
    max_labels: 10
    ignore_label: 255
  }
}
layers {
  bottom: "data"
  top: "conv1_1"
  name: "conv1_1"
  type: CONVOLUTION
  blobs_lr: 1
  blobs_lr: 2
  weight_decay: 1
  weight_decay: 0
  convolution_param {
    num_output: 64
    pad: 1
    kernel_size: 3
  }
}
layers {
  bottom: "conv1_1"
  top: "conv1_1"
  name: "relu1_1"
  type: RELU
}
layers {
  bottom: "conv1_1"
  top: "conv1_2"
  name: "conv1_2"
  type: CONVOLUTION
  blobs_lr: 1
  blobs_lr: 2
  weight_decay: 1
  weight_decay: 0
  convolution_param {
    num_output: 64
    pad: 1
    kernel_size: 3
  }
}
layers {
  bottom: "conv1_2"
  top: "conv1_2"
  name: "relu1_2"
  type: RELU
}
layers {
  bottom: "conv1_2"
  top: "pool1"
  name: "pool1"
  type: POOLING
  pooling_param {
    pool: MAX
    kernel_size: 3
    stride: 2
    pad: 1
  }
}
layers {
  bottom: "pool1"
  top: "conv2_1"
  name: "conv2_1"
  type: CONVOLUTION
  blobs_lr: 1
  blobs_lr: 2
  weight_decay: 1
  weight_decay: 0
  convolution_param {
    num_output: 128
    pad: 1
    kernel_size: 3
  }
}
layers {
  bottom: "conv2_1"
  top: "conv2_1"
  name: "relu2_1"
  type: RELU
}
layers {
  bottom: "conv2_1"
  top: "conv2_2"
  name: "conv2_2"
  type: CONVOLUTION
  blobs_lr: 1
  blobs_lr: 2
  weight_decay: 1
  weight_decay: 0
  convolution_param {
    num_output: 128
    pad: 1
    kernel_size: 3
  }
}
layers {
  bottom: "conv2_2"
  top: "conv2_2"
  name: "relu2_2"
  type: RELU
}
layers {
  bottom: "conv2_2"
  top: "pool2"
  name: "pool2"
  type: POOLING
  pooling_param {
    pool: MAX
    kernel_size: 3
    stride: 2
    pad: 1
  }
}
layers {
  bottom: "pool2"
  top: "conv3_1"
  name: "conv3_1"
  type: CONVOLUTION
  blobs_lr: 1
  blobs_lr: 2
  weight_decay: 1
  weight_decay: 0
  convolution_param {
    num_output: 256
    pad: 1
    kernel_size: 3
  }
}
layers {
  bottom: "conv3_1"
  top: "conv3_1"
  name: "relu3_1"
  type: RELU
}
layers {
  bottom: "conv3_1"
  top: "conv3_2"
  name: "conv3_2"
  type: CONVOLUTION
  blobs_lr: 1
  blobs_lr: 2
  weight_decay: 1
  weight_decay: 0
  convolution_param {
    num_output: 256
    pad: 1
    kernel_size: 3
  }
}
layers {
  bottom: "conv3_2"
  top: "conv3_2"
  name: "relu3_2"
  type: RELU
}
layers {
  bottom: "conv3_2"
  top: "conv3_3"
  name: "conv3_3"
  type: CONVOLUTION
  blobs_lr: 1
  blobs_lr: 2
  weight_decay: 1
  weight_decay: 0
  convolution_param {
    num_output: 256
    pad: 1
    kernel_size: 3
  }
}
layers {
  bottom: "conv3_3"
  top: "conv3_3"
  name: "relu3_3"
  type: RELU
}
layers {
  bottom: "conv3_3"
  top: "pool3"
  name: "pool3"
  type: POOLING
  pooling_param {
    pool: MAX
    kernel_size: 3
    stride: 2
    pad: 1
  }
}
layers {
  bottom: "pool3"
  top: "conv4_1"
  name: "conv4_1"
  type: CONVOLUTION
  blobs_lr: 1
  blobs_lr: 2
  weight_decay: 1
  weight_decay: 0
  convolution_param {
    num_output: 512
    pad: 1
    kernel_size: 3
  }
}
layers {
  bottom: "conv4_1"
  top: "conv4_1"
  name: "relu4_1"
  type: RELU
}
layers {
  bottom: "conv4_1"
  top: "conv4_2"
  name: "conv4_2"
  type: CONVOLUTION
  blobs_lr: 1
  blobs_lr: 2
  weight_decay: 1
  weight_decay: 0
  convolution_param {
    num_output: 512
    pad: 1
    kernel_size: 3
  }
}
layers {
  bottom: "conv4_2"
  top: "conv4_2"
  name: "relu4_2"
  type: RELU
}
layers {
  bottom: "conv4_2"
  top: "conv4_3"
  name: "conv4_3"
  type: CONVOLUTION
  blobs_lr: 1
  blobs_lr: 2
  weight_decay: 1
  weight_decay: 0
  convolution_param {
    num_output: 512
    pad: 1
    kernel_size: 3
  }
}
layers {
  bottom: "conv4_3"
  top: "conv4_3"
  name: "relu4_3"
  type: RELU
}
layers {
  bottom: "conv4_3"
  top: "pool4"
  name: "pool4"
  type: POOLING
  pooling_param {
    pool: MAX
    kernel_size: 3
    stride: 1
    pad: 1
  }
}
layers {
  bottom: "pool4"
  top: "conv5_1"
  name: "conv5_1"
  type: CONVOLUTION
  blobs_lr: 1
  blobs_lr: 2
  weight_decay: 1
  weight_decay: 0
  convolution_param {
    num_output: 512
    pad: 2
    kernel_size: 3
    hole: 2
  }
}
layers {
  bottom: "conv5_1"
  top: "conv5_1"
  name: "relu5_1"
  type: RELU
}
layers {
  bottom: "conv5_1"
  top: "conv5_2"
  name: "conv5_2"
  type: CONVOLUTION
  blobs_lr: 1
  blobs_lr: 2
  weight_decay: 1
  weight_decay: 0
  convolution_param {
    num_output: 512
    pad: 2
    kernel_size: 3
    hole: 2
  }
}
layers {
  bottom: "conv5_2"
  top: "conv5_2"
  name: "relu5_2"
  type: RELU
}
layers {
  bottom: "conv5_2"
  top: "conv5_3"
  name: "conv5_3"
  type: CONVOLUTION
  blobs_lr: 1
  blobs_lr: 2
  weight_decay: 1
  weight_decay: 0
  convolution_param {
    num_output: 512
    pad: 2
    kernel_size: 3
    hole: 2
  }
}
layers {
  bottom: "conv5_3"
  top: "conv5_3"
  name: "relu5_3"
  type: RELU
}
layers {
  bottom: "conv5_3"
  top: "pool5"
  name: "pool5"
  type: POOLING
  pooling_param {
    pool: MAX
    kernel_size: 3
    stride: 1
    pad: 1
  }
}
layers {
  bottom: "pool5"
  top: "fc6"
  name: "fc6"
  type: CONVOLUTION
  blobs_lr: 1
  blobs_lr: 2
  weight_decay: 1
  weight_decay: 0
  convolution_param {
    num_output: 4096
    pad: 6
    kernel_size: 4
    hole: 4
  }
  strict_dim: false
}
layers {
  bottom: "fc6"
  top: "fc6"
  name: "relu6"
  type: RELU
}
layers {
  bottom: "fc6"
  top: "fc6"
  name: "drop6"
  type: DROPOUT
  dropout_param {
    dropout_ratio: 0.5
  }
}
layers {
  bottom: "fc6"
  top: "fc7"
  name: "fc7"
  type: CONVOLUTION
  blobs_lr: 1
  blobs_lr: 2
  weight_decay: 1
  weight_decay: 0
  convolution_param {
    num_output: 4096
    kernel_size: 1
  }
  strict_dim: false
}
layers {
  bottom: "fc7"
  top: "fc7"
  name: "relu7"
  type: RELU
}
layers {
  bottom: "fc7"
  top: "fc7"
  name: "drop7"
  type: DROPOUT
  dropout_param {
    dropout_ratio: 0.5
  }
}
layers {
  bottom: "fc7"
  top: "fc8_weak2"
  name: "fc8_weak2"
  type: CONVOLUTION
  blobs_lr: 1
  blobs_lr: 2
  weight_decay: 1
  weight_decay: 0
  convolution_param {
    num_output: 21
    kernel_size: 1
    weight_filler {
      type: "gaussian"
      std: 0.01
    }
    bias_filler {
      type: "constant"
      value: 0
    }
  }
  strict_dim: false
}
layers {
  bottom: "fc8_weak2"
  bottom: "label_weak"
  top: "fc8_biased"
  name: "fc8_biased"
  type: ADAPTIVE_BIAS_CHANNEL
  adaptive_bias_channel_param {
    num_iter: 5
    bg_portion: 0.4
    fg_portion: 0.2
    suppress_others: true
    margin_others: 1e-05
  }
}
layers {
  bottom: "fc8_biased"
  top: "label_estep"
  name: "label_estep"
  type: ARGMAX
  argmax_param {
    out_max_val: false
    top_k: 1
  }
}
layers {
  bottom: "fc8_weak2"
  bottom: "label_estep"
  name: "loss"
  type: SOFTMAX_LOSS
  include {
    phase: TRAIN
  }
  softmaxloss_param {
    ignore_label: 255
  }
}
layers {
  bottom: "label_strong"
  top: "label_shrink"
  name: "label_shrink"
  type: INTERP
  interp_param {
    shrink_factor: 8
    pad_beg: 0
    pad_end: 0
  }
}
layers {
  bottom: "fc8_weak2"
  bottom: "label_shrink"
  top: "accuracy"
  name: "accuracy"
  type: SEG_ACCURACY
  seg_accuracy_param {
    ignore_label: 255
  }
}
state {
  phase: TRAIN
}
I0106 15:37:34.997203 50979 layer_factory.hpp:78] Creating layer data
I0106 15:37:34.997239 50979 net.cpp:67] Creating Layer data
I0106 15:37:34.997246 50979 net.cpp:356] data -> data
I0106 15:37:34.997262 50979 net.cpp:356] data -> label_strong
I0106 15:37:34.997272 50979 net.cpp:356] data -> (automatic)
I0106 15:37:34.997277 50979 net.cpp:96] Setting up data
I0106 15:37:34.997280 50979 image_seg_data_layer.cpp:45] Opening file weak2/list/train.txt
I0106 15:37:34.998653 50979 image_seg_data_layer.cpp:62] Shuffling data
I0106 15:37:34.998745 50979 image_seg_data_layer.cpp:67] A total of 1464 images.
I0106 15:37:35.020702 50979 image_seg_data_layer.cpp:113] output data size: 10,3,321,321
I0106 15:37:35.020727 50979 image_seg_data_layer.cpp:117] output label size: 10,1,321,321
I0106 15:37:35.020731 50979 image_seg_data_layer.cpp:121] output data_dim size: 10,1,1,2
I0106 15:37:35.021661 50979 net.cpp:103] Top shape: 10 3 321 321 (3091230)
I0106 15:37:35.021679 50979 net.cpp:103] Top shape: 10 1 321 321 (1030410)
I0106 15:37:35.021683 50979 net.cpp:103] Top shape: 10 1 1 2 (20)
I0106 15:37:35.021687 50979 layer_factory.hpp:78] Creating layer label_strong_data_1_split
I0106 15:37:35.021703 50979 net.cpp:67] Creating Layer label_strong_data_1_split
I0106 15:37:35.021706 50979 net.cpp:394] label_strong_data_1_split <- label_strong
I0106 15:37:35.021721 50979 net.cpp:356] label_strong_data_1_split -> label_strong_data_1_split_0
I0106 15:37:35.021729 50979 net.cpp:356] label_strong_data_1_split -> label_strong_data_1_split_1
I0106 15:37:35.021735 50979 net.cpp:96] Setting up label_strong_data_1_split
I0106 15:37:35.021740 50979 net.cpp:103] Top shape: 10 1 321 321 (1030410)
I0106 15:37:35.021742 50979 net.cpp:103] Top shape: 10 1 321 321 (1030410)
I0106 15:37:35.021745 50979 layer_factory.hpp:78] Creating layer label_weak
I0106 15:37:35.021752 50979 net.cpp:67] Creating Layer label_weak
I0106 15:37:35.021755 50979 net.cpp:394] label_weak <- label_strong_data_1_split_0
I0106 15:37:35.021759 50979 net.cpp:356] label_weak -> label_weak
I0106 15:37:35.021764 50979 net.cpp:96] Setting up label_weak
I0106 15:37:35.021769 50979 net.cpp:103] Top shape: 10 10 1 1 (100)
I0106 15:37:35.021770 50979 layer_factory.hpp:78] Creating layer conv1_1
I0106 15:37:35.021775 50979 net.cpp:67] Creating Layer conv1_1
I0106 15:37:35.021778 50979 net.cpp:394] conv1_1 <- data
I0106 15:37:35.021782 50979 net.cpp:356] conv1_1 -> conv1_1
I0106 15:37:35.021787 50979 net.cpp:96] Setting up conv1_1
I0106 15:37:35.104459 50979 net.cpp:103] Top shape: 10 64 321 321 (65946240)
I0106 15:37:35.104585 50979 layer_factory.hpp:78] Creating layer relu1_1
I0106 15:37:35.104605 50979 net.cpp:67] Creating Layer relu1_1
I0106 15:37:35.104610 50979 net.cpp:394] relu1_1 <- conv1_1
I0106 15:37:35.104617 50979 net.cpp:345] relu1_1 -> conv1_1 (in-place)
I0106 15:37:35.104624 50979 net.cpp:96] Setting up relu1_1
I0106 15:37:35.104650 50979 net.cpp:103] Top shape: 10 64 321 321 (65946240)
I0106 15:37:35.104657 50979 layer_factory.hpp:78] Creating layer conv1_2
I0106 15:37:35.104665 50979 net.cpp:67] Creating Layer conv1_2
I0106 15:37:35.104667 50979 net.cpp:394] conv1_2 <- conv1_1
I0106 15:37:35.104671 50979 net.cpp:356] conv1_2 -> conv1_2
I0106 15:37:35.104677 50979 net.cpp:96] Setting up conv1_2
I0106 15:37:35.105093 50979 net.cpp:103] Top shape: 10 64 321 321 (65946240)
I0106 15:37:35.105113 50979 layer_factory.hpp:78] Creating layer relu1_2
I0106 15:37:35.105118 50979 net.cpp:67] Creating Layer relu1_2
I0106 15:37:35.105123 50979 net.cpp:394] relu1_2 <- conv1_2
I0106 15:37:35.105126 50979 net.cpp:345] relu1_2 -> conv1_2 (in-place)
I0106 15:37:35.105134 50979 net.cpp:96] Setting up relu1_2
I0106 15:37:35.105140 50979 net.cpp:103] Top shape: 10 64 321 321 (65946240)
I0106 15:37:35.105144 50979 layer_factory.hpp:78] Creating layer pool1
I0106 15:37:35.105149 50979 layer_factory.cpp:51] CUDNN does not support padding or multiple tops. Using Caffe's own pooling layer.
I0106 15:37:35.105152 50979 net.cpp:67] Creating Layer pool1
I0106 15:37:35.105155 50979 net.cpp:394] pool1 <- conv1_2
I0106 15:37:35.105190 50979 net.cpp:356] pool1 -> pool1
I0106 15:37:35.105198 50979 net.cpp:96] Setting up pool1
I0106 15:37:35.105211 50979 net.cpp:103] Top shape: 10 64 161 161 (16589440)
I0106 15:37:35.105221 50979 layer_factory.hpp:78] Creating layer conv2_1
I0106 15:37:35.105228 50979 net.cpp:67] Creating Layer conv2_1
I0106 15:37:35.105232 50979 net.cpp:394] conv2_1 <- pool1
I0106 15:37:35.105238 50979 net.cpp:356] conv2_1 -> conv2_1
I0106 15:37:35.105242 50979 net.cpp:96] Setting up conv2_1
I0106 15:37:35.118687 50979 net.cpp:103] Top shape: 10 128 161 161 (33178880)
I0106 15:37:35.118716 50979 layer_factory.hpp:78] Creating layer relu2_1
I0106 15:37:35.118723 50979 net.cpp:67] Creating Layer relu2_1
I0106 15:37:35.118727 50979 net.cpp:394] relu2_1 <- conv2_1
I0106 15:37:35.118736 50979 net.cpp:345] relu2_1 -> conv2_1 (in-place)
I0106 15:37:35.118741 50979 net.cpp:96] Setting up relu2_1
I0106 15:37:35.118751 50979 net.cpp:103] Top shape: 10 128 161 161 (33178880)
I0106 15:37:35.118753 50979 layer_factory.hpp:78] Creating layer conv2_2
I0106 15:37:35.118758 50979 net.cpp:67] Creating Layer conv2_2
I0106 15:37:35.118762 50979 net.cpp:394] conv2_2 <- conv2_1
I0106 15:37:35.118767 50979 net.cpp:356] conv2_2 -> conv2_2
I0106 15:37:35.118772 50979 net.cpp:96] Setting up conv2_2
I0106 15:37:35.119238 50979 net.cpp:103] Top shape: 10 128 161 161 (33178880)
I0106 15:37:35.119256 50979 layer_factory.hpp:78] Creating layer relu2_2
I0106 15:37:35.119262 50979 net.cpp:67] Creating Layer relu2_2
I0106 15:37:35.119266 50979 net.cpp:394] relu2_2 <- conv2_2
I0106 15:37:35.119269 50979 net.cpp:345] relu2_2 -> conv2_2 (in-place)
I0106 15:37:35.119274 50979 net.cpp:96] Setting up relu2_2
I0106 15:37:35.119282 50979 net.cpp:103] Top shape: 10 128 161 161 (33178880)
I0106 15:37:35.119284 50979 layer_factory.hpp:78] Creating layer pool2
I0106 15:37:35.119287 50979 layer_factory.cpp:51] CUDNN does not support padding or multiple tops. Using Caffe's own pooling layer.
I0106 15:37:35.119290 50979 net.cpp:67] Creating Layer pool2
I0106 15:37:35.119293 50979 net.cpp:394] pool2 <- conv2_2
I0106 15:37:35.119297 50979 net.cpp:356] pool2 -> pool2
I0106 15:37:35.119302 50979 net.cpp:96] Setting up pool2
I0106 15:37:35.119305 50979 net.cpp:103] Top shape: 10 128 81 81 (8398080)
I0106 15:37:35.119308 50979 layer_factory.hpp:78] Creating layer conv3_1
I0106 15:37:35.119314 50979 net.cpp:67] Creating Layer conv3_1
I0106 15:37:35.119318 50979 net.cpp:394] conv3_1 <- pool2
I0106 15:37:35.119320 50979 net.cpp:356] conv3_1 -> conv3_1
I0106 15:37:35.119324 50979 net.cpp:96] Setting up conv3_1
I0106 15:37:35.120048 50979 net.cpp:103] Top shape: 10 256 81 81 (16796160)
I0106 15:37:35.120069 50979 layer_factory.hpp:78] Creating layer relu3_1
I0106 15:37:35.120076 50979 net.cpp:67] Creating Layer relu3_1
I0106 15:37:35.120079 50979 net.cpp:394] relu3_1 <- conv3_1
I0106 15:37:35.120084 50979 net.cpp:345] relu3_1 -> conv3_1 (in-place)
I0106 15:37:35.120088 50979 net.cpp:96] Setting up relu3_1
I0106 15:37:35.120095 50979 net.cpp:103] Top shape: 10 256 81 81 (16796160)
I0106 15:37:35.120097 50979 layer_factory.hpp:78] Creating layer conv3_2
I0106 15:37:35.120103 50979 net.cpp:67] Creating Layer conv3_2
I0106 15:37:35.120106 50979 net.cpp:394] conv3_2 <- conv3_1
I0106 15:37:35.120110 50979 net.cpp:356] conv3_2 -> conv3_2
I0106 15:37:35.120113 50979 net.cpp:96] Setting up conv3_2
I0106 15:37:35.120931 50979 net.cpp:103] Top shape: 10 256 81 81 (16796160)
I0106 15:37:35.120950 50979 layer_factory.hpp:78] Creating layer relu3_2
I0106 15:37:35.120959 50979 net.cpp:67] Creating Layer relu3_2
I0106 15:37:35.120962 50979 net.cpp:394] relu3_2 <- conv3_2
I0106 15:37:35.120966 50979 net.cpp:345] relu3_2 -> conv3_2 (in-place)
I0106 15:37:35.120970 50979 net.cpp:96] Setting up relu3_2
I0106 15:37:35.120976 50979 net.cpp:103] Top shape: 10 256 81 81 (16796160)
I0106 15:37:35.120980 50979 layer_factory.hpp:78] Creating layer conv3_3
I0106 15:37:35.120985 50979 net.cpp:67] Creating Layer conv3_3
I0106 15:37:35.120987 50979 net.cpp:394] conv3_3 <- conv3_2
I0106 15:37:35.120991 50979 net.cpp:356] conv3_3 -> conv3_3
I0106 15:37:35.121023 50979 net.cpp:96] Setting up conv3_3
I0106 15:37:35.132171 50979 net.cpp:103] Top shape: 10 256 81 81 (16796160)
I0106 15:37:35.132195 50979 layer_factory.hpp:78] Creating layer relu3_3
I0106 15:37:35.132202 50979 net.cpp:67] Creating Layer relu3_3
I0106 15:37:35.132206 50979 net.cpp:394] relu3_3 <- conv3_3
I0106 15:37:35.132210 50979 net.cpp:345] relu3_3 -> conv3_3 (in-place)
I0106 15:37:35.132220 50979 net.cpp:96] Setting up relu3_3
I0106 15:37:35.132225 50979 net.cpp:103] Top shape: 10 256 81 81 (16796160)
I0106 15:37:35.132228 50979 layer_factory.hpp:78] Creating layer pool3
I0106 15:37:35.132231 50979 layer_factory.cpp:51] CUDNN does not support padding or multiple tops. Using Caffe's own pooling layer.
I0106 15:37:35.132236 50979 net.cpp:67] Creating Layer pool3
I0106 15:37:35.132238 50979 net.cpp:394] pool3 <- conv3_3
I0106 15:37:35.132242 50979 net.cpp:356] pool3 -> pool3
I0106 15:37:35.132246 50979 net.cpp:96] Setting up pool3
I0106 15:37:35.132251 50979 net.cpp:103] Top shape: 10 256 41 41 (4303360)
I0106 15:37:35.132253 50979 layer_factory.hpp:78] Creating layer conv4_1
I0106 15:37:35.132259 50979 net.cpp:67] Creating Layer conv4_1
I0106 15:37:35.132262 50979 net.cpp:394] conv4_1 <- pool3
I0106 15:37:35.132266 50979 net.cpp:356] conv4_1 -> conv4_1
I0106 15:37:35.132272 50979 net.cpp:96] Setting up conv4_1
I0106 15:37:35.140498 50979 net.cpp:103] Top shape: 10 512 41 41 (8606720)
I0106 15:37:35.140522 50979 layer_factory.hpp:78] Creating layer relu4_1
I0106 15:37:35.140527 50979 net.cpp:67] Creating Layer relu4_1
I0106 15:37:35.140532 50979 net.cpp:394] relu4_1 <- conv4_1
I0106 15:37:35.140537 50979 net.cpp:345] relu4_1 -> conv4_1 (in-place)
I0106 15:37:35.140542 50979 net.cpp:96] Setting up relu4_1
I0106 15:37:35.140547 50979 net.cpp:103] Top shape: 10 512 41 41 (8606720)
I0106 15:37:35.140550 50979 layer_factory.hpp:78] Creating layer conv4_2
I0106 15:37:35.140558 50979 net.cpp:67] Creating Layer conv4_2
I0106 15:37:35.140560 50979 net.cpp:394] conv4_2 <- conv4_1
I0106 15:37:35.140564 50979 net.cpp:356] conv4_2 -> conv4_2
I0106 15:37:35.140571 50979 net.cpp:96] Setting up conv4_2
I0106 15:37:35.144047 50979 net.cpp:103] Top shape: 10 512 41 41 (8606720)
I0106 15:37:35.144070 50979 layer_factory.hpp:78] Creating layer relu4_2
I0106 15:37:35.144078 50979 net.cpp:67] Creating Layer relu4_2
I0106 15:37:35.144083 50979 net.cpp:394] relu4_2 <- conv4_2
I0106 15:37:35.144086 50979 net.cpp:345] relu4_2 -> conv4_2 (in-place)
I0106 15:37:35.144091 50979 net.cpp:96] Setting up relu4_2
I0106 15:37:35.144098 50979 net.cpp:103] Top shape: 10 512 41 41 (8606720)
I0106 15:37:35.144100 50979 layer_factory.hpp:78] Creating layer conv4_3
I0106 15:37:35.144104 50979 net.cpp:67] Creating Layer conv4_3
I0106 15:37:35.144107 50979 net.cpp:394] conv4_3 <- conv4_2
I0106 15:37:35.144110 50979 net.cpp:356] conv4_3 -> conv4_3
I0106 15:37:35.144114 50979 net.cpp:96] Setting up conv4_3
I0106 15:37:35.153964 50979 net.cpp:103] Top shape: 10 512 41 41 (8606720)
I0106 15:37:35.154328 50979 layer_factory.hpp:78] Creating layer relu4_3
I0106 15:37:35.154338 50979 net.cpp:67] Creating Layer relu4_3
I0106 15:37:35.154342 50979 net.cpp:394] relu4_3 <- conv4_3
I0106 15:37:35.154347 50979 net.cpp:345] relu4_3 -> conv4_3 (in-place)
I0106 15:37:35.154352 50979 net.cpp:96] Setting up relu4_3
I0106 15:37:35.154361 50979 net.cpp:103] Top shape: 10 512 41 41 (8606720)
I0106 15:37:35.154363 50979 layer_factory.hpp:78] Creating layer pool4
I0106 15:37:35.154367 50979 layer_factory.cpp:51] CUDNN does not support padding or multiple tops. Using Caffe's own pooling layer.
I0106 15:37:35.154371 50979 net.cpp:67] Creating Layer pool4
I0106 15:37:35.154374 50979 net.cpp:394] pool4 <- conv4_3
I0106 15:37:35.154381 50979 net.cpp:356] pool4 -> pool4
I0106 15:37:35.154389 50979 net.cpp:96] Setting up pool4
I0106 15:37:35.154393 50979 net.cpp:103] Top shape: 10 512 41 41 (8606720)
I0106 15:37:35.154397 50979 layer_factory.hpp:78] Creating layer conv5_1
I0106 15:37:35.154402 50979 net.cpp:67] Creating Layer conv5_1
I0106 15:37:35.154435 50979 net.cpp:394] conv5_1 <- pool4
I0106 15:37:35.154444 50979 net.cpp:356] conv5_1 -> conv5_1
I0106 15:37:35.154449 50979 net.cpp:96] Setting up conv5_1
I0106 15:37:35.173382 50979 net.cpp:103] Top shape: 10 512 41 41 (8606720)
I0106 15:37:35.173424 50979 layer_factory.hpp:78] Creating layer relu5_1
I0106 15:37:35.173431 50979 net.cpp:67] Creating Layer relu5_1
I0106 15:37:35.173434 50979 net.cpp:394] relu5_1 <- conv5_1
I0106 15:37:35.173442 50979 net.cpp:345] relu5_1 -> conv5_1 (in-place)
I0106 15:37:35.173449 50979 net.cpp:96] Setting up relu5_1
I0106 15:37:35.173455 50979 net.cpp:103] Top shape: 10 512 41 41 (8606720)
I0106 15:37:35.173458 50979 layer_factory.hpp:78] Creating layer conv5_2
I0106 15:37:35.173463 50979 net.cpp:67] Creating Layer conv5_2
I0106 15:37:35.173465 50979 net.cpp:394] conv5_2 <- conv5_1
I0106 15:37:35.173470 50979 net.cpp:356] conv5_2 -> conv5_2
I0106 15:37:35.173475 50979 net.cpp:96] Setting up conv5_2
I0106 15:37:35.178449 50979 net.cpp:103] Top shape: 10 512 41 41 (8606720)
I0106 15:37:35.178472 50979 layer_factory.hpp:78] Creating layer relu5_2
I0106 15:37:35.178480 50979 net.cpp:67] Creating Layer relu5_2
I0106 15:37:35.178484 50979 net.cpp:394] relu5_2 <- conv5_2
I0106 15:37:35.178489 50979 net.cpp:345] relu5_2 -> conv5_2 (in-place)
I0106 15:37:35.178494 50979 net.cpp:96] Setting up relu5_2
I0106 15:37:35.178500 50979 net.cpp:103] Top shape: 10 512 41 41 (8606720)
I0106 15:37:35.178503 50979 layer_factory.hpp:78] Creating layer conv5_3
I0106 15:37:35.178508 50979 net.cpp:67] Creating Layer conv5_3
I0106 15:37:35.178510 50979 net.cpp:394] conv5_3 <- conv5_2
I0106 15:37:35.178514 50979 net.cpp:356] conv5_3 -> conv5_3
I0106 15:37:35.178519 50979 net.cpp:96] Setting up conv5_3
I0106 15:37:35.194051 50979 net.cpp:103] Top shape: 10 512 41 41 (8606720)
I0106 15:37:35.194077 50979 layer_factory.hpp:78] Creating layer relu5_3
I0106 15:37:35.194089 50979 net.cpp:67] Creating Layer relu5_3
I0106 15:37:35.194093 50979 net.cpp:394] relu5_3 <- conv5_3
I0106 15:37:35.194098 50979 net.cpp:345] relu5_3 -> conv5_3 (in-place)
I0106 15:37:35.194103 50979 net.cpp:96] Setting up relu5_3
I0106 15:37:35.194109 50979 net.cpp:103] Top shape: 10 512 41 41 (8606720)
I0106 15:37:35.194113 50979 layer_factory.hpp:78] Creating layer pool5
I0106 15:37:35.194116 50979 layer_factory.cpp:51] CUDNN does not support padding or multiple tops. Using Caffe's own pooling layer.
I0106 15:37:35.194121 50979 net.cpp:67] Creating Layer pool5
I0106 15:37:35.194124 50979 net.cpp:394] pool5 <- conv5_3
I0106 15:37:35.194128 50979 net.cpp:356] pool5 -> pool5
I0106 15:37:35.194133 50979 net.cpp:96] Setting up pool5
I0106 15:37:35.194139 50979 net.cpp:103] Top shape: 10 512 41 41 (8606720)
I0106 15:37:35.194141 50979 layer_factory.hpp:78] Creating layer fc6
I0106 15:37:35.194149 50979 net.cpp:67] Creating Layer fc6
I0106 15:37:35.194156 50979 net.cpp:394] fc6 <- pool5
I0106 15:37:35.194160 50979 net.cpp:356] fc6 -> fc6
I0106 15:37:35.194165 50979 net.cpp:96] Setting up fc6
I0106 15:37:35.343520 50979 net.cpp:103] Top shape: 10 4096 41 41 (68853760)
I0106 15:37:35.343559 50979 layer_factory.hpp:78] Creating layer relu6
I0106 15:37:35.343569 50979 net.cpp:67] Creating Layer relu6
I0106 15:37:35.343574 50979 net.cpp:394] relu6 <- fc6
I0106 15:37:35.343583 50979 net.cpp:345] relu6 -> fc6 (in-place)
I0106 15:37:35.343590 50979 net.cpp:96] Setting up relu6
I0106 15:37:35.343597 50979 net.cpp:103] Top shape: 10 4096 41 41 (68853760)
I0106 15:37:35.343600 50979 layer_factory.hpp:78] Creating layer drop6
I0106 15:37:35.343617 50979 net.cpp:67] Creating Layer drop6
I0106 15:37:35.343621 50979 net.cpp:394] drop6 <- fc6
I0106 15:37:35.343624 50979 net.cpp:345] drop6 -> fc6 (in-place)
I0106 15:37:35.343628 50979 net.cpp:96] Setting up drop6
I0106 15:37:35.343632 50979 net.cpp:103] Top shape: 10 4096 41 41 (68853760)
I0106 15:37:35.343636 50979 layer_factory.hpp:78] Creating layer fc7
I0106 15:37:35.343643 50979 net.cpp:67] Creating Layer fc7
I0106 15:37:35.343646 50979 net.cpp:394] fc7 <- fc6
I0106 15:37:35.343649 50979 net.cpp:356] fc7 -> fc7
I0106 15:37:35.343688 50979 net.cpp:96] Setting up fc7
I0106 15:37:35.411849 50979 net.cpp:103] Top shape: 10 4096 41 41 (68853760)
I0106 15:37:35.411890 50979 layer_factory.hpp:78] Creating layer relu7
I0106 15:37:35.411901 50979 net.cpp:67] Creating Layer relu7
I0106 15:37:35.411906 50979 net.cpp:394] relu7 <- fc7
I0106 15:37:35.411916 50979 net.cpp:345] relu7 -> fc7 (in-place)
I0106 15:37:35.411922 50979 net.cpp:96] Setting up relu7
I0106 15:37:35.411929 50979 net.cpp:103] Top shape: 10 4096 41 41 (68853760)
I0106 15:37:35.411933 50979 layer_factory.hpp:78] Creating layer drop7
I0106 15:37:35.411938 50979 net.cpp:67] Creating Layer drop7
I0106 15:37:35.411942 50979 net.cpp:394] drop7 <- fc7
I0106 15:37:35.411944 50979 net.cpp:345] drop7 -> fc7 (in-place)
I0106 15:37:35.411948 50979 net.cpp:96] Setting up drop7
I0106 15:37:35.411952 50979 net.cpp:103] Top shape: 10 4096 41 41 (68853760)
I0106 15:37:35.411955 50979 layer_factory.hpp:78] Creating layer fc8_weak2
I0106 15:37:35.411962 50979 net.cpp:67] Creating Layer fc8_weak2
I0106 15:37:35.411965 50979 net.cpp:394] fc8_weak2 <- fc7
I0106 15:37:35.411969 50979 net.cpp:356] fc8_weak2 -> fc8_weak2
I0106 15:37:35.411975 50979 net.cpp:96] Setting up fc8_weak2
I0106 15:37:35.413223 50979 net.cpp:103] Top shape: 10 21 41 41 (353010)
I0106 15:37:35.413244 50979 layer_factory.hpp:78] Creating layer fc8_weak2_fc8_weak2_0_split
I0106 15:37:35.413252 50979 net.cpp:67] Creating Layer fc8_weak2_fc8_weak2_0_split
I0106 15:37:35.413256 50979 net.cpp:394] fc8_weak2_fc8_weak2_0_split <- fc8_weak2
I0106 15:37:35.413261 50979 net.cpp:356] fc8_weak2_fc8_weak2_0_split -> fc8_weak2_fc8_weak2_0_split_0
I0106 15:37:35.413271 50979 net.cpp:356] fc8_weak2_fc8_weak2_0_split -> fc8_weak2_fc8_weak2_0_split_1
I0106 15:37:35.413277 50979 net.cpp:356] fc8_weak2_fc8_weak2_0_split -> fc8_weak2_fc8_weak2_0_split_2
I0106 15:37:35.413282 50979 net.cpp:96] Setting up fc8_weak2_fc8_weak2_0_split
I0106 15:37:35.413286 50979 net.cpp:103] Top shape: 10 21 41 41 (353010)
I0106 15:37:35.413290 50979 net.cpp:103] Top shape: 10 21 41 41 (353010)
I0106 15:37:35.413292 50979 net.cpp:103] Top shape: 10 21 41 41 (353010)
I0106 15:37:35.413295 50979 layer_factory.hpp:78] Creating layer fc8_biased
I0106 15:37:35.413301 50979 net.cpp:67] Creating Layer fc8_biased
I0106 15:37:35.413307 50979 net.cpp:394] fc8_biased <- fc8_weak2_fc8_weak2_0_split_0
I0106 15:37:35.413312 50979 net.cpp:394] fc8_biased <- label_weak
I0106 15:37:35.413316 50979 net.cpp:356] fc8_biased -> fc8_biased
I0106 15:37:35.413326 50979 net.cpp:96] Setting up fc8_biased
I0106 15:37:35.413331 50979 net.cpp:103] Top shape: 10 21 41 41 (353010)
I0106 15:37:35.413334 50979 layer_factory.hpp:78] Creating layer label_estep
I0106 15:37:35.413338 50979 net.cpp:67] Creating Layer label_estep
I0106 15:37:35.413341 50979 net.cpp:394] label_estep <- fc8_biased
I0106 15:37:35.413345 50979 net.cpp:356] label_estep -> label_estep
I0106 15:37:35.413349 50979 net.cpp:96] Setting up label_estep
I0106 15:37:35.413352 50979 net.cpp:103] Top shape: 10 1 41 41 (16810)
I0106 15:37:35.413355 50979 layer_factory.hpp:78] Creating layer loss
I0106 15:37:35.413364 50979 net.cpp:67] Creating Layer loss
I0106 15:37:35.413367 50979 net.cpp:394] loss <- fc8_weak2_fc8_weak2_0_split_1
I0106 15:37:35.413372 50979 net.cpp:394] loss <- label_estep
I0106 15:37:35.413375 50979 net.cpp:356] loss -> (automatic)
I0106 15:37:35.413385 50979 net.cpp:96] Setting up loss
I0106 15:37:35.413390 50979 softmax_loss_layer.cpp:40] Weight_Loss file is not provided. Assign all one to it.
I0106 15:37:35.413398 50979 net.cpp:103] Top shape: 1 1 1 1 (1)
I0106 15:37:35.413400 50979 net.cpp:109]     with loss weight 1
I0106 15:37:35.413421 50979 layer_factory.hpp:78] Creating layer label_shrink
I0106 15:37:35.413430 50979 net.cpp:67] Creating Layer label_shrink
I0106 15:37:35.413434 50979 net.cpp:394] label_shrink <- label_strong_data_1_split_1
I0106 15:37:35.413439 50979 net.cpp:356] label_shrink -> label_shrink
I0106 15:37:35.413444 50979 net.cpp:96] Setting up label_shrink
I0106 15:37:35.413447 50979 net.cpp:103] Top shape: 10 1 41 41 (16810)
I0106 15:37:35.413480 50979 layer_factory.hpp:78] Creating layer accuracy
I0106 15:37:35.413486 50979 net.cpp:67] Creating Layer accuracy
I0106 15:37:35.413506 50979 net.cpp:394] accuracy <- fc8_weak2_fc8_weak2_0_split_2
I0106 15:37:35.413511 50979 net.cpp:394] accuracy <- label_shrink
I0106 15:37:35.413514 50979 net.cpp:356] accuracy -> accuracy
I0106 15:37:35.413519 50979 net.cpp:96] Setting up accuracy
I0106 15:37:35.413532 50979 net.cpp:103] Top shape: 1 1 1 3 (3)
I0106 15:37:35.413537 50979 net.cpp:172] accuracy does not need backward computation.
I0106 15:37:35.413540 50979 net.cpp:172] label_shrink does not need backward computation.
I0106 15:37:35.413543 50979 net.cpp:170] loss needs backward computation.
I0106 15:37:35.413547 50979 net.cpp:170] label_estep needs backward computation.
I0106 15:37:35.413548 50979 net.cpp:170] fc8_biased needs backward computation.
…
