…
I0114 22:16:31.224757 27402 solver.cpp:58] Creating training net from train_net file: weak2/config/adapt/train_train.prototxt
I0114 22:16:31.225816 27402 net.cpp:39] Initializing net from parameters: 
name: "adapt"
layers {
  top: "data"
  top: "label_strong"
  name: "data"
  type: IMAGE_SEG_DATA
  image_data_param {
    source: "weak2/list/train.txt"
    batch_size: 10
    shuffle: true
    root_folder: "/home/zhangzhengqiang/git/deeplab-public//data/pascal/VOCdevkit/VOC2012"
    label_type: PIXEL
  }
  include {
    phase: TRAIN
  }
  transform_param {
    mirror: true
    crop_size: 321
    mean_value: 104.008
    mean_value: 116.669
    mean_value: 122.675
  }
}
layers {
  bottom: "label_strong"
  top: "label_weak"
  name: "label_weak"
  type: UNIQUE_LABEL
  include {
    phase: TRAIN
  }
  unique_label_param {
    max_labels: 10
    ignore_label: 255
  }
}
layers {
  bottom: "data"
  top: "conv1_1"
  name: "conv1_1"
  type: CONVOLUTION
  blobs_lr: 1
  blobs_lr: 2
  weight_decay: 1
  weight_decay: 0
  convolution_param {
    num_output: 64
    pad: 1
    kernel_size: 3
  }
}
layers {
  bottom: "conv1_1"
  top: "conv1_1"
  name: "relu1_1"
  type: RELU
}
layers {
  bottom: "conv1_1"
  top: "conv1_2"
  name: "conv1_2"
  type: CONVOLUTION
  blobs_lr: 1
  blobs_lr: 2
  weight_decay: 1
  weight_decay: 0
  convolution_param {
    num_output: 64
    pad: 1
    kernel_size: 3
  }
}
layers {
  bottom: "conv1_2"
  top: "conv1_2"
  name: "relu1_2"
  type: RELU
}
layers {
  bottom: "conv1_2"
  top: "pool1"
  name: "pool1"
  type: POOLING
  pooling_param {
    pool: MAX
    kernel_size: 3
    stride: 2
    pad: 1
  }
}
layers {
  bottom: "pool1"
  top: "conv2_1"
  name: "conv2_1"
  type: CONVOLUTION
  blobs_lr: 1
  blobs_lr: 2
  weight_decay: 1
  weight_decay: 0
  convolution_param {
    num_output: 128
    pad: 1
    kernel_size: 3
  }
}
layers {
  bottom: "conv2_1"
  top: "conv2_1"
  name: "relu2_1"
  type: RELU
}
layers {
  bottom: "conv2_1"
  top: "conv2_2"
  name: "conv2_2"
  type: CONVOLUTION
  blobs_lr: 1
  blobs_lr: 2
  weight_decay: 1
  weight_decay: 0
  convolution_param {
    num_output: 128
    pad: 1
    kernel_size: 3
  }
}
layers {
  bottom: "conv2_2"
  top: "conv2_2"
  name: "relu2_2"
  type: RELU
}
layers {
  bottom: "conv2_2"
  top: "pool2"
  name: "pool2"
  type: POOLING
  pooling_param {
    pool: MAX
    kernel_size: 3
    stride: 2
    pad: 1
  }
}
layers {
  bottom: "pool2"
  top: "conv3_1"
  name: "conv3_1"
  type: CONVOLUTION
  blobs_lr: 1
  blobs_lr: 2
  weight_decay: 1
  weight_decay: 0
  convolution_param {
    num_output: 256
    pad: 1
    kernel_size: 3
  }
}
layers {
  bottom: "conv3_1"
  top: "conv3_1"
  name: "relu3_1"
  type: RELU
}
layers {
  bottom: "conv3_1"
  top: "conv3_2"
  name: "conv3_2"
  type: CONVOLUTION
  blobs_lr: 1
  blobs_lr: 2
  weight_decay: 1
  weight_decay: 0
  convolution_param {
    num_output: 256
    pad: 1
    kernel_size: 3
  }
}
layers {
  bottom: "conv3_2"
  top: "conv3_2"
  name: "relu3_2"
  type: RELU
}
layers {
  bottom: "conv3_2"
  top: "conv3_3"
  name: "conv3_3"
  type: CONVOLUTION
  blobs_lr: 1
  blobs_lr: 2
  weight_decay: 1
  weight_decay: 0
  convolution_param {
    num_output: 256
    pad: 1
    kernel_size: 3
  }
}
layers {
  bottom: "conv3_3"
  top: "conv3_3"
  name: "relu3_3"
  type: RELU
}
layers {
  bottom: "conv3_3"
  top: "pool3"
  name: "pool3"
  type: POOLING
  pooling_param {
    pool: MAX
    kernel_size: 3
    stride: 2
    pad: 1
  }
}
layers {
  bottom: "pool3"
  top: "conv4_1"
  name: "conv4_1"
  type: CONVOLUTION
  blobs_lr: 1
  blobs_lr: 2
  weight_decay: 1
  weight_decay: 0
  convolution_param {
    num_output: 512
    pad: 1
    kernel_size: 3
  }
}
layers {
  bottom: "conv4_1"
  top: "conv4_1"
  name: "relu4_1"
  type: RELU
}
layers {
  bottom: "conv4_1"
  top: "conv4_2"
  name: "conv4_2"
  type: CONVOLUTION
  blobs_lr: 1
  blobs_lr: 2
  weight_decay: 1
  weight_decay: 0
  convolution_param {
    num_output: 512
    pad: 1
    kernel_size: 3
  }
}
layers {
  bottom: "conv4_2"
  top: "conv4_2"
  name: "relu4_2"
  type: RELU
}
layers {
  bottom: "conv4_2"
  top: "conv4_3"
  name: "conv4_3"
  type: CONVOLUTION
  blobs_lr: 1
  blobs_lr: 2
  weight_decay: 1
  weight_decay: 0
  convolution_param {
    num_output: 512
    pad: 1
    kernel_size: 3
  }
}
layers {
  bottom: "conv4_3"
  top: "conv4_3"
  name: "relu4_3"
  type: RELU
}
layers {
  bottom: "conv4_3"
  top: "pool4"
  name: "pool4"
  type: POOLING
  pooling_param {
    pool: MAX
    kernel_size: 3
    stride: 1
    pad: 1
  }
}
layers {
  bottom: "pool4"
  top: "conv5_1"
  name: "conv5_1"
  type: CONVOLUTION
  blobs_lr: 1
  blobs_lr: 2
  weight_decay: 1
  weight_decay: 0
  convolution_param {
    num_output: 512
    pad: 2
    kernel_size: 3
    hole: 2
  }
}
layers {
  bottom: "conv5_1"
  top: "conv5_1"
  name: "relu5_1"
  type: RELU
}
layers {
  bottom: "conv5_1"
  top: "conv5_2"
  name: "conv5_2"
  type: CONVOLUTION
  blobs_lr: 1
  blobs_lr: 2
  weight_decay: 1
  weight_decay: 0
  convolution_param {
    num_output: 512
    pad: 2
    kernel_size: 3
    hole: 2
  }
}
layers {
  bottom: "conv5_2"
  top: "conv5_2"
  name: "relu5_2"
  type: RELU
}
layers {
  bottom: "conv5_2"
  top: "conv5_3"
  name: "conv5_3"
  type: CONVOLUTION
  blobs_lr: 1
  blobs_lr: 2
  weight_decay: 1
  weight_decay: 0
  convolution_param {
    num_output: 512
    pad: 2
    kernel_size: 3
    hole: 2
  }
}
layers {
  bottom: "conv5_3"
  top: "conv5_3"
  name: "relu5_3"
  type: RELU
}
layers {
  bottom: "conv5_3"
  top: "pool5"
  name: "pool5"
  type: POOLING
  pooling_param {
    pool: MAX
    kernel_size: 3
    stride: 1
    pad: 1
  }
}
layers {
  bottom: "pool5"
  top: "fc6"
  name: "fc6"
  type: CONVOLUTION
  blobs_lr: 1
  blobs_lr: 2
  weight_decay: 1
  weight_decay: 0
  convolution_param {
    num_output: 4096
    pad: 6
    kernel_size: 4
    hole: 4
  }
  strict_dim: false
}
layers {
  bottom: "fc6"
  top: "fc6"
  name: "relu6"
  type: RELU
}
layers {
  bottom: "fc6"
  top: "fc6"
  name: "drop6"
  type: DROPOUT
  dropout_param {
    dropout_ratio: 0.5
  }
}
layers {
  bottom: "fc6"
  top: "fc7"
  name: "fc7"
  type: CONVOLUTION
  blobs_lr: 1
  blobs_lr: 2
  weight_decay: 1
  weight_decay: 0
  convolution_param {
    num_output: 4096
    kernel_size: 1
  }
  strict_dim: false
}
layers {
  bottom: "fc7"
  top: "fc7"
  name: "relu7"
  type: RELU
}
layers {
  bottom: "fc7"
  top: "fc7"
  name: "drop7"
  type: DROPOUT
  dropout_param {
    dropout_ratio: 0.5
  }
}
layers {
  bottom: "fc7"
  top: "fc8_weak2"
  name: "fc8_weak2"
  type: CONVOLUTION
  blobs_lr: 10
  blobs_lr: 20
  weight_decay: 1
  weight_decay: 0
  convolution_param {
    num_output: 21
    kernel_size: 1
    weight_filler {
      type: "gaussian"
      std: 0.01
    }
    bias_filler {
      type: "constant"
      value: 0
    }
  }
  strict_dim: false
}
layers {
  bottom: "fc8_weak2"
  bottom: "label_weak"
  top: "fc8_biased"
  name: "fc8_biased"
  type: ADAPTIVE_BIAS_CHANNEL
  adaptive_bias_channel_param {
    num_iter: 5
    bg_portion: 0.4
    fg_portion: 0.2
    suppress_others: true
    margin_others: 1e-05
  }
}
layers {
  bottom: "fc8_biased"
  top: "label_estep"
  name: "label_estep"
  type: ARGMAX
  argmax_param {
    out_max_val: false
    top_k: 1
  }
}
layers {
  bottom: "fc8_weak2"
  bottom: "label_estep"
  name: "loss"
  type: SOFTMAX_LOSS
  include {
    phase: TRAIN
  }
  softmaxloss_param {
    ignore_label: 255
  }
}
layers {
  bottom: "label_strong"
  top: "label_shrink"
  name: "label_shrink"
  type: INTERP
  interp_param {
    shrink_factor: 8
    pad_beg: 0
    pad_end: 0
  }
}
layers {
  bottom: "fc8_weak2"
  bottom: "label_shrink"
  top: "accuracy"
  name: "accuracy"
  type: SEG_ACCURACY
  seg_accuracy_param {
    ignore_label: 255
  }
}
state {
  phase: TRAIN
}
I0114 22:16:31.226183 27402 layer_factory.hpp:78] Creating layer data
I0114 22:16:31.226248 27402 net.cpp:67] Creating Layer data
I0114 22:16:31.226267 27402 net.cpp:356] data -> data
I0114 22:16:31.226297 27402 net.cpp:356] data -> label_strong
I0114 22:16:31.226323 27402 net.cpp:356] data -> (automatic)
I0114 22:16:31.226338 27402 net.cpp:96] Setting up data
I0114 22:16:31.226353 27402 image_seg_data_layer.cpp:45] Opening file weak2/list/train.txt
I0114 22:16:31.229056 27402 image_seg_data_layer.cpp:62] Shuffling data
I0114 22:16:31.229221 27402 image_seg_data_layer.cpp:67] A total of 1464 images.
I0114 22:16:31.235419 27402 image_seg_data_layer.cpp:113] output data size: 10,3,321,321
I0114 22:16:31.235451 27402 image_seg_data_layer.cpp:117] output label size: 10,1,321,321
I0114 22:16:31.235460 27402 image_seg_data_layer.cpp:121] output data_dim size: 10,1,1,2
I0114 22:16:31.235781 27402 net.cpp:103] Top shape: 10 3 321 321 (3091230)
I0114 22:16:31.235802 27402 net.cpp:103] Top shape: 10 1 321 321 (1030410)
I0114 22:16:31.235810 27402 net.cpp:103] Top shape: 10 1 1 2 (20)
I0114 22:16:31.235817 27402 layer_factory.hpp:78] Creating layer label_strong_data_1_split
I0114 22:16:31.235831 27402 net.cpp:67] Creating Layer label_strong_data_1_split
I0114 22:16:31.235844 27402 net.cpp:394] label_strong_data_1_split <- label_strong
I0114 22:16:31.235868 27402 net.cpp:356] label_strong_data_1_split -> label_strong_data_1_split_0
I0114 22:16:31.235889 27402 net.cpp:356] label_strong_data_1_split -> label_strong_data_1_split_1
I0114 22:16:31.235900 27402 net.cpp:96] Setting up label_strong_data_1_split
I0114 22:16:31.235908 27402 net.cpp:103] Top shape: 10 1 321 321 (1030410)
I0114 22:16:31.235915 27402 net.cpp:103] Top shape: 10 1 321 321 (1030410)
I0114 22:16:31.235921 27402 layer_factory.hpp:78] Creating layer label_weak
I0114 22:16:31.235960 27402 net.cpp:67] Creating Layer label_weak
I0114 22:16:31.235990 27402 net.cpp:394] label_weak <- label_strong_data_1_split_0
I0114 22:16:31.235999 27402 net.cpp:356] label_weak -> label_weak
I0114 22:16:31.236008 27402 net.cpp:96] Setting up label_weak
I0114 22:16:31.236016 27402 net.cpp:103] Top shape: 10 10 1 1 (100)
I0114 22:16:31.236021 27402 layer_factory.hpp:78] Creating layer conv1_1
I0114 22:16:31.236030 27402 net.cpp:67] Creating Layer conv1_1
I0114 22:16:31.236035 27402 net.cpp:394] conv1_1 <- data
I0114 22:16:31.236044 27402 net.cpp:356] conv1_1 -> conv1_1
I0114 22:16:31.236052 27402 net.cpp:96] Setting up conv1_1
I0114 22:16:31.432235 27402 net.cpp:103] Top shape: 10 64 321 321 (65946240)
I0114 22:16:31.432301 27402 layer_factory.hpp:78] Creating layer relu1_1
I0114 22:16:31.432324 27402 net.cpp:67] Creating Layer relu1_1
I0114 22:16:31.432332 27402 net.cpp:394] relu1_1 <- conv1_1
I0114 22:16:31.432344 27402 net.cpp:345] relu1_1 -> conv1_1 (in-place)
I0114 22:16:31.432356 27402 net.cpp:96] Setting up relu1_1
I0114 22:16:31.432387 27402 net.cpp:103] Top shape: 10 64 321 321 (65946240)
I0114 22:16:31.432401 27402 layer_factory.hpp:78] Creating layer conv1_2
I0114 22:16:31.432415 27402 net.cpp:67] Creating Layer conv1_2
I0114 22:16:31.432423 27402 net.cpp:394] conv1_2 <- conv1_1
I0114 22:16:31.432431 27402 net.cpp:356] conv1_2 -> conv1_2
I0114 22:16:31.432440 27402 net.cpp:96] Setting up conv1_2
I0114 22:16:31.434623 27402 net.cpp:103] Top shape: 10 64 321 321 (65946240)
I0114 22:16:31.434655 27402 layer_factory.hpp:78] Creating layer relu1_2
I0114 22:16:31.434669 27402 net.cpp:67] Creating Layer relu1_2
I0114 22:16:31.434674 27402 net.cpp:394] relu1_2 <- conv1_2
I0114 22:16:31.434684 27402 net.cpp:345] relu1_2 -> conv1_2 (in-place)
I0114 22:16:31.434690 27402 net.cpp:96] Setting up relu1_2
I0114 22:16:31.434705 27402 net.cpp:103] Top shape: 10 64 321 321 (65946240)
I0114 22:16:31.434720 27402 layer_factory.hpp:78] Creating layer pool1
I0114 22:16:31.434728 27402 layer_factory.cpp:51] CUDNN does not support padding or multiple tops. Using Caffe's own pooling layer.
I0114 22:16:31.434736 27402 net.cpp:67] Creating Layer pool1
I0114 22:16:31.434741 27402 net.cpp:394] pool1 <- conv1_2
I0114 22:16:31.434798 27402 net.cpp:356] pool1 -> pool1
I0114 22:16:31.434813 27402 net.cpp:96] Setting up pool1
I0114 22:16:31.434847 27402 net.cpp:103] Top shape: 10 64 161 161 (16589440)
I0114 22:16:31.434862 27402 layer_factory.hpp:78] Creating layer conv2_1
I0114 22:16:31.434875 27402 net.cpp:67] Creating Layer conv2_1
I0114 22:16:31.434881 27402 net.cpp:394] conv2_1 <- pool1
I0114 22:16:31.434888 27402 net.cpp:356] conv2_1 -> conv2_1
I0114 22:16:31.434897 27402 net.cpp:96] Setting up conv2_1
I0114 22:16:31.444116 27402 net.cpp:103] Top shape: 10 128 161 161 (33178880)
I0114 22:16:31.444166 27402 layer_factory.hpp:78] Creating layer relu2_1
I0114 22:16:31.444186 27402 net.cpp:67] Creating Layer relu2_1
I0114 22:16:31.444195 27402 net.cpp:394] relu2_1 <- conv2_1
I0114 22:16:31.444205 27402 net.cpp:345] relu2_1 -> conv2_1 (in-place)
I0114 22:16:31.444216 27402 net.cpp:96] Setting up relu2_1
I0114 22:16:31.444229 27402 net.cpp:103] Top shape: 10 128 161 161 (33178880)
I0114 22:16:31.444236 27402 layer_factory.hpp:78] Creating layer conv2_2
I0114 22:16:31.444247 27402 net.cpp:67] Creating Layer conv2_2
I0114 22:16:31.444255 27402 net.cpp:394] conv2_2 <- conv2_1
I0114 22:16:31.444263 27402 net.cpp:356] conv2_2 -> conv2_2
I0114 22:16:31.444272 27402 net.cpp:96] Setting up conv2_2
I0114 22:16:31.446548 27402 net.cpp:103] Top shape: 10 128 161 161 (33178880)
I0114 22:16:31.446593 27402 layer_factory.hpp:78] Creating layer relu2_2
I0114 22:16:31.446609 27402 net.cpp:67] Creating Layer relu2_2
I0114 22:16:31.446615 27402 net.cpp:394] relu2_2 <- conv2_2
I0114 22:16:31.446625 27402 net.cpp:345] relu2_2 -> conv2_2 (in-place)
I0114 22:16:31.446635 27402 net.cpp:96] Setting up relu2_2
I0114 22:16:31.446648 27402 net.cpp:103] Top shape: 10 128 161 161 (33178880)
I0114 22:16:31.446655 27402 layer_factory.hpp:78] Creating layer pool2
I0114 22:16:31.446661 27402 layer_factory.cpp:51] CUDNN does not support padding or multiple tops. Using Caffe's own pooling layer.
I0114 22:16:31.446668 27402 net.cpp:67] Creating Layer pool2
I0114 22:16:31.446673 27402 net.cpp:394] pool2 <- conv2_2
I0114 22:16:31.446681 27402 net.cpp:356] pool2 -> pool2
I0114 22:16:31.446689 27402 net.cpp:96] Setting up pool2
I0114 22:16:31.446698 27402 net.cpp:103] Top shape: 10 128 81 81 (8398080)
I0114 22:16:31.446704 27402 layer_factory.hpp:78] Creating layer conv3_1
I0114 22:16:31.446715 27402 net.cpp:67] Creating Layer conv3_1
I0114 22:16:31.446720 27402 net.cpp:394] conv3_1 <- pool2
I0114 22:16:31.446728 27402 net.cpp:356] conv3_1 -> conv3_1
I0114 22:16:31.446736 27402 net.cpp:96] Setting up conv3_1
I0114 22:16:31.447857 27402 net.cpp:103] Top shape: 10 256 81 81 (16796160)
I0114 22:16:31.447892 27402 layer_factory.hpp:78] Creating layer relu3_1
I0114 22:16:31.447903 27402 net.cpp:67] Creating Layer relu3_1
I0114 22:16:31.447934 27402 net.cpp:394] relu3_1 <- conv3_1
I0114 22:16:31.447949 27402 net.cpp:345] relu3_1 -> conv3_1 (in-place)
I0114 22:16:31.447957 27402 net.cpp:96] Setting up relu3_1
I0114 22:16:31.447970 27402 net.cpp:103] Top shape: 10 256 81 81 (16796160)
I0114 22:16:31.447983 27402 layer_factory.hpp:78] Creating layer conv3_2
I0114 22:16:31.447994 27402 net.cpp:67] Creating Layer conv3_2
I0114 22:16:31.448000 27402 net.cpp:394] conv3_2 <- conv3_1
I0114 22:16:31.448007 27402 net.cpp:356] conv3_2 -> conv3_2
I0114 22:16:31.448019 27402 net.cpp:96] Setting up conv3_2
I0114 22:16:31.450107 27402 net.cpp:103] Top shape: 10 256 81 81 (16796160)
I0114 22:16:31.450146 27402 layer_factory.hpp:78] Creating layer relu3_2
I0114 22:16:31.450165 27402 net.cpp:67] Creating Layer relu3_2
I0114 22:16:31.450171 27402 net.cpp:394] relu3_2 <- conv3_2
I0114 22:16:31.450181 27402 net.cpp:345] relu3_2 -> conv3_2 (in-place)
I0114 22:16:31.450189 27402 net.cpp:96] Setting up relu3_2
I0114 22:16:31.450204 27402 net.cpp:103] Top shape: 10 256 81 81 (16796160)
I0114 22:16:31.450214 27402 layer_factory.hpp:78] Creating layer conv3_3
I0114 22:16:31.450227 27402 net.cpp:67] Creating Layer conv3_3
I0114 22:16:31.450232 27402 net.cpp:394] conv3_3 <- conv3_2
I0114 22:16:31.450239 27402 net.cpp:356] conv3_3 -> conv3_3
I0114 22:16:31.450294 27402 net.cpp:96] Setting up conv3_3
I0114 22:16:31.452530 27402 net.cpp:103] Top shape: 10 256 81 81 (16796160)
I0114 22:16:31.452564 27402 layer_factory.hpp:78] Creating layer relu3_3
I0114 22:16:31.452576 27402 net.cpp:67] Creating Layer relu3_3
I0114 22:16:31.452582 27402 net.cpp:394] relu3_3 <- conv3_3
I0114 22:16:31.452595 27402 net.cpp:345] relu3_3 -> conv3_3 (in-place)
I0114 22:16:31.452618 27402 net.cpp:96] Setting up relu3_3
I0114 22:16:31.452632 27402 net.cpp:103] Top shape: 10 256 81 81 (16796160)
I0114 22:16:31.452646 27402 layer_factory.hpp:78] Creating layer pool3
I0114 22:16:31.452653 27402 layer_factory.cpp:51] CUDNN does not support padding or multiple tops. Using Caffe's own pooling layer.
I0114 22:16:31.452661 27402 net.cpp:67] Creating Layer pool3
I0114 22:16:31.452667 27402 net.cpp:394] pool3 <- conv3_3
I0114 22:16:31.452674 27402 net.cpp:356] pool3 -> pool3
I0114 22:16:31.452684 27402 net.cpp:96] Setting up pool3
I0114 22:16:31.452693 27402 net.cpp:103] Top shape: 10 256 41 41 (4303360)
I0114 22:16:31.452708 27402 layer_factory.hpp:78] Creating layer conv4_1
I0114 22:16:31.452719 27402 net.cpp:67] Creating Layer conv4_1
I0114 22:16:31.452725 27402 net.cpp:394] conv4_1 <- pool3
I0114 22:16:31.452733 27402 net.cpp:356] conv4_1 -> conv4_1
I0114 22:16:31.452744 27402 net.cpp:96] Setting up conv4_1
I0114 22:16:31.459470 27402 net.cpp:103] Top shape: 10 512 41 41 (8606720)
I0114 22:16:31.459523 27402 layer_factory.hpp:78] Creating layer relu4_1
I0114 22:16:31.459540 27402 net.cpp:67] Creating Layer relu4_1
I0114 22:16:31.459547 27402 net.cpp:394] relu4_1 <- conv4_1
I0114 22:16:31.459559 27402 net.cpp:345] relu4_1 -> conv4_1 (in-place)
I0114 22:16:31.459574 27402 net.cpp:96] Setting up relu4_1
I0114 22:16:31.459589 27402 net.cpp:103] Top shape: 10 512 41 41 (8606720)
I0114 22:16:31.459599 27402 layer_factory.hpp:78] Creating layer conv4_2
I0114 22:16:31.459609 27402 net.cpp:67] Creating Layer conv4_2
I0114 22:16:31.459617 27402 net.cpp:394] conv4_2 <- conv4_1
I0114 22:16:31.459626 27402 net.cpp:356] conv4_2 -> conv4_2
I0114 22:16:31.459637 27402 net.cpp:96] Setting up conv4_2
I0114 22:16:31.464150 27402 net.cpp:103] Top shape: 10 512 41 41 (8606720)
I0114 22:16:31.464212 27402 layer_factory.hpp:78] Creating layer relu4_2
I0114 22:16:31.464234 27402 net.cpp:67] Creating Layer relu4_2
I0114 22:16:31.464242 27402 net.cpp:394] relu4_2 <- conv4_2
I0114 22:16:31.464254 27402 net.cpp:345] relu4_2 -> conv4_2 (in-place)
I0114 22:16:31.464264 27402 net.cpp:96] Setting up relu4_2
I0114 22:16:31.464277 27402 net.cpp:103] Top shape: 10 512 41 41 (8606720)
I0114 22:16:31.464284 27402 layer_factory.hpp:78] Creating layer conv4_3
I0114 22:16:31.464293 27402 net.cpp:67] Creating Layer conv4_3
I0114 22:16:31.464299 27402 net.cpp:394] conv4_3 <- conv4_2
I0114 22:16:31.464308 27402 net.cpp:356] conv4_3 -> conv4_3
I0114 22:16:31.464315 27402 net.cpp:96] Setting up conv4_3
I0114 22:16:31.469570 27402 net.cpp:103] Top shape: 10 512 41 41 (8606720)
I0114 22:16:31.469657 27402 layer_factory.hpp:78] Creating layer relu4_3
I0114 22:16:31.469676 27402 net.cpp:67] Creating Layer relu4_3
I0114 22:16:31.469684 27402 net.cpp:394] relu4_3 <- conv4_3
I0114 22:16:31.469696 27402 net.cpp:345] relu4_3 -> conv4_3 (in-place)
I0114 22:16:31.469705 27402 net.cpp:96] Setting up relu4_3
I0114 22:16:31.469728 27402 net.cpp:103] Top shape: 10 512 41 41 (8606720)
I0114 22:16:31.469735 27402 layer_factory.hpp:78] Creating layer pool4
I0114 22:16:31.469741 27402 layer_factory.cpp:51] CUDNN does not support padding or multiple tops. Using Caffe's own pooling layer.
I0114 22:16:31.469750 27402 net.cpp:67] Creating Layer pool4
I0114 22:16:31.469758 27402 net.cpp:394] pool4 <- conv4_3
I0114 22:16:31.469768 27402 net.cpp:356] pool4 -> pool4
I0114 22:16:31.469777 27402 net.cpp:96] Setting up pool4
I0114 22:16:31.469786 27402 net.cpp:103] Top shape: 10 512 41 41 (8606720)
I0114 22:16:31.469792 27402 layer_factory.hpp:78] Creating layer conv5_1
I0114 22:16:31.469805 27402 net.cpp:67] Creating Layer conv5_1
I0114 22:16:31.469858 27402 net.cpp:394] conv5_1 <- pool4
I0114 22:16:31.469869 27402 net.cpp:356] conv5_1 -> conv5_1
I0114 22:16:31.469878 27402 net.cpp:96] Setting up conv5_1
I0114 22:16:31.474709 27402 net.cpp:103] Top shape: 10 512 41 41 (8606720)
I0114 22:16:31.474763 27402 layer_factory.hpp:78] Creating layer relu5_1
I0114 22:16:31.474781 27402 net.cpp:67] Creating Layer relu5_1
I0114 22:16:31.474791 27402 net.cpp:394] relu5_1 <- conv5_1
I0114 22:16:31.474802 27402 net.cpp:345] relu5_1 -> conv5_1 (in-place)
I0114 22:16:31.474814 27402 net.cpp:96] Setting up relu5_1
I0114 22:16:31.474830 27402 net.cpp:103] Top shape: 10 512 41 41 (8606720)
I0114 22:16:31.474844 27402 layer_factory.hpp:78] Creating layer conv5_2
I0114 22:16:31.474854 27402 net.cpp:67] Creating Layer conv5_2
I0114 22:16:31.474859 27402 net.cpp:394] conv5_2 <- conv5_1
I0114 22:16:31.474867 27402 net.cpp:356] conv5_2 -> conv5_2
I0114 22:16:31.474876 27402 net.cpp:96] Setting up conv5_2
I0114 22:16:31.479157 27402 net.cpp:103] Top shape: 10 512 41 41 (8606720)
I0114 22:16:31.479207 27402 layer_factory.hpp:78] Creating layer relu5_2
I0114 22:16:31.479223 27402 net.cpp:67] Creating Layer relu5_2
I0114 22:16:31.479231 27402 net.cpp:394] relu5_2 <- conv5_2
I0114 22:16:31.479243 27402 net.cpp:345] relu5_2 -> conv5_2 (in-place)
I0114 22:16:31.479254 27402 net.cpp:96] Setting up relu5_2
I0114 22:16:31.479286 27402 net.cpp:103] Top shape: 10 512 41 41 (8606720)
I0114 22:16:31.479301 27402 layer_factory.hpp:78] Creating layer conv5_3
I0114 22:16:31.479312 27402 net.cpp:67] Creating Layer conv5_3
I0114 22:16:31.479317 27402 net.cpp:394] conv5_3 <- conv5_2
I0114 22:16:31.479326 27402 net.cpp:356] conv5_3 -> conv5_3
I0114 22:16:31.479334 27402 net.cpp:96] Setting up conv5_3
I0114 22:16:31.497117 27402 net.cpp:103] Top shape: 10 512 41 41 (8606720)
I0114 22:16:31.497174 27402 layer_factory.hpp:78] Creating layer relu5_3
I0114 22:16:31.497200 27402 net.cpp:67] Creating Layer relu5_3
I0114 22:16:31.497208 27402 net.cpp:394] relu5_3 <- conv5_3
I0114 22:16:31.497220 27402 net.cpp:345] relu5_3 -> conv5_3 (in-place)
I0114 22:16:31.497231 27402 net.cpp:96] Setting up relu5_3
I0114 22:16:31.497251 27402 net.cpp:103] Top shape: 10 512 41 41 (8606720)
I0114 22:16:31.497265 27402 layer_factory.hpp:78] Creating layer pool5
I0114 22:16:31.497273 27402 layer_factory.cpp:51] CUDNN does not support padding or multiple tops. Using Caffe's own pooling layer.
I0114 22:16:31.497282 27402 net.cpp:67] Creating Layer pool5
I0114 22:16:31.497287 27402 net.cpp:394] pool5 <- conv5_3
I0114 22:16:31.497295 27402 net.cpp:356] pool5 -> pool5
I0114 22:16:31.497304 27402 net.cpp:96] Setting up pool5
I0114 22:16:31.497313 27402 net.cpp:103] Top shape: 10 512 41 41 (8606720)
I0114 22:16:31.497319 27402 layer_factory.hpp:78] Creating layer fc6
I0114 22:16:31.497333 27402 net.cpp:67] Creating Layer fc6
I0114 22:16:31.497339 27402 net.cpp:394] fc6 <- pool5
I0114 22:16:31.497345 27402 net.cpp:356] fc6 -> fc6
I0114 22:16:31.497354 27402 net.cpp:96] Setting up fc6
I0114 22:16:31.551899 27402 net.cpp:103] Top shape: 10 4096 41 41 (68853760)
I0114 22:16:31.551955 27402 layer_factory.hpp:78] Creating layer relu6
I0114 22:16:31.551975 27402 net.cpp:67] Creating Layer relu6
I0114 22:16:31.551983 27402 net.cpp:394] relu6 <- fc6
I0114 22:16:31.551998 27402 net.cpp:345] relu6 -> fc6 (in-place)
I0114 22:16:31.552009 27402 net.cpp:96] Setting up relu6
I0114 22:16:31.552022 27402 net.cpp:103] Top shape: 10 4096 41 41 (68853760)
I0114 22:16:31.552028 27402 layer_factory.hpp:78] Creating layer drop6
I0114 22:16:31.552050 27402 net.cpp:67] Creating Layer drop6
I0114 22:16:31.552062 27402 net.cpp:394] drop6 <- fc6
I0114 22:16:31.552069 27402 net.cpp:345] drop6 -> fc6 (in-place)
I0114 22:16:31.552076 27402 net.cpp:96] Setting up drop6
I0114 22:16:31.552086 27402 net.cpp:103] Top shape: 10 4096 41 41 (68853760)
I0114 22:16:31.552093 27402 layer_factory.hpp:78] Creating layer fc7
I0114 22:16:31.552104 27402 net.cpp:67] Creating Layer fc7
I0114 22:16:31.552110 27402 net.cpp:394] fc7 <- fc6
I0114 22:16:31.552117 27402 net.cpp:356] fc7 -> fc7
I0114 22:16:31.552167 27402 net.cpp:96] Setting up fc7
I0114 22:16:31.590149 27402 net.cpp:103] Top shape: 10 4096 41 41 (68853760)
I0114 22:16:31.590224 27402 layer_factory.hpp:78] Creating layer relu7
I0114 22:16:31.590250 27402 net.cpp:67] Creating Layer relu7
I0114 22:16:31.590265 27402 net.cpp:394] relu7 <- fc7
I0114 22:16:31.590281 27402 net.cpp:345] relu7 -> fc7 (in-place)
I0114 22:16:31.590293 27402 net.cpp:96] Setting up relu7
I0114 22:16:31.590311 27402 net.cpp:103] Top shape: 10 4096 41 41 (68853760)
I0114 22:16:31.590324 27402 layer_factory.hpp:78] Creating layer drop7
I0114 22:16:31.590332 27402 net.cpp:67] Creating Layer drop7
I0114 22:16:31.590338 27402 net.cpp:394] drop7 <- fc7
I0114 22:16:31.590348 27402 net.cpp:345] drop7 -> fc7 (in-place)
I0114 22:16:31.590363 27402 net.cpp:96] Setting up drop7
I0114 22:16:31.590370 27402 net.cpp:103] Top shape: 10 4096 41 41 (68853760)
I0114 22:16:31.590376 27402 layer_factory.hpp:78] Creating layer fc8_weak2
I0114 22:16:31.590390 27402 net.cpp:67] Creating Layer fc8_weak2
I0114 22:16:31.590401 27402 net.cpp:394] fc8_weak2 <- fc7
I0114 22:16:31.590410 27402 net.cpp:356] fc8_weak2 -> fc8_weak2
I0114 22:16:31.590422 27402 net.cpp:96] Setting up fc8_weak2
I0114 22:16:31.593067 27402 net.cpp:103] Top shape: 10 21 41 41 (353010)
I0114 22:16:31.593124 27402 layer_factory.hpp:78] Creating layer fc8_weak2_fc8_weak2_0_split
I0114 22:16:31.593145 27402 net.cpp:67] Creating Layer fc8_weak2_fc8_weak2_0_split
I0114 22:16:31.593153 27402 net.cpp:394] fc8_weak2_fc8_weak2_0_split <- fc8_weak2
I0114 22:16:31.593169 27402 net.cpp:356] fc8_weak2_fc8_weak2_0_split -> fc8_weak2_fc8_weak2_0_split_0
I0114 22:16:31.593197 27402 net.cpp:356] fc8_weak2_fc8_weak2_0_split -> fc8_weak2_fc8_weak2_0_split_1
I0114 22:16:31.593207 27402 net.cpp:356] fc8_weak2_fc8_weak2_0_split -> fc8_weak2_fc8_weak2_0_split_2
I0114 22:16:31.593219 27402 net.cpp:96] Setting up fc8_weak2_fc8_weak2_0_split
I0114 22:16:31.593230 27402 net.cpp:103] Top shape: 10 21 41 41 (353010)
I0114 22:16:31.593236 27402 net.cpp:103] Top shape: 10 21 41 41 (353010)
I0114 22:16:31.593241 27402 net.cpp:103] Top shape: 10 21 41 41 (353010)
I0114 22:16:31.593247 27402 layer_factory.hpp:78] Creating layer fc8_biased
I0114 22:16:31.593258 27402 net.cpp:67] Creating Layer fc8_biased
I0114 22:16:31.593276 27402 net.cpp:394] fc8_biased <- fc8_weak2_fc8_weak2_0_split_0
I0114 22:16:31.593286 27402 net.cpp:394] fc8_biased <- label_weak
I0114 22:16:31.593298 27402 net.cpp:356] fc8_biased -> fc8_biased
I0114 22:16:31.593307 27402 net.cpp:96] Setting up fc8_biased
I0114 22:16:31.593314 27402 net.cpp:103] Top shape: 10 21 41 41 (353010)
I0114 22:16:31.593320 27402 layer_factory.hpp:78] Creating layer label_estep
I0114 22:16:31.593330 27402 net.cpp:67] Creating Layer label_estep
I0114 22:16:31.593339 27402 net.cpp:394] label_estep <- fc8_biased
I0114 22:16:31.593348 27402 net.cpp:356] label_estep -> label_estep
I0114 22:16:31.593354 27402 net.cpp:96] Setting up label_estep
I0114 22:16:31.593363 27402 net.cpp:103] Top shape: 10 1 41 41 (16810)
I0114 22:16:31.593369 27402 layer_factory.hpp:78] Creating layer loss
I0114 22:16:31.593387 27402 net.cpp:67] Creating Layer loss
I0114 22:16:31.593399 27402 net.cpp:394] loss <- fc8_weak2_fc8_weak2_0_split_1
I0114 22:16:31.593406 27402 net.cpp:394] loss <- label_estep
I0114 22:16:31.593417 27402 net.cpp:356] loss -> (automatic)
I0114 22:16:31.593433 27402 net.cpp:96] Setting up loss
I0114 22:16:31.593451 27402 softmax_loss_layer.cpp:40] Weight_Loss file is not provided. Assign all one to it.
I0114 22:16:31.593461 27402 net.cpp:103] Top shape: 1 1 1 1 (1)
I0114 22:16:31.593466 27402 net.cpp:109]     with loss weight 1
I0114 22:16:31.593505 27402 layer_factory.hpp:78] Creating layer label_shrink
I0114 22:16:31.593519 27402 net.cpp:67] Creating Layer label_shrink
I0114 22:16:31.593525 27402 net.cpp:394] label_shrink <- label_strong_data_1_split_1
I0114 22:16:31.593533 27402 net.cpp:356] label_shrink -> label_shrink
I0114 22:16:31.593544 27402 net.cpp:96] Setting up label_shrink
I0114 22:16:31.593551 27402 net.cpp:103] Top shape: 10 1 41 41 (16810)
I0114 22:16:31.593600 27402 layer_factory.hpp:78] Creating layer accuracy
I0114 22:16:31.593612 27402 net.cpp:67] Creating Layer accuracy
I0114 22:16:31.593617 27402 net.cpp:394] accuracy <- fc8_weak2_fc8_weak2_0_split_2
I0114 22:16:31.593624 27402 net.cpp:394] accuracy <- label_shrink
I0114 22:16:31.593632 27402 net.cpp:356] accuracy -> accuracy
I0114 22:16:31.593643 27402 net.cpp:96] Setting up accuracy
I0114 22:16:31.593658 27402 net.cpp:103] Top shape: 1 1 1 3 (3)
I0114 22:16:31.593672 27402 net.cpp:172] accuracy does not need backward computation.
I0114 22:16:31.593678 27402 net.cpp:172] label_shrink does not need backward computation.
I0114 22:16:31.593684 27402 net.cpp:170] loss needs backward computation.
I0114 22:16:31.593690 27402 net.cpp:170] label_estep needs backward computation.
I0114 22:16:31.593695 27402 net.cpp:170] fc8_biased needs backward computation.
…
