…
I0110 08:53:34.209651 50502 solver.cpp:58] Creating training net from train_net file: weak2/config/adapt/train_train.prototxt
I0110 08:53:34.210423 50502 net.cpp:39] Initializing net from parameters: 
name: "adapt"
layers {
  top: "data"
  top: "label_strong"
  name: "data"
  type: IMAGE_SEG_DATA
  image_data_param {
    source: "weak2/list/train.txt"
    batch_size: 10
    shuffle: true
    root_folder: "/home/zhangzhengqiang/git/deeplab-public//data/pascal/VOCdevkit/VOC2012"
    label_type: PIXEL
  }
  include {
    phase: TRAIN
  }
  transform_param {
    mirror: true
    crop_size: 321
    mean_value: 104.008
    mean_value: 116.669
    mean_value: 122.675
  }
}
layers {
  bottom: "label_strong"
  top: "label_weak"
  name: "label_weak"
  type: UNIQUE_LABEL
  include {
    phase: TRAIN
  }
  unique_label_param {
    max_labels: 10
    ignore_label: 255
  }
}
layers {
  bottom: "data"
  top: "conv1_1"
  name: "conv1_1"
  type: CONVOLUTION
  blobs_lr: 1
  blobs_lr: 2
  weight_decay: 1
  weight_decay: 0
  convolution_param {
    num_output: 64
    pad: 1
    kernel_size: 3
  }
}
layers {
  bottom: "conv1_1"
  top: "conv1_1"
  name: "relu1_1"
  type: RELU
}
layers {
  bottom: "conv1_1"
  top: "conv1_2"
  name: "conv1_2"
  type: CONVOLUTION
  blobs_lr: 1
  blobs_lr: 2
  weight_decay: 1
  weight_decay: 0
  convolution_param {
    num_output: 64
    pad: 1
    kernel_size: 3
  }
}
layers {
  bottom: "conv1_2"
  top: "conv1_2"
  name: "relu1_2"
  type: RELU
}
layers {
  bottom: "conv1_2"
  top: "pool1"
  name: "pool1"
  type: POOLING
  pooling_param {
    pool: MAX
    kernel_size: 3
    stride: 2
    pad: 1
  }
}
layers {
  bottom: "pool1"
  top: "conv2_1"
  name: "conv2_1"
  type: CONVOLUTION
  blobs_lr: 1
  blobs_lr: 2
  weight_decay: 1
  weight_decay: 0
  convolution_param {
    num_output: 128
    pad: 1
    kernel_size: 3
  }
}
layers {
  bottom: "conv2_1"
  top: "conv2_1"
  name: "relu2_1"
  type: RELU
}
layers {
  bottom: "conv2_1"
  top: "conv2_2"
  name: "conv2_2"
  type: CONVOLUTION
  blobs_lr: 1
  blobs_lr: 2
  weight_decay: 1
  weight_decay: 0
  convolution_param {
    num_output: 128
    pad: 1
    kernel_size: 3
  }
}
layers {
  bottom: "conv2_2"
  top: "conv2_2"
  name: "relu2_2"
  type: RELU
}
layers {
  bottom: "conv2_2"
  top: "pool2"
  name: "pool2"
  type: POOLING
  pooling_param {
    pool: MAX
    kernel_size: 3
    stride: 2
    pad: 1
  }
}
layers {
  bottom: "pool2"
  top: "conv3_1"
  name: "conv3_1"
  type: CONVOLUTION
  blobs_lr: 1
  blobs_lr: 2
  weight_decay: 1
  weight_decay: 0
  convolution_param {
    num_output: 256
    pad: 1
    kernel_size: 3
  }
}
layers {
  bottom: "conv3_1"
  top: "conv3_1"
  name: "relu3_1"
  type: RELU
}
layers {
  bottom: "conv3_1"
  top: "conv3_2"
  name: "conv3_2"
  type: CONVOLUTION
  blobs_lr: 1
  blobs_lr: 2
  weight_decay: 1
  weight_decay: 0
  convolution_param {
    num_output: 256
    pad: 1
    kernel_size: 3
  }
}
layers {
  bottom: "conv3_2"
  top: "conv3_2"
  name: "relu3_2"
  type: RELU
}
layers {
  bottom: "conv3_2"
  top: "conv3_3"
  name: "conv3_3"
  type: CONVOLUTION
  blobs_lr: 1
  blobs_lr: 2
  weight_decay: 1
  weight_decay: 0
  convolution_param {
    num_output: 256
    pad: 1
    kernel_size: 3
  }
}
layers {
  bottom: "conv3_3"
  top: "conv3_3"
  name: "relu3_3"
  type: RELU
}
layers {
  bottom: "conv3_3"
  top: "pool3"
  name: "pool3"
  type: POOLING
  pooling_param {
    pool: MAX
    kernel_size: 3
    stride: 2
    pad: 1
  }
}
layers {
  bottom: "pool3"
  top: "conv4_1"
  name: "conv4_1"
  type: CONVOLUTION
  blobs_lr: 1
  blobs_lr: 2
  weight_decay: 1
  weight_decay: 0
  convolution_param {
    num_output: 512
    pad: 1
    kernel_size: 3
  }
}
layers {
  bottom: "conv4_1"
  top: "conv4_1"
  name: "relu4_1"
  type: RELU
}
layers {
  bottom: "conv4_1"
  top: "conv4_2"
  name: "conv4_2"
  type: CONVOLUTION
  blobs_lr: 1
  blobs_lr: 2
  weight_decay: 1
  weight_decay: 0
  convolution_param {
    num_output: 512
    pad: 1
    kernel_size: 3
  }
}
layers {
  bottom: "conv4_2"
  top: "conv4_2"
  name: "relu4_2"
  type: RELU
}
layers {
  bottom: "conv4_2"
  top: "conv4_3"
  name: "conv4_3"
  type: CONVOLUTION
  blobs_lr: 1
  blobs_lr: 2
  weight_decay: 1
  weight_decay: 0
  convolution_param {
    num_output: 512
    pad: 1
    kernel_size: 3
  }
}
layers {
  bottom: "conv4_3"
  top: "conv4_3"
  name: "relu4_3"
  type: RELU
}
layers {
  bottom: "conv4_3"
  top: "pool4"
  name: "pool4"
  type: POOLING
  pooling_param {
    pool: MAX
    kernel_size: 3
    stride: 1
    pad: 1
  }
}
layers {
  bottom: "pool4"
  top: "conv5_1"
  name: "conv5_1"
  type: CONVOLUTION
  blobs_lr: 1
  blobs_lr: 2
  weight_decay: 1
  weight_decay: 0
  convolution_param {
    num_output: 512
    pad: 2
    kernel_size: 3
    hole: 2
  }
}
layers {
  bottom: "conv5_1"
  top: "conv5_1"
  name: "relu5_1"
  type: RELU
}
layers {
  bottom: "conv5_1"
  top: "conv5_2"
  name: "conv5_2"
  type: CONVOLUTION
  blobs_lr: 1
  blobs_lr: 2
  weight_decay: 1
  weight_decay: 0
  convolution_param {
    num_output: 512
    pad: 2
    kernel_size: 3
    hole: 2
  }
}
layers {
  bottom: "conv5_2"
  top: "conv5_2"
  name: "relu5_2"
  type: RELU
}
layers {
  bottom: "conv5_2"
  top: "conv5_3"
  name: "conv5_3"
  type: CONVOLUTION
  blobs_lr: 1
  blobs_lr: 2
  weight_decay: 1
  weight_decay: 0
  convolution_param {
    num_output: 512
    pad: 2
    kernel_size: 3
    hole: 2
  }
}
layers {
  bottom: "conv5_3"
  top: "conv5_3"
  name: "relu5_3"
  type: RELU
}
layers {
  bottom: "conv5_3"
  top: "pool5"
  name: "pool5"
  type: POOLING
  pooling_param {
    pool: MAX
    kernel_size: 3
    stride: 1
    pad: 1
  }
}
layers {
  bottom: "pool5"
  top: "fc6"
  name: "fc6"
  type: CONVOLUTION
  blobs_lr: 1
  blobs_lr: 2
  weight_decay: 1
  weight_decay: 0
  convolution_param {
    num_output: 4096
    pad: 6
    kernel_size: 4
    hole: 4
  }
  strict_dim: false
}
layers {
  bottom: "fc6"
  top: "fc6"
  name: "relu6"
  type: RELU
}
layers {
  bottom: "fc6"
  top: "fc6"
  name: "drop6"
  type: DROPOUT
  dropout_param {
    dropout_ratio: 0.5
  }
}
layers {
  bottom: "fc6"
  top: "fc7"
  name: "fc7"
  type: CONVOLUTION
  blobs_lr: 1
  blobs_lr: 2
  weight_decay: 1
  weight_decay: 0
  convolution_param {
    num_output: 4096
    kernel_size: 1
  }
  strict_dim: false
}
layers {
  bottom: "fc7"
  top: "fc7"
  name: "relu7"
  type: RELU
}
layers {
  bottom: "fc7"
  top: "fc7"
  name: "drop7"
  type: DROPOUT
  dropout_param {
    dropout_ratio: 0.5
  }
}
layers {
  bottom: "fc7"
  top: "fc8_weak2"
  name: "fc8_weak2"
  type: CONVOLUTION
  blobs_lr: 1
  blobs_lr: 2
  weight_decay: 1
  weight_decay: 0
  convolution_param {
    num_output: 21
    kernel_size: 1
    weight_filler {
      type: "gaussian"
      std: 0.01
    }
    bias_filler {
      type: "constant"
      value: 0
    }
  }
  strict_dim: false
}
layers {
  bottom: "fc8_weak2"
  bottom: "label_weak"
  top: "fc8_biased"
  name: "fc8_biased"
  type: ADAPTIVE_BIAS_CHANNEL
  adaptive_bias_channel_param {
    num_iter: 5
    bg_portion: 0.4
    fg_portion: 0.2
    suppress_others: true
    margin_others: 1e-05
  }
}
layers {
  bottom: "fc8_biased"
  top: "label_estep"
  name: "label_estep"
  type: ARGMAX
  argmax_param {
    out_max_val: false
    top_k: 1
  }
}
layers {
  bottom: "fc8_weak2"
  bottom: "label_estep"
  name: "loss"
  type: SOFTMAX_LOSS
  include {
    phase: TRAIN
  }
  softmaxloss_param {
    ignore_label: 255
  }
}
layers {
  bottom: "label_strong"
  top: "label_shrink"
  name: "label_shrink"
  type: INTERP
  interp_param {
    shrink_factor: 8
    pad_beg: 0
    pad_end: 0
  }
}
layers {
  bottom: "fc8_weak2"
  bottom: "label_shrink"
  top: "accuracy"
  name: "accuracy"
  type: SEG_ACCURACY
  seg_accuracy_param {
    ignore_label: 255
  }
}
state {
  phase: TRAIN
}
I0110 08:53:34.210675 50502 layer_factory.hpp:78] Creating layer data
I0110 08:53:34.210710 50502 net.cpp:67] Creating Layer data
I0110 08:53:34.210716 50502 net.cpp:356] data -> data
I0110 08:53:34.210733 50502 net.cpp:356] data -> label_strong
I0110 08:53:34.210746 50502 net.cpp:356] data -> (automatic)
I0110 08:53:34.210749 50502 net.cpp:96] Setting up data
I0110 08:53:34.210754 50502 image_seg_data_layer.cpp:45] Opening file weak2/list/train.txt
I0110 08:53:34.212270 50502 image_seg_data_layer.cpp:62] Shuffling data
I0110 08:53:34.212368 50502 image_seg_data_layer.cpp:67] A total of 1464 images.
I0110 08:53:34.241585 50502 image_seg_data_layer.cpp:113] output data size: 10,3,321,321
I0110 08:53:34.241606 50502 image_seg_data_layer.cpp:117] output label size: 10,1,321,321
I0110 08:53:34.241611 50502 image_seg_data_layer.cpp:121] output data_dim size: 10,1,1,2
I0110 08:53:34.241809 50502 net.cpp:103] Top shape: 10 3 321 321 (3091230)
I0110 08:53:34.241827 50502 net.cpp:103] Top shape: 10 1 321 321 (1030410)
I0110 08:53:34.241832 50502 net.cpp:103] Top shape: 10 1 1 2 (20)
I0110 08:53:34.241835 50502 layer_factory.hpp:78] Creating layer label_strong_data_1_split
I0110 08:53:34.241848 50502 net.cpp:67] Creating Layer label_strong_data_1_split
I0110 08:53:34.241853 50502 net.cpp:394] label_strong_data_1_split <- label_strong
I0110 08:53:34.241868 50502 net.cpp:356] label_strong_data_1_split -> label_strong_data_1_split_0
I0110 08:53:34.241876 50502 net.cpp:356] label_strong_data_1_split -> label_strong_data_1_split_1
I0110 08:53:34.241884 50502 net.cpp:96] Setting up label_strong_data_1_split
I0110 08:53:34.241889 50502 net.cpp:103] Top shape: 10 1 321 321 (1030410)
I0110 08:53:34.241892 50502 net.cpp:103] Top shape: 10 1 321 321 (1030410)
I0110 08:53:34.241896 50502 layer_factory.hpp:78] Creating layer label_weak
I0110 08:53:34.241904 50502 net.cpp:67] Creating Layer label_weak
I0110 08:53:34.241906 50502 net.cpp:394] label_weak <- label_strong_data_1_split_0
I0110 08:53:34.241911 50502 net.cpp:356] label_weak -> label_weak
I0110 08:53:34.241916 50502 net.cpp:96] Setting up label_weak
I0110 08:53:34.241921 50502 net.cpp:103] Top shape: 10 10 1 1 (100)
I0110 08:53:34.241925 50502 layer_factory.hpp:78] Creating layer conv1_1
I0110 08:53:34.241930 50502 net.cpp:67] Creating Layer conv1_1
I0110 08:53:34.241933 50502 net.cpp:394] conv1_1 <- data
I0110 08:53:34.241938 50502 net.cpp:356] conv1_1 -> conv1_1
I0110 08:53:34.241943 50502 net.cpp:96] Setting up conv1_1
I0110 08:53:34.536139 50502 net.cpp:103] Top shape: 10 64 321 321 (65946240)
I0110 08:53:34.536197 50502 layer_factory.hpp:78] Creating layer relu1_1
I0110 08:53:34.536214 50502 net.cpp:67] Creating Layer relu1_1
I0110 08:53:34.536219 50502 net.cpp:394] relu1_1 <- conv1_1
I0110 08:53:34.536228 50502 net.cpp:345] relu1_1 -> conv1_1 (in-place)
I0110 08:53:34.536237 50502 net.cpp:96] Setting up relu1_1
I0110 08:53:34.536257 50502 net.cpp:103] Top shape: 10 64 321 321 (65946240)
I0110 08:53:34.536262 50502 layer_factory.hpp:78] Creating layer conv1_2
I0110 08:53:34.536272 50502 net.cpp:67] Creating Layer conv1_2
I0110 08:53:34.536275 50502 net.cpp:394] conv1_2 <- conv1_1
I0110 08:53:34.536279 50502 net.cpp:356] conv1_2 -> conv1_2
I0110 08:53:34.536285 50502 net.cpp:96] Setting up conv1_2
I0110 08:53:34.536736 50502 net.cpp:103] Top shape: 10 64 321 321 (65946240)
I0110 08:53:34.536764 50502 layer_factory.hpp:78] Creating layer relu1_2
I0110 08:53:34.536770 50502 net.cpp:67] Creating Layer relu1_2
I0110 08:53:34.536774 50502 net.cpp:394] relu1_2 <- conv1_2
I0110 08:53:34.536779 50502 net.cpp:345] relu1_2 -> conv1_2 (in-place)
I0110 08:53:34.536784 50502 net.cpp:96] Setting up relu1_2
I0110 08:53:34.536795 50502 net.cpp:103] Top shape: 10 64 321 321 (65946240)
I0110 08:53:34.536798 50502 layer_factory.hpp:78] Creating layer pool1
I0110 08:53:34.536803 50502 layer_factory.cpp:51] CUDNN does not support padding or multiple tops. Using Caffe's own pooling layer.
I0110 08:53:34.536810 50502 net.cpp:67] Creating Layer pool1
I0110 08:53:34.536814 50502 net.cpp:394] pool1 <- conv1_2
I0110 08:53:34.536849 50502 net.cpp:356] pool1 -> pool1
I0110 08:53:34.536855 50502 net.cpp:96] Setting up pool1
I0110 08:53:34.536869 50502 net.cpp:103] Top shape: 10 64 161 161 (16589440)
I0110 08:53:34.536872 50502 layer_factory.hpp:78] Creating layer conv2_1
I0110 08:53:34.536880 50502 net.cpp:67] Creating Layer conv2_1
I0110 08:53:34.536885 50502 net.cpp:394] conv2_1 <- pool1
I0110 08:53:34.536888 50502 net.cpp:356] conv2_1 -> conv2_1
I0110 08:53:34.536895 50502 net.cpp:96] Setting up conv2_1
I0110 08:53:34.538177 50502 net.cpp:103] Top shape: 10 128 161 161 (33178880)
I0110 08:53:34.538202 50502 layer_factory.hpp:78] Creating layer relu2_1
I0110 08:53:34.538208 50502 net.cpp:67] Creating Layer relu2_1
I0110 08:53:34.538213 50502 net.cpp:394] relu2_1 <- conv2_1
I0110 08:53:34.538221 50502 net.cpp:345] relu2_1 -> conv2_1 (in-place)
I0110 08:53:34.538228 50502 net.cpp:96] Setting up relu2_1
I0110 08:53:34.538235 50502 net.cpp:103] Top shape: 10 128 161 161 (33178880)
I0110 08:53:34.538239 50502 layer_factory.hpp:78] Creating layer conv2_2
I0110 08:53:34.538244 50502 net.cpp:67] Creating Layer conv2_2
I0110 08:53:34.538247 50502 net.cpp:394] conv2_2 <- conv2_1
I0110 08:53:34.538252 50502 net.cpp:356] conv2_2 -> conv2_2
I0110 08:53:34.538259 50502 net.cpp:96] Setting up conv2_2
I0110 08:53:34.538802 50502 net.cpp:103] Top shape: 10 128 161 161 (33178880)
I0110 08:53:34.538821 50502 layer_factory.hpp:78] Creating layer relu2_2
I0110 08:53:34.538828 50502 net.cpp:67] Creating Layer relu2_2
I0110 08:53:34.538831 50502 net.cpp:394] relu2_2 <- conv2_2
I0110 08:53:34.538839 50502 net.cpp:345] relu2_2 -> conv2_2 (in-place)
I0110 08:53:34.538844 50502 net.cpp:96] Setting up relu2_2
I0110 08:53:34.538853 50502 net.cpp:103] Top shape: 10 128 161 161 (33178880)
I0110 08:53:34.538856 50502 layer_factory.hpp:78] Creating layer pool2
I0110 08:53:34.538861 50502 layer_factory.cpp:51] CUDNN does not support padding or multiple tops. Using Caffe's own pooling layer.
I0110 08:53:34.538866 50502 net.cpp:67] Creating Layer pool2
I0110 08:53:34.538868 50502 net.cpp:394] pool2 <- conv2_2
I0110 08:53:34.538908 50502 net.cpp:356] pool2 -> pool2
I0110 08:53:34.538919 50502 net.cpp:96] Setting up pool2
I0110 08:53:34.538924 50502 net.cpp:103] Top shape: 10 128 81 81 (8398080)
I0110 08:53:34.538928 50502 layer_factory.hpp:78] Creating layer conv3_1
I0110 08:53:34.538938 50502 net.cpp:67] Creating Layer conv3_1
I0110 08:53:34.538942 50502 net.cpp:394] conv3_1 <- pool2
I0110 08:53:34.538946 50502 net.cpp:356] conv3_1 -> conv3_1
I0110 08:53:34.538951 50502 net.cpp:96] Setting up conv3_1
I0110 08:53:34.539826 50502 net.cpp:103] Top shape: 10 256 81 81 (16796160)
I0110 08:53:34.539847 50502 layer_factory.hpp:78] Creating layer relu3_1
I0110 08:53:34.539855 50502 net.cpp:67] Creating Layer relu3_1
I0110 08:53:34.539860 50502 net.cpp:394] relu3_1 <- conv3_1
I0110 08:53:34.539865 50502 net.cpp:345] relu3_1 -> conv3_1 (in-place)
I0110 08:53:34.539868 50502 net.cpp:96] Setting up relu3_1
I0110 08:53:34.539906 50502 net.cpp:103] Top shape: 10 256 81 81 (16796160)
I0110 08:53:34.539913 50502 layer_factory.hpp:78] Creating layer conv3_2
I0110 08:53:34.539921 50502 net.cpp:67] Creating Layer conv3_2
I0110 08:53:34.539925 50502 net.cpp:394] conv3_2 <- conv3_1
I0110 08:53:34.539930 50502 net.cpp:356] conv3_2 -> conv3_2
I0110 08:53:34.539935 50502 net.cpp:96] Setting up conv3_2
I0110 08:53:34.541458 50502 net.cpp:103] Top shape: 10 256 81 81 (16796160)
I0110 08:53:34.541476 50502 layer_factory.hpp:78] Creating layer relu3_2
I0110 08:53:34.541487 50502 net.cpp:67] Creating Layer relu3_2
I0110 08:53:34.554858 50502 net.cpp:394] relu3_2 <- conv3_2
I0110 08:53:34.554872 50502 net.cpp:345] relu3_2 -> conv3_2 (in-place)
I0110 08:53:34.554879 50502 net.cpp:96] Setting up relu3_2
I0110 08:53:34.554891 50502 net.cpp:103] Top shape: 10 256 81 81 (16796160)
I0110 08:53:34.554895 50502 layer_factory.hpp:78] Creating layer conv3_3
I0110 08:53:34.554908 50502 net.cpp:67] Creating Layer conv3_3
I0110 08:53:34.554911 50502 net.cpp:394] conv3_3 <- conv3_2
I0110 08:53:34.554915 50502 net.cpp:356] conv3_3 -> conv3_3
I0110 08:53:34.554949 50502 net.cpp:96] Setting up conv3_3
I0110 08:53:34.556381 50502 net.cpp:103] Top shape: 10 256 81 81 (16796160)
I0110 08:53:34.556403 50502 layer_factory.hpp:78] Creating layer relu3_3
I0110 08:53:34.556411 50502 net.cpp:67] Creating Layer relu3_3
I0110 08:53:34.556413 50502 net.cpp:394] relu3_3 <- conv3_3
I0110 08:53:34.556419 50502 net.cpp:345] relu3_3 -> conv3_3 (in-place)
I0110 08:53:34.556423 50502 net.cpp:96] Setting up relu3_3
I0110 08:53:34.556432 50502 net.cpp:103] Top shape: 10 256 81 81 (16796160)
I0110 08:53:34.556437 50502 layer_factory.hpp:78] Creating layer pool3
I0110 08:53:34.556439 50502 layer_factory.cpp:51] CUDNN does not support padding or multiple tops. Using Caffe's own pooling layer.
I0110 08:53:34.556444 50502 net.cpp:67] Creating Layer pool3
I0110 08:53:34.556447 50502 net.cpp:394] pool3 <- conv3_3
I0110 08:53:34.556455 50502 net.cpp:356] pool3 -> pool3
I0110 08:53:34.556460 50502 net.cpp:96] Setting up pool3
I0110 08:53:34.556465 50502 net.cpp:103] Top shape: 10 256 41 41 (4303360)
I0110 08:53:34.556468 50502 layer_factory.hpp:78] Creating layer conv4_1
I0110 08:53:34.556475 50502 net.cpp:67] Creating Layer conv4_1
I0110 08:53:34.556479 50502 net.cpp:394] conv4_1 <- pool3
I0110 08:53:34.556483 50502 net.cpp:356] conv4_1 -> conv4_1
I0110 08:53:34.556489 50502 net.cpp:96] Setting up conv4_1
I0110 08:53:34.562646 50502 net.cpp:103] Top shape: 10 512 41 41 (8606720)
I0110 08:53:34.562670 50502 layer_factory.hpp:78] Creating layer relu4_1
I0110 08:53:34.562677 50502 net.cpp:67] Creating Layer relu4_1
I0110 08:53:34.562681 50502 net.cpp:394] relu4_1 <- conv4_1
I0110 08:53:34.562686 50502 net.cpp:345] relu4_1 -> conv4_1 (in-place)
I0110 08:53:34.562692 50502 net.cpp:96] Setting up relu4_1
I0110 08:53:34.562705 50502 net.cpp:103] Top shape: 10 512 41 41 (8606720)
I0110 08:53:34.562707 50502 layer_factory.hpp:78] Creating layer conv4_2
I0110 08:53:34.562716 50502 net.cpp:67] Creating Layer conv4_2
I0110 08:53:34.562718 50502 net.cpp:394] conv4_2 <- conv4_1
I0110 08:53:34.562723 50502 net.cpp:356] conv4_2 -> conv4_2
I0110 08:53:34.562728 50502 net.cpp:96] Setting up conv4_2
I0110 08:53:34.566151 50502 net.cpp:103] Top shape: 10 512 41 41 (8606720)
I0110 08:53:34.566174 50502 layer_factory.hpp:78] Creating layer relu4_2
I0110 08:53:34.566181 50502 net.cpp:67] Creating Layer relu4_2
I0110 08:53:34.566185 50502 net.cpp:394] relu4_2 <- conv4_2
I0110 08:53:34.566190 50502 net.cpp:345] relu4_2 -> conv4_2 (in-place)
I0110 08:53:34.566195 50502 net.cpp:96] Setting up relu4_2
I0110 08:53:34.566205 50502 net.cpp:103] Top shape: 10 512 41 41 (8606720)
I0110 08:53:34.566208 50502 layer_factory.hpp:78] Creating layer conv4_3
I0110 08:53:34.566212 50502 net.cpp:67] Creating Layer conv4_3
I0110 08:53:34.566216 50502 net.cpp:394] conv4_3 <- conv4_2
I0110 08:53:34.566220 50502 net.cpp:356] conv4_3 -> conv4_3
I0110 08:53:34.566227 50502 net.cpp:96] Setting up conv4_3
I0110 08:53:34.569628 50502 net.cpp:103] Top shape: 10 512 41 41 (8606720)
I0110 08:53:34.569649 50502 layer_factory.hpp:78] Creating layer relu4_3
I0110 08:53:34.569656 50502 net.cpp:67] Creating Layer relu4_3
I0110 08:53:34.569659 50502 net.cpp:394] relu4_3 <- conv4_3
I0110 08:53:34.569664 50502 net.cpp:345] relu4_3 -> conv4_3 (in-place)
I0110 08:53:34.569669 50502 net.cpp:96] Setting up relu4_3
I0110 08:53:34.569679 50502 net.cpp:103] Top shape: 10 512 41 41 (8606720)
I0110 08:53:34.569681 50502 layer_factory.hpp:78] Creating layer pool4
I0110 08:53:34.569685 50502 layer_factory.cpp:51] CUDNN does not support padding or multiple tops. Using Caffe's own pooling layer.
I0110 08:53:34.569690 50502 net.cpp:67] Creating Layer pool4
I0110 08:53:34.569694 50502 net.cpp:394] pool4 <- conv4_3
I0110 08:53:34.569699 50502 net.cpp:356] pool4 -> pool4
I0110 08:53:34.569705 50502 net.cpp:96] Setting up pool4
I0110 08:53:34.569710 50502 net.cpp:103] Top shape: 10 512 41 41 (8606720)
I0110 08:53:34.569713 50502 layer_factory.hpp:78] Creating layer conv5_1
I0110 08:53:34.569718 50502 net.cpp:67] Creating Layer conv5_1
I0110 08:53:34.569749 50502 net.cpp:394] conv5_1 <- pool4
I0110 08:53:34.569757 50502 net.cpp:356] conv5_1 -> conv5_1
I0110 08:53:34.569763 50502 net.cpp:96] Setting up conv5_1
I0110 08:53:34.577440 50502 net.cpp:103] Top shape: 10 512 41 41 (8606720)
I0110 08:53:34.577464 50502 layer_factory.hpp:78] Creating layer relu5_1
I0110 08:53:34.577471 50502 net.cpp:67] Creating Layer relu5_1
I0110 08:53:34.577476 50502 net.cpp:394] relu5_1 <- conv5_1
I0110 08:53:34.577484 50502 net.cpp:345] relu5_1 -> conv5_1 (in-place)
I0110 08:53:34.577489 50502 net.cpp:96] Setting up relu5_1
I0110 08:53:34.577499 50502 net.cpp:103] Top shape: 10 512 41 41 (8606720)
I0110 08:53:34.577504 50502 layer_factory.hpp:78] Creating layer conv5_2
I0110 08:53:34.577510 50502 net.cpp:67] Creating Layer conv5_2
I0110 08:53:34.577513 50502 net.cpp:394] conv5_2 <- conv5_1
I0110 08:53:34.577517 50502 net.cpp:356] conv5_2 -> conv5_2
I0110 08:53:34.577524 50502 net.cpp:96] Setting up conv5_2
I0110 08:53:34.580787 50502 net.cpp:103] Top shape: 10 512 41 41 (8606720)
I0110 08:53:34.580809 50502 layer_factory.hpp:78] Creating layer relu5_2
I0110 08:53:34.580818 50502 net.cpp:67] Creating Layer relu5_2
I0110 08:53:34.580823 50502 net.cpp:394] relu5_2 <- conv5_2
I0110 08:53:34.580828 50502 net.cpp:345] relu5_2 -> conv5_2 (in-place)
I0110 08:53:34.580833 50502 net.cpp:96] Setting up relu5_2
I0110 08:53:34.580842 50502 net.cpp:103] Top shape: 10 512 41 41 (8606720)
I0110 08:53:34.580845 50502 layer_factory.hpp:78] Creating layer conv5_3
I0110 08:53:34.580852 50502 net.cpp:67] Creating Layer conv5_3
I0110 08:53:34.580857 50502 net.cpp:394] conv5_3 <- conv5_2
I0110 08:53:34.580860 50502 net.cpp:356] conv5_3 -> conv5_3
I0110 08:53:34.580865 50502 net.cpp:96] Setting up conv5_3
I0110 08:53:34.608834 50502 net.cpp:103] Top shape: 10 512 41 41 (8606720)
I0110 08:53:34.608866 50502 layer_factory.hpp:78] Creating layer relu5_3
I0110 08:53:34.608880 50502 net.cpp:67] Creating Layer relu5_3
I0110 08:53:34.608883 50502 net.cpp:394] relu5_3 <- conv5_3
I0110 08:53:34.608889 50502 net.cpp:345] relu5_3 -> conv5_3 (in-place)
I0110 08:53:34.608896 50502 net.cpp:96] Setting up relu5_3
I0110 08:53:34.608904 50502 net.cpp:103] Top shape: 10 512 41 41 (8606720)
I0110 08:53:34.608908 50502 layer_factory.hpp:78] Creating layer pool5
I0110 08:53:34.608912 50502 layer_factory.cpp:51] CUDNN does not support padding or multiple tops. Using Caffe's own pooling layer.
I0110 08:53:34.608920 50502 net.cpp:67] Creating Layer pool5
I0110 08:53:34.608924 50502 net.cpp:394] pool5 <- conv5_3
I0110 08:53:34.608928 50502 net.cpp:356] pool5 -> pool5
I0110 08:53:34.608934 50502 net.cpp:96] Setting up pool5
I0110 08:53:34.608939 50502 net.cpp:103] Top shape: 10 512 41 41 (8606720)
I0110 08:53:34.608943 50502 layer_factory.hpp:78] Creating layer fc6
I0110 08:53:34.608948 50502 net.cpp:67] Creating Layer fc6
I0110 08:53:34.608952 50502 net.cpp:394] fc6 <- pool5
I0110 08:53:34.608955 50502 net.cpp:356] fc6 -> fc6
I0110 08:53:34.608960 50502 net.cpp:96] Setting up fc6
I0110 08:53:34.681129 50502 net.cpp:103] Top shape: 10 4096 41 41 (68853760)
I0110 08:53:34.681174 50502 layer_factory.hpp:78] Creating layer relu6
I0110 08:53:34.681186 50502 net.cpp:67] Creating Layer relu6
I0110 08:53:34.681191 50502 net.cpp:394] relu6 <- fc6
I0110 08:53:34.681200 50502 net.cpp:345] relu6 -> fc6 (in-place)
I0110 08:53:34.681207 50502 net.cpp:96] Setting up relu6
I0110 08:53:34.681217 50502 net.cpp:103] Top shape: 10 4096 41 41 (68853760)
I0110 08:53:34.681221 50502 layer_factory.hpp:78] Creating layer drop6
I0110 08:53:34.681238 50502 net.cpp:67] Creating Layer drop6
I0110 08:53:34.681241 50502 net.cpp:394] drop6 <- fc6
I0110 08:53:34.681246 50502 net.cpp:345] drop6 -> fc6 (in-place)
I0110 08:53:34.681253 50502 net.cpp:96] Setting up drop6
I0110 08:53:34.681257 50502 net.cpp:103] Top shape: 10 4096 41 41 (68853760)
I0110 08:53:34.681260 50502 layer_factory.hpp:78] Creating layer fc7
I0110 08:53:34.681267 50502 net.cpp:67] Creating Layer fc7
I0110 08:53:34.681272 50502 net.cpp:394] fc7 <- fc6
I0110 08:53:34.681277 50502 net.cpp:356] fc7 -> fc7
I0110 08:53:34.681318 50502 net.cpp:96] Setting up fc7
I0110 08:53:34.739222 50502 net.cpp:103] Top shape: 10 4096 41 41 (68853760)
I0110 08:53:34.739261 50502 layer_factory.hpp:78] Creating layer relu7
I0110 08:53:34.739274 50502 net.cpp:67] Creating Layer relu7
I0110 08:53:34.739279 50502 net.cpp:394] relu7 <- fc7
I0110 08:53:34.739287 50502 net.cpp:345] relu7 -> fc7 (in-place)
I0110 08:53:34.739295 50502 net.cpp:96] Setting up relu7
I0110 08:53:34.739305 50502 net.cpp:103] Top shape: 10 4096 41 41 (68853760)
I0110 08:53:34.739310 50502 layer_factory.hpp:78] Creating layer drop7
I0110 08:53:34.739317 50502 net.cpp:67] Creating Layer drop7
I0110 08:53:34.739321 50502 net.cpp:394] drop7 <- fc7
I0110 08:53:34.739326 50502 net.cpp:345] drop7 -> fc7 (in-place)
I0110 08:53:34.739329 50502 net.cpp:96] Setting up drop7
I0110 08:53:34.739336 50502 net.cpp:103] Top shape: 10 4096 41 41 (68853760)
I0110 08:53:34.739343 50502 layer_factory.hpp:78] Creating layer fc8_weak2
I0110 08:53:34.739357 50502 net.cpp:67] Creating Layer fc8_weak2
I0110 08:53:34.739364 50502 net.cpp:394] fc8_weak2 <- fc7
I0110 08:53:34.739373 50502 net.cpp:356] fc8_weak2 -> fc8_weak2
I0110 08:53:34.739383 50502 net.cpp:96] Setting up fc8_weak2
I0110 08:53:34.740667 50502 net.cpp:103] Top shape: 10 21 41 41 (353010)
I0110 08:53:34.740689 50502 layer_factory.hpp:78] Creating layer fc8_weak2_fc8_weak2_0_split
I0110 08:53:34.740700 50502 net.cpp:67] Creating Layer fc8_weak2_fc8_weak2_0_split
I0110 08:53:34.740705 50502 net.cpp:394] fc8_weak2_fc8_weak2_0_split <- fc8_weak2
I0110 08:53:34.740710 50502 net.cpp:356] fc8_weak2_fc8_weak2_0_split -> fc8_weak2_fc8_weak2_0_split_0
I0110 08:53:34.740720 50502 net.cpp:356] fc8_weak2_fc8_weak2_0_split -> fc8_weak2_fc8_weak2_0_split_1
I0110 08:53:34.740726 50502 net.cpp:356] fc8_weak2_fc8_weak2_0_split -> fc8_weak2_fc8_weak2_0_split_2
I0110 08:53:34.740733 50502 net.cpp:96] Setting up fc8_weak2_fc8_weak2_0_split
I0110 08:53:34.740741 50502 net.cpp:103] Top shape: 10 21 41 41 (353010)
I0110 08:53:34.740746 50502 net.cpp:103] Top shape: 10 21 41 41 (353010)
I0110 08:53:34.740751 50502 net.cpp:103] Top shape: 10 21 41 41 (353010)
I0110 08:53:34.740756 50502 layer_factory.hpp:78] Creating layer fc8_biased
I0110 08:53:34.740772 50502 net.cpp:67] Creating Layer fc8_biased
I0110 08:53:34.740779 50502 net.cpp:394] fc8_biased <- fc8_weak2_fc8_weak2_0_split_0
I0110 08:53:34.740787 50502 net.cpp:394] fc8_biased <- label_weak
I0110 08:53:34.740794 50502 net.cpp:356] fc8_biased -> fc8_biased
I0110 08:53:34.740803 50502 net.cpp:96] Setting up fc8_biased
I0110 08:53:34.740810 50502 net.cpp:103] Top shape: 10 21 41 41 (353010)
I0110 08:53:34.740818 50502 layer_factory.hpp:78] Creating layer label_estep
I0110 08:53:34.740825 50502 net.cpp:67] Creating Layer label_estep
I0110 08:53:34.740831 50502 net.cpp:394] label_estep <- fc8_biased
I0110 08:53:34.740844 50502 net.cpp:356] label_estep -> label_estep
I0110 08:53:34.740859 50502 net.cpp:96] Setting up label_estep
I0110 08:53:34.740862 50502 net.cpp:103] Top shape: 10 1 41 41 (16810)
I0110 08:53:34.740866 50502 layer_factory.hpp:78] Creating layer loss
I0110 08:53:34.740878 50502 net.cpp:67] Creating Layer loss
I0110 08:53:34.740885 50502 net.cpp:394] loss <- fc8_weak2_fc8_weak2_0_split_1
I0110 08:53:34.740891 50502 net.cpp:394] loss <- label_estep
I0110 08:53:34.740900 50502 net.cpp:356] loss -> (automatic)
I0110 08:53:34.740914 50502 net.cpp:96] Setting up loss
I0110 08:53:34.740928 50502 softmax_loss_layer.cpp:40] Weight_Loss file is not provided. Assign all one to it.
I0110 08:53:34.740941 50502 net.cpp:103] Top shape: 1 1 1 1 (1)
I0110 08:53:34.740945 50502 net.cpp:109]     with loss weight 1
I0110 08:53:34.740973 50502 layer_factory.hpp:78] Creating layer label_shrink
I0110 08:53:34.740983 50502 net.cpp:67] Creating Layer label_shrink
I0110 08:53:34.740986 50502 net.cpp:394] label_shrink <- label_strong_data_1_split_1
I0110 08:53:34.740993 50502 net.cpp:356] label_shrink -> label_shrink
I0110 08:53:34.741001 50502 net.cpp:96] Setting up label_shrink
I0110 08:53:34.741008 50502 net.cpp:103] Top shape: 10 1 41 41 (16810)
I0110 08:53:34.741051 50502 layer_factory.hpp:78] Creating layer accuracy
I0110 08:53:34.741065 50502 net.cpp:67] Creating Layer accuracy
I0110 08:53:34.741071 50502 net.cpp:394] accuracy <- fc8_weak2_fc8_weak2_0_split_2
I0110 08:53:34.741078 50502 net.cpp:394] accuracy <- label_shrink
I0110 08:53:34.741086 50502 net.cpp:356] accuracy -> accuracy
I0110 08:53:34.741099 50502 net.cpp:96] Setting up accuracy
I0110 08:53:34.741120 50502 net.cpp:103] Top shape: 1 1 1 3 (3)
I0110 08:53:34.741127 50502 net.cpp:172] accuracy does not need backward computation.
I0110 08:53:34.741132 50502 net.cpp:172] label_shrink does not need backward computation.
I0110 08:53:34.741137 50502 net.cpp:170] loss needs backward computation.
I0110 08:53:34.741143 50502 net.cpp:170] label_estep needs backward computation.
I0110 08:53:34.741148 50502 net.cpp:170] fc8_biased needs backward computation.
…
