…
I0105 19:22:48.697847 23955 solver.cpp:58] Creating training net from train_net file: weak/config/adapt/train_train.prototxt
I0105 19:22:48.700819 23955 net.cpp:39] Initializing net from parameters: 
name: "adapt"
layers {
  top: "data"
  top: "label_strong"
  name: "data"
  type: IMAGE_SEG_DATA
  image_data_param {
    source: "weak/list/train.txt"
    batch_size: 20
    shuffle: true
    root_folder: "/home/zhangzhengqiang/git/deeplab-public//data/pascal/VOCdevkit/VOC2012"
    label_type: PIXEL
  }
  include {
    phase: TRAIN
  }
  transform_param {
    mirror: true
    crop_size: 321
    mean_value: 104.008
    mean_value: 116.669
    mean_value: 122.675
  }
}
layers {
  bottom: "label_strong"
  top: "label_weak"
  name: "label_weak"
  type: UNIQUE_LABEL
  include {
    phase: TRAIN
  }
  unique_label_param {
    max_labels: 10
    ignore_label: 255
  }
}
layers {
  bottom: "data"
  top: "conv1_1"
  name: "conv1_1"
  type: CONVOLUTION
  blobs_lr: 1
  blobs_lr: 2
  weight_decay: 1
  weight_decay: 0
  convolution_param {
    num_output: 64
    pad: 1
    kernel_size: 3
  }
}
layers {
  bottom: "conv1_1"
  top: "conv1_1"
  name: "relu1_1"
  type: RELU
}
layers {
  bottom: "conv1_1"
  top: "conv1_2"
  name: "conv1_2"
  type: CONVOLUTION
  blobs_lr: 1
  blobs_lr: 2
  weight_decay: 1
  weight_decay: 0
  convolution_param {
    num_output: 64
    pad: 1
    kernel_size: 3
  }
}
layers {
  bottom: "conv1_2"
  top: "conv1_2"
  name: "relu1_2"
  type: RELU
}
layers {
  bottom: "conv1_2"
  top: "pool1"
  name: "pool1"
  type: POOLING
  pooling_param {
    pool: MAX
    kernel_size: 3
    stride: 2
    pad: 1
  }
}
layers {
  bottom: "pool1"
  top: "conv2_1"
  name: "conv2_1"
  type: CONVOLUTION
  blobs_lr: 1
  blobs_lr: 2
  weight_decay: 1
  weight_decay: 0
  convolution_param {
    num_output: 128
    pad: 1
    kernel_size: 3
  }
}
layers {
  bottom: "conv2_1"
  top: "conv2_1"
  name: "relu2_1"
  type: RELU
}
layers {
  bottom: "conv2_1"
  top: "conv2_2"
  name: "conv2_2"
  type: CONVOLUTION
  blobs_lr: 1
  blobs_lr: 2
  weight_decay: 1
  weight_decay: 0
  convolution_param {
    num_output: 128
    pad: 1
    kernel_size: 3
  }
}
layers {
  bottom: "conv2_2"
  top: "conv2_2"
  name: "relu2_2"
  type: RELU
}
layers {
  bottom: "conv2_2"
  top: "pool2"
  name: "pool2"
  type: POOLING
  pooling_param {
    pool: MAX
    kernel_size: 3
    stride: 2
    pad: 1
  }
}
layers {
  bottom: "pool2"
  top: "conv3_1"
  name: "conv3_1"
  type: CONVOLUTION
  blobs_lr: 1
  blobs_lr: 2
  weight_decay: 1
  weight_decay: 0
  convolution_param {
    num_output: 256
    pad: 1
    kernel_size: 3
  }
}
layers {
  bottom: "conv3_1"
  top: "conv3_1"
  name: "relu3_1"
  type: RELU
}
layers {
  bottom: "conv3_1"
  top: "conv3_2"
  name: "conv3_2"
  type: CONVOLUTION
  blobs_lr: 1
  blobs_lr: 2
  weight_decay: 1
  weight_decay: 0
  convolution_param {
    num_output: 256
    pad: 1
    kernel_size: 3
  }
}
layers {
  bottom: "conv3_2"
  top: "conv3_2"
  name: "relu3_2"
  type: RELU
}
layers {
  bottom: "conv3_2"
  top: "conv3_3"
  name: "conv3_3"
  type: CONVOLUTION
  blobs_lr: 1
  blobs_lr: 2
  weight_decay: 1
  weight_decay: 0
  convolution_param {
    num_output: 256
    pad: 1
    kernel_size: 3
  }
}
layers {
  bottom: "conv3_3"
  top: "conv3_3"
  name: "relu3_3"
  type: RELU
}
layers {
  bottom: "conv3_3"
  top: "pool3"
  name: "pool3"
  type: POOLING
  pooling_param {
    pool: MAX
    kernel_size: 3
    stride: 2
    pad: 1
  }
}
layers {
  bottom: "pool3"
  top: "conv4_1"
  name: "conv4_1"
  type: CONVOLUTION
  blobs_lr: 1
  blobs_lr: 2
  weight_decay: 1
  weight_decay: 0
  convolution_param {
    num_output: 512
    pad: 1
    kernel_size: 3
  }
}
layers {
  bottom: "conv4_1"
  top: "conv4_1"
  name: "relu4_1"
  type: RELU
}
layers {
  bottom: "conv4_1"
  top: "conv4_2"
  name: "conv4_2"
  type: CONVOLUTION
  blobs_lr: 1
  blobs_lr: 2
  weight_decay: 1
  weight_decay: 0
  convolution_param {
    num_output: 512
    pad: 1
    kernel_size: 3
  }
}
layers {
  bottom: "conv4_2"
  top: "conv4_2"
  name: "relu4_2"
  type: RELU
}
layers {
  bottom: "conv4_2"
  top: "conv4_3"
  name: "conv4_3"
  type: CONVOLUTION
  blobs_lr: 1
  blobs_lr: 2
  weight_decay: 1
  weight_decay: 0
  convolution_param {
    num_output: 512
    pad: 1
    kernel_size: 3
  }
}
layers {
  bottom: "conv4_3"
  top: "conv4_3"
  name: "relu4_3"
  type: RELU
}
layers {
  bottom: "conv4_3"
  top: "pool4"
  name: "pool4"
  type: POOLING
  pooling_param {
    pool: MAX
    kernel_size: 3
    stride: 1
    pad: 1
  }
}
layers {
  bottom: "pool4"
  top: "conv5_1"
  name: "conv5_1"
  type: CONVOLUTION
  blobs_lr: 1
  blobs_lr: 2
  weight_decay: 1
  weight_decay: 0
  convolution_param {
    num_output: 512
    pad: 2
    kernel_size: 3
    hole: 2
  }
}
layers {
  bottom: "conv5_1"
  top: "conv5_1"
  name: "relu5_1"
  type: RELU
}
layers {
  bottom: "conv5_1"
  top: "conv5_2"
  name: "conv5_2"
  type: CONVOLUTION
  blobs_lr: 1
  blobs_lr: 2
  weight_decay: 1
  weight_decay: 0
  convolution_param {
    num_output: 512
    pad: 2
    kernel_size: 3
    hole: 2
  }
}
layers {
  bottom: "conv5_2"
  top: "conv5_2"
  name: "relu5_2"
  type: RELU
}
layers {
  bottom: "conv5_2"
  top: "conv5_3"
  name: "conv5_3"
  type: CONVOLUTION
  blobs_lr: 1
  blobs_lr: 2
  weight_decay: 1
  weight_decay: 0
  convolution_param {
    num_output: 512
    pad: 2
    kernel_size: 3
    hole: 2
  }
}
layers {
  bottom: "conv5_3"
  top: "conv5_3"
  name: "relu5_3"
  type: RELU
}
layers {
  bottom: "conv5_3"
  top: "pool5"
  name: "pool5"
  type: POOLING
  pooling_param {
    pool: MAX
    kernel_size: 3
    stride: 1
    pad: 1
  }
}
layers {
  bottom: "pool5"
  top: "fc6"
  name: "fc6"
  type: CONVOLUTION
  blobs_lr: 1
  blobs_lr: 2
  weight_decay: 1
  weight_decay: 0
  convolution_param {
    num_output: 4096
    pad: 6
    kernel_size: 4
    hole: 4
  }
  strict_dim: false
}
layers {
  bottom: "fc6"
  top: "fc6"
  name: "relu6"
  type: RELU
}
layers {
  bottom: "fc6"
  top: "fc6"
  name: "drop6"
  type: DROPOUT
  dropout_param {
    dropout_ratio: 0.5
  }
}
layers {
  bottom: "fc6"
  top: "fc7"
  name: "fc7"
  type: CONVOLUTION
  blobs_lr: 1
  blobs_lr: 2
  weight_decay: 1
  weight_decay: 0
  convolution_param {
    num_output: 4096
    kernel_size: 1
  }
  strict_dim: false
}
layers {
  bottom: "fc7"
  top: "fc7"
  name: "relu7"
  type: RELU
}
layers {
  bottom: "fc7"
  top: "fc7"
  name: "drop7"
  type: DROPOUT
  dropout_param {
    dropout_ratio: 0.5
  }
}
layers {
  bottom: "fc7"
  top: "fc8_weak"
  name: "fc8_weak"
  type: CONVOLUTION
  blobs_lr: 10
  blobs_lr: 20
  weight_decay: 1
  weight_decay: 0
  convolution_param {
    num_output: 21
    kernel_size: 1
    weight_filler {
      type: "gaussian"
      std: 0.01
    }
    bias_filler {
      type: "constant"
      value: 0
    }
  }
  strict_dim: false
}
layers {
  bottom: "fc8_weak"
  bottom: "label_weak"
  top: "fc8_biased"
  name: "fc8_biased"
  type: ADAPTIVE_BIAS_CHANNEL
  adaptive_bias_channel_param {
    num_iter: 5
    bg_portion: 0.4
    fg_portion: 0.2
    suppress_others: true
    margin_others: 1e-05
  }
}
layers {
  bottom: "fc8_biased"
  top: "label_estep"
  name: "label_estep"
  type: ARGMAX
  argmax_param {
    out_max_val: false
    top_k: 1
  }
}
layers {
  bottom: "fc8_weak"
  bottom: "label_estep"
  name: "loss"
  type: SOFTMAX_LOSS
  include {
    phase: TRAIN
  }
  softmaxloss_param {
    ignore_label: 255
  }
}
layers {
  bottom: "label_strong"
  top: "label_shrink"
  name: "label_shrink"
  type: INTERP
  interp_param {
    shrink_factor: 8
    pad_beg: 0
    pad_end: 0
  }
}
layers {
  bottom: "fc8_weak"
  bottom: "label_shrink"
  top: "accuracy"
  name: "accuracy"
  type: SEG_ACCURACY
  seg_accuracy_param {
    ignore_label: 255
  }
}
state {
  phase: TRAIN
}
I0105 19:22:48.701030 23955 layer_factory.hpp:78] Creating layer data
I0105 19:22:48.701071 23955 net.cpp:67] Creating Layer data
I0105 19:22:48.701077 23955 net.cpp:356] data -> data
I0105 19:22:48.701098 23955 net.cpp:356] data -> label_strong
I0105 19:22:48.701110 23955 net.cpp:356] data -> (automatic)
I0105 19:22:48.701114 23955 net.cpp:96] Setting up data
I0105 19:22:48.701119 23955 image_seg_data_layer.cpp:45] Opening file weak/list/train.txt
I0105 19:22:48.702775 23955 image_seg_data_layer.cpp:62] Shuffling data
I0105 19:22:48.702880 23955 image_seg_data_layer.cpp:67] A total of 1464 images.
I0105 19:22:48.707978 23955 image_seg_data_layer.cpp:113] output data size: 20,3,321,321
I0105 19:22:48.707998 23955 image_seg_data_layer.cpp:117] output label size: 20,1,321,321
I0105 19:22:48.708003 23955 image_seg_data_layer.cpp:121] output data_dim size: 20,1,1,2
I0105 19:22:48.708510 23955 net.cpp:103] Top shape: 20 3 321 321 (6182460)
I0105 19:22:48.708528 23955 net.cpp:103] Top shape: 20 1 321 321 (2060820)
I0105 19:22:48.708533 23955 net.cpp:103] Top shape: 20 1 1 2 (40)
I0105 19:22:48.708536 23955 layer_factory.hpp:78] Creating layer label_strong_data_1_split
I0105 19:22:48.708549 23955 net.cpp:67] Creating Layer label_strong_data_1_split
I0105 19:22:48.708554 23955 net.cpp:394] label_strong_data_1_split <- label_strong
I0105 19:22:48.708569 23955 net.cpp:356] label_strong_data_1_split -> label_strong_data_1_split_0
I0105 19:22:48.708576 23955 net.cpp:356] label_strong_data_1_split -> label_strong_data_1_split_1
I0105 19:22:48.708582 23955 net.cpp:96] Setting up label_strong_data_1_split
I0105 19:22:48.708603 23955 net.cpp:103] Top shape: 20 1 321 321 (2060820)
I0105 19:22:48.708606 23955 net.cpp:103] Top shape: 20 1 321 321 (2060820)
I0105 19:22:48.708609 23955 layer_factory.hpp:78] Creating layer label_weak
I0105 19:22:48.708616 23955 net.cpp:67] Creating Layer label_weak
I0105 19:22:48.708618 23955 net.cpp:394] label_weak <- label_strong_data_1_split_0
I0105 19:22:48.708623 23955 net.cpp:356] label_weak -> label_weak
I0105 19:22:48.708628 23955 net.cpp:96] Setting up label_weak
I0105 19:22:48.708644 23955 net.cpp:103] Top shape: 20 10 1 1 (200)
I0105 19:22:48.708647 23955 layer_factory.hpp:78] Creating layer conv1_1
I0105 19:22:48.708652 23955 net.cpp:67] Creating Layer conv1_1
I0105 19:22:48.708657 23955 net.cpp:394] conv1_1 <- data
I0105 19:22:48.708660 23955 net.cpp:356] conv1_1 -> conv1_1
I0105 19:22:48.708664 23955 net.cpp:96] Setting up conv1_1
I0105 19:22:48.976054 23955 net.cpp:103] Top shape: 20 64 321 321 (131892480)
I0105 19:22:48.976126 23955 layer_factory.hpp:78] Creating layer relu1_1
I0105 19:22:48.976143 23955 net.cpp:67] Creating Layer relu1_1
I0105 19:22:48.976150 23955 net.cpp:394] relu1_1 <- conv1_1
I0105 19:22:48.976160 23955 net.cpp:345] relu1_1 -> conv1_1 (in-place)
I0105 19:22:48.976171 23955 net.cpp:96] Setting up relu1_1
I0105 19:22:48.976202 23955 net.cpp:103] Top shape: 20 64 321 321 (131892480)
I0105 19:22:48.976205 23955 layer_factory.hpp:78] Creating layer conv1_2
I0105 19:22:48.976213 23955 net.cpp:67] Creating Layer conv1_2
I0105 19:22:48.976217 23955 net.cpp:394] conv1_2 <- conv1_1
I0105 19:22:48.976222 23955 net.cpp:356] conv1_2 -> conv1_2
I0105 19:22:48.976229 23955 net.cpp:96] Setting up conv1_2
I0105 19:22:48.976433 23955 net.cpp:103] Top shape: 20 64 321 321 (131892480)
I0105 19:22:48.976452 23955 layer_factory.hpp:78] Creating layer relu1_2
I0105 19:22:48.976459 23955 net.cpp:67] Creating Layer relu1_2
I0105 19:22:48.976462 23955 net.cpp:394] relu1_2 <- conv1_2
I0105 19:22:48.976475 23955 net.cpp:345] relu1_2 -> conv1_2 (in-place)
I0105 19:22:48.976480 23955 net.cpp:96] Setting up relu1_2
I0105 19:22:48.976486 23955 net.cpp:103] Top shape: 20 64 321 321 (131892480)
I0105 19:22:48.976490 23955 layer_factory.hpp:78] Creating layer pool1
I0105 19:22:48.976495 23955 layer_factory.cpp:51] CUDNN does not support padding or multiple tops. Using Caffe's own pooling layer.
I0105 19:22:48.976500 23955 net.cpp:67] Creating Layer pool1
I0105 19:22:48.976503 23955 net.cpp:394] pool1 <- conv1_2
I0105 19:22:48.976507 23955 net.cpp:356] pool1 -> pool1
I0105 19:22:48.976513 23955 net.cpp:96] Setting up pool1
I0105 19:22:48.976529 23955 net.cpp:103] Top shape: 20 64 161 161 (33178880)
I0105 19:22:48.976533 23955 layer_factory.hpp:78] Creating layer conv2_1
I0105 19:22:48.976539 23955 net.cpp:67] Creating Layer conv2_1
I0105 19:22:48.976548 23955 net.cpp:394] conv2_1 <- pool1
I0105 19:22:48.976552 23955 net.cpp:356] conv2_1 -> conv2_1
I0105 19:22:48.976557 23955 net.cpp:96] Setting up conv2_1
I0105 19:22:48.976755 23955 net.cpp:103] Top shape: 20 128 161 161 (66357760)
I0105 19:22:48.976773 23955 layer_factory.hpp:78] Creating layer relu2_1
I0105 19:22:48.976779 23955 net.cpp:67] Creating Layer relu2_1
I0105 19:22:48.976783 23955 net.cpp:394] relu2_1 <- conv2_1
I0105 19:22:48.976789 23955 net.cpp:345] relu2_1 -> conv2_1 (in-place)
I0105 19:22:48.976794 23955 net.cpp:96] Setting up relu2_1
I0105 19:22:48.976799 23955 net.cpp:103] Top shape: 20 128 161 161 (66357760)
I0105 19:22:48.976805 23955 layer_factory.hpp:78] Creating layer conv2_2
I0105 19:22:48.976811 23955 net.cpp:67] Creating Layer conv2_2
I0105 19:22:48.976814 23955 net.cpp:394] conv2_2 <- conv2_1
I0105 19:22:48.976819 23955 net.cpp:356] conv2_2 -> conv2_2
I0105 19:22:48.976824 23955 net.cpp:96] Setting up conv2_2
I0105 19:22:48.977090 23955 net.cpp:103] Top shape: 20 128 161 161 (66357760)
I0105 19:22:48.977107 23955 layer_factory.hpp:78] Creating layer relu2_2
I0105 19:22:48.977111 23955 net.cpp:67] Creating Layer relu2_2
I0105 19:22:48.977115 23955 net.cpp:394] relu2_2 <- conv2_2
I0105 19:22:48.977119 23955 net.cpp:345] relu2_2 -> conv2_2 (in-place)
I0105 19:22:48.977123 23955 net.cpp:96] Setting up relu2_2
I0105 19:22:48.977131 23955 net.cpp:103] Top shape: 20 128 161 161 (66357760)
I0105 19:22:48.977134 23955 layer_factory.hpp:78] Creating layer pool2
I0105 19:22:48.977139 23955 layer_factory.cpp:51] CUDNN does not support padding or multiple tops. Using Caffe's own pooling layer.
I0105 19:22:48.977144 23955 net.cpp:67] Creating Layer pool2
I0105 19:22:48.977146 23955 net.cpp:394] pool2 <- conv2_2
I0105 19:22:48.977150 23955 net.cpp:356] pool2 -> pool2
I0105 19:22:48.977155 23955 net.cpp:96] Setting up pool2
I0105 19:22:48.977164 23955 net.cpp:103] Top shape: 20 128 81 81 (16796160)
I0105 19:22:48.977166 23955 layer_factory.hpp:78] Creating layer conv3_1
I0105 19:22:48.977170 23955 net.cpp:67] Creating Layer conv3_1
I0105 19:22:48.977176 23955 net.cpp:394] conv3_1 <- pool2
I0105 19:22:48.977180 23955 net.cpp:356] conv3_1 -> conv3_1
I0105 19:22:48.977185 23955 net.cpp:96] Setting up conv3_1
I0105 19:22:48.977509 23955 net.cpp:103] Top shape: 20 256 81 81 (33592320)
I0105 19:22:48.977525 23955 layer_factory.hpp:78] Creating layer relu3_1
I0105 19:22:48.977530 23955 net.cpp:67] Creating Layer relu3_1
I0105 19:22:48.977533 23955 net.cpp:394] relu3_1 <- conv3_1
I0105 19:22:48.977537 23955 net.cpp:345] relu3_1 -> conv3_1 (in-place)
I0105 19:22:48.977542 23955 net.cpp:96] Setting up relu3_1
I0105 19:22:48.977548 23955 net.cpp:103] Top shape: 20 256 81 81 (33592320)
I0105 19:22:48.977551 23955 layer_factory.hpp:78] Creating layer conv3_2
I0105 19:22:48.977555 23955 net.cpp:67] Creating Layer conv3_2
I0105 19:22:48.977560 23955 net.cpp:394] conv3_2 <- conv3_1
I0105 19:22:48.977563 23955 net.cpp:356] conv3_2 -> conv3_2
I0105 19:22:48.977567 23955 net.cpp:96] Setting up conv3_2
I0105 19:22:48.978212 23955 net.cpp:103] Top shape: 20 256 81 81 (33592320)
I0105 19:22:48.978229 23955 layer_factory.hpp:78] Creating layer relu3_2
I0105 19:22:48.978237 23955 net.cpp:67] Creating Layer relu3_2
I0105 19:22:48.978240 23955 net.cpp:394] relu3_2 <- conv3_2
I0105 19:22:48.978245 23955 net.cpp:345] relu3_2 -> conv3_2 (in-place)
I0105 19:22:48.978248 23955 net.cpp:96] Setting up relu3_2
I0105 19:22:48.978256 23955 net.cpp:103] Top shape: 20 256 81 81 (33592320)
I0105 19:22:48.978260 23955 layer_factory.hpp:78] Creating layer conv3_3
I0105 19:22:48.978266 23955 net.cpp:67] Creating Layer conv3_3
I0105 19:22:48.978268 23955 net.cpp:394] conv3_3 <- conv3_2
I0105 19:22:48.978272 23955 net.cpp:356] conv3_3 -> conv3_3
I0105 19:22:48.978296 23955 net.cpp:96] Setting up conv3_3
I0105 19:22:48.979115 23955 net.cpp:103] Top shape: 20 256 81 81 (33592320)
I0105 19:22:48.979131 23955 layer_factory.hpp:78] Creating layer relu3_3
I0105 19:22:48.979137 23955 net.cpp:67] Creating Layer relu3_3
I0105 19:22:48.979142 23955 net.cpp:394] relu3_3 <- conv3_3
I0105 19:22:48.979146 23955 net.cpp:345] relu3_3 -> conv3_3 (in-place)
I0105 19:22:48.979151 23955 net.cpp:96] Setting up relu3_3
I0105 19:22:48.979172 23955 net.cpp:103] Top shape: 20 256 81 81 (33592320)
I0105 19:22:48.979182 23955 layer_factory.hpp:78] Creating layer pool3
I0105 19:22:48.979194 23955 layer_factory.cpp:51] CUDNN does not support padding or multiple tops. Using Caffe's own pooling layer.
I0105 19:22:48.979202 23955 net.cpp:67] Creating Layer pool3
I0105 19:22:48.979205 23955 net.cpp:394] pool3 <- conv3_3
I0105 19:22:48.979209 23955 net.cpp:356] pool3 -> pool3
I0105 19:22:48.979214 23955 net.cpp:96] Setting up pool3
I0105 19:22:48.979223 23955 net.cpp:103] Top shape: 20 256 41 41 (8606720)
I0105 19:22:48.979225 23955 layer_factory.hpp:78] Creating layer conv4_1
I0105 19:22:48.979231 23955 net.cpp:67] Creating Layer conv4_1
I0105 19:22:48.979238 23955 net.cpp:394] conv4_1 <- pool3
I0105 19:22:48.979243 23955 net.cpp:356] conv4_1 -> conv4_1
I0105 19:22:48.979248 23955 net.cpp:96] Setting up conv4_1
I0105 19:22:49.005489 23955 net.cpp:103] Top shape: 20 512 41 41 (17213440)
I0105 19:22:49.005527 23955 layer_factory.hpp:78] Creating layer relu4_1
I0105 19:22:49.005539 23955 net.cpp:67] Creating Layer relu4_1
I0105 19:22:49.005544 23955 net.cpp:394] relu4_1 <- conv4_1
I0105 19:22:49.005553 23955 net.cpp:345] relu4_1 -> conv4_1 (in-place)
I0105 19:22:49.005559 23955 net.cpp:96] Setting up relu4_1
I0105 19:22:49.005566 23955 net.cpp:103] Top shape: 20 512 41 41 (17213440)
I0105 19:22:49.005570 23955 layer_factory.hpp:78] Creating layer conv4_2
I0105 19:22:49.005578 23955 net.cpp:67] Creating Layer conv4_2
I0105 19:22:49.005580 23955 net.cpp:394] conv4_2 <- conv4_1
I0105 19:22:49.005585 23955 net.cpp:356] conv4_2 -> conv4_2
I0105 19:22:49.005590 23955 net.cpp:96] Setting up conv4_2
I0105 19:22:49.008970 23955 net.cpp:103] Top shape: 20 512 41 41 (17213440)
I0105 19:22:49.008996 23955 layer_factory.hpp:78] Creating layer relu4_2
I0105 19:22:49.009003 23955 net.cpp:67] Creating Layer relu4_2
I0105 19:22:49.009007 23955 net.cpp:394] relu4_2 <- conv4_2
I0105 19:22:49.009012 23955 net.cpp:345] relu4_2 -> conv4_2 (in-place)
I0105 19:22:49.009018 23955 net.cpp:96] Setting up relu4_2
I0105 19:22:49.009024 23955 net.cpp:103] Top shape: 20 512 41 41 (17213440)
I0105 19:22:49.009027 23955 layer_factory.hpp:78] Creating layer conv4_3
I0105 19:22:49.009033 23955 net.cpp:67] Creating Layer conv4_3
I0105 19:22:49.009052 23955 net.cpp:394] conv4_3 <- conv4_2
I0105 19:22:49.009057 23955 net.cpp:356] conv4_3 -> conv4_3
I0105 19:22:49.009061 23955 net.cpp:96] Setting up conv4_3
I0105 19:22:49.011847 23955 net.cpp:103] Top shape: 20 512 41 41 (17213440)
I0105 19:22:49.011870 23955 layer_factory.hpp:78] Creating layer relu4_3
I0105 19:22:49.011878 23955 net.cpp:67] Creating Layer relu4_3
I0105 19:22:49.011883 23955 net.cpp:394] relu4_3 <- conv4_3
I0105 19:22:49.011889 23955 net.cpp:345] relu4_3 -> conv4_3 (in-place)
I0105 19:22:49.011898 23955 net.cpp:96] Setting up relu4_3
I0105 19:22:49.011939 23955 net.cpp:103] Top shape: 20 512 41 41 (17213440)
I0105 19:22:49.011948 23955 layer_factory.hpp:78] Creating layer pool4
I0105 19:22:49.011952 23955 layer_factory.cpp:51] CUDNN does not support padding or multiple tops. Using Caffe's own pooling layer.
I0105 19:22:49.011958 23955 net.cpp:67] Creating Layer pool4
I0105 19:22:49.011961 23955 net.cpp:394] pool4 <- conv4_3
I0105 19:22:49.011968 23955 net.cpp:356] pool4 -> pool4
I0105 19:22:49.011975 23955 net.cpp:96] Setting up pool4
I0105 19:22:49.011986 23955 net.cpp:103] Top shape: 20 512 41 41 (17213440)
I0105 19:22:49.011992 23955 layer_factory.hpp:78] Creating layer conv5_1
I0105 19:22:49.012017 23955 net.cpp:67] Creating Layer conv5_1
I0105 19:22:49.012025 23955 net.cpp:394] conv5_1 <- pool4
I0105 19:22:49.012032 23955 net.cpp:356] conv5_1 -> conv5_1
I0105 19:22:49.012037 23955 net.cpp:96] Setting up conv5_1
I0105 19:22:49.023866 23955 net.cpp:103] Top shape: 20 512 41 41 (17213440)
I0105 19:22:49.023900 23955 layer_factory.hpp:78] Creating layer relu5_1
I0105 19:22:49.023910 23955 net.cpp:67] Creating Layer relu5_1
I0105 19:22:49.023913 23955 net.cpp:394] relu5_1 <- conv5_1
I0105 19:22:49.023919 23955 net.cpp:345] relu5_1 -> conv5_1 (in-place)
I0105 19:22:49.023924 23955 net.cpp:96] Setting up relu5_1
I0105 19:22:49.023931 23955 net.cpp:103] Top shape: 20 512 41 41 (17213440)
I0105 19:22:49.023934 23955 layer_factory.hpp:78] Creating layer conv5_2
I0105 19:22:49.023941 23955 net.cpp:67] Creating Layer conv5_2
I0105 19:22:49.023943 23955 net.cpp:394] conv5_2 <- conv5_1
I0105 19:22:49.023948 23955 net.cpp:356] conv5_2 -> conv5_2
I0105 19:22:49.023953 23955 net.cpp:96] Setting up conv5_2
I0105 19:22:49.026824 23955 net.cpp:103] Top shape: 20 512 41 41 (17213440)
I0105 19:22:49.026849 23955 layer_factory.hpp:78] Creating layer relu5_2
I0105 19:22:49.026856 23955 net.cpp:67] Creating Layer relu5_2
I0105 19:22:49.026860 23955 net.cpp:394] relu5_2 <- conv5_2
I0105 19:22:49.026865 23955 net.cpp:345] relu5_2 -> conv5_2 (in-place)
I0105 19:22:49.026870 23955 net.cpp:96] Setting up relu5_2
I0105 19:22:49.026877 23955 net.cpp:103] Top shape: 20 512 41 41 (17213440)
I0105 19:22:49.026880 23955 layer_factory.hpp:78] Creating layer conv5_3
I0105 19:22:49.026886 23955 net.cpp:67] Creating Layer conv5_3
I0105 19:22:49.026890 23955 net.cpp:394] conv5_3 <- conv5_2
I0105 19:22:49.026893 23955 net.cpp:356] conv5_3 -> conv5_3
I0105 19:22:49.026898 23955 net.cpp:96] Setting up conv5_3
I0105 19:22:49.031388 23955 net.cpp:103] Top shape: 20 512 41 41 (17213440)
I0105 19:22:49.031411 23955 layer_factory.hpp:78] Creating layer relu5_3
I0105 19:22:49.031422 23955 net.cpp:67] Creating Layer relu5_3
I0105 19:22:49.031426 23955 net.cpp:394] relu5_3 <- conv5_3
I0105 19:22:49.031432 23955 net.cpp:345] relu5_3 -> conv5_3 (in-place)
I0105 19:22:49.031437 23955 net.cpp:96] Setting up relu5_3
I0105 19:22:49.031443 23955 net.cpp:103] Top shape: 20 512 41 41 (17213440)
I0105 19:22:49.031447 23955 layer_factory.hpp:78] Creating layer pool5
I0105 19:22:49.031451 23955 layer_factory.cpp:51] CUDNN does not support padding or multiple tops. Using Caffe's own pooling layer.
I0105 19:22:49.031456 23955 net.cpp:67] Creating Layer pool5
I0105 19:22:49.031460 23955 net.cpp:394] pool5 <- conv5_3
I0105 19:22:49.031464 23955 net.cpp:356] pool5 -> pool5
I0105 19:22:49.031469 23955 net.cpp:96] Setting up pool5
I0105 19:22:49.031476 23955 net.cpp:103] Top shape: 20 512 41 41 (17213440)
I0105 19:22:49.031478 23955 layer_factory.hpp:78] Creating layer fc6
I0105 19:22:49.031483 23955 net.cpp:67] Creating Layer fc6
I0105 19:22:49.031486 23955 net.cpp:394] fc6 <- pool5
I0105 19:22:49.031491 23955 net.cpp:356] fc6 -> fc6
I0105 19:22:49.031496 23955 net.cpp:96] Setting up fc6
I0105 19:22:49.100368 23955 net.cpp:103] Top shape: 20 4096 41 41 (137707520)
I0105 19:22:49.100414 23955 layer_factory.hpp:78] Creating layer relu6
I0105 19:22:49.100427 23955 net.cpp:67] Creating Layer relu6
I0105 19:22:49.100433 23955 net.cpp:394] relu6 <- fc6
I0105 19:22:49.100442 23955 net.cpp:345] relu6 -> fc6 (in-place)
I0105 19:22:49.100450 23955 net.cpp:96] Setting up relu6
I0105 19:22:49.100457 23955 net.cpp:103] Top shape: 20 4096 41 41 (137707520)
I0105 19:22:49.100461 23955 layer_factory.hpp:78] Creating layer drop6
I0105 19:22:49.100476 23955 net.cpp:67] Creating Layer drop6
I0105 19:22:49.100481 23955 net.cpp:394] drop6 <- fc6
I0105 19:22:49.100486 23955 net.cpp:345] drop6 -> fc6 (in-place)
I0105 19:22:49.100497 23955 net.cpp:96] Setting up drop6
I0105 19:22:49.100509 23955 net.cpp:103] Top shape: 20 4096 41 41 (137707520)
I0105 19:22:49.100519 23955 layer_factory.hpp:78] Creating layer fc7
I0105 19:22:49.100527 23955 net.cpp:67] Creating Layer fc7
I0105 19:22:49.100528 23955 net.cpp:394] fc7 <- fc6
I0105 19:22:49.100533 23955 net.cpp:356] fc7 -> fc7
I0105 19:22:49.100561 23955 net.cpp:96] Setting up fc7
I0105 19:22:49.148550 23955 net.cpp:103] Top shape: 20 4096 41 41 (137707520)
I0105 19:22:49.148597 23955 layer_factory.hpp:78] Creating layer relu7
I0105 19:22:49.148609 23955 net.cpp:67] Creating Layer relu7
I0105 19:22:49.148614 23955 net.cpp:394] relu7 <- fc7
I0105 19:22:49.148623 23955 net.cpp:345] relu7 -> fc7 (in-place)
I0105 19:22:49.148632 23955 net.cpp:96] Setting up relu7
I0105 19:22:49.148639 23955 net.cpp:103] Top shape: 20 4096 41 41 (137707520)
I0105 19:22:49.148643 23955 layer_factory.hpp:78] Creating layer drop7
I0105 19:22:49.148648 23955 net.cpp:67] Creating Layer drop7
I0105 19:22:49.148651 23955 net.cpp:394] drop7 <- fc7
I0105 19:22:49.148656 23955 net.cpp:345] drop7 -> fc7 (in-place)
I0105 19:22:49.148660 23955 net.cpp:96] Setting up drop7
I0105 19:22:49.148664 23955 net.cpp:103] Top shape: 20 4096 41 41 (137707520)
I0105 19:22:49.148667 23955 layer_factory.hpp:78] Creating layer fc8_weak
I0105 19:22:49.148674 23955 net.cpp:67] Creating Layer fc8_weak
I0105 19:22:49.148692 23955 net.cpp:394] fc8_weak <- fc7
I0105 19:22:49.148699 23955 net.cpp:356] fc8_weak -> fc8_weak
I0105 19:22:49.148705 23955 net.cpp:96] Setting up fc8_weak
I0105 19:22:49.149998 23955 net.cpp:103] Top shape: 20 21 41 41 (706020)
I0105 19:22:49.150020 23955 layer_factory.hpp:78] Creating layer fc8_weak_fc8_weak_0_split
I0105 19:22:49.150029 23955 net.cpp:67] Creating Layer fc8_weak_fc8_weak_0_split
I0105 19:22:49.150033 23955 net.cpp:394] fc8_weak_fc8_weak_0_split <- fc8_weak
I0105 19:22:49.150038 23955 net.cpp:356] fc8_weak_fc8_weak_0_split -> fc8_weak_fc8_weak_0_split_0
I0105 19:22:49.150058 23955 net.cpp:356] fc8_weak_fc8_weak_0_split -> fc8_weak_fc8_weak_0_split_1
I0105 19:22:49.150064 23955 net.cpp:356] fc8_weak_fc8_weak_0_split -> fc8_weak_fc8_weak_0_split_2
I0105 19:22:49.150069 23955 net.cpp:96] Setting up fc8_weak_fc8_weak_0_split
I0105 19:22:49.150074 23955 net.cpp:103] Top shape: 20 21 41 41 (706020)
I0105 19:22:49.150084 23955 net.cpp:103] Top shape: 20 21 41 41 (706020)
I0105 19:22:49.150087 23955 net.cpp:103] Top shape: 20 21 41 41 (706020)
I0105 19:22:49.150090 23955 layer_factory.hpp:78] Creating layer fc8_biased
I0105 19:22:49.150096 23955 net.cpp:67] Creating Layer fc8_biased
I0105 19:22:49.150105 23955 net.cpp:394] fc8_biased <- fc8_weak_fc8_weak_0_split_0
I0105 19:22:49.150110 23955 net.cpp:394] fc8_biased <- label_weak
I0105 19:22:49.150115 23955 net.cpp:356] fc8_biased -> fc8_biased
I0105 19:22:49.150120 23955 net.cpp:96] Setting up fc8_biased
I0105 19:22:49.150130 23955 net.cpp:103] Top shape: 20 21 41 41 (706020)
I0105 19:22:49.150132 23955 layer_factory.hpp:78] Creating layer label_estep
I0105 19:22:49.150137 23955 net.cpp:67] Creating Layer label_estep
I0105 19:22:49.150141 23955 net.cpp:394] label_estep <- fc8_biased
I0105 19:22:49.150144 23955 net.cpp:356] label_estep -> label_estep
I0105 19:22:49.150149 23955 net.cpp:96] Setting up label_estep
I0105 19:22:49.150152 23955 net.cpp:103] Top shape: 20 1 41 41 (33620)
I0105 19:22:49.150156 23955 layer_factory.hpp:78] Creating layer loss
I0105 19:22:49.150164 23955 net.cpp:67] Creating Layer loss
I0105 19:22:49.150167 23955 net.cpp:394] loss <- fc8_weak_fc8_weak_0_split_1
I0105 19:22:49.150171 23955 net.cpp:394] loss <- label_estep
I0105 19:22:49.150184 23955 net.cpp:356] loss -> (automatic)
I0105 19:22:49.150192 23955 net.cpp:96] Setting up loss
I0105 19:22:49.150204 23955 softmax_loss_layer.cpp:40] Weight_Loss file is not provided. Assign all one to it.
I0105 19:22:49.150213 23955 net.cpp:103] Top shape: 1 1 1 1 (1)
I0105 19:22:49.150218 23955 net.cpp:109]     with loss weight 1
I0105 19:22:49.150243 23955 layer_factory.hpp:78] Creating layer label_shrink
I0105 19:22:49.150250 23955 net.cpp:67] Creating Layer label_shrink
I0105 19:22:49.150254 23955 net.cpp:394] label_shrink <- label_strong_data_1_split_1
I0105 19:22:49.150259 23955 net.cpp:356] label_shrink -> label_shrink
I0105 19:22:49.150265 23955 net.cpp:96] Setting up label_shrink
I0105 19:22:49.150269 23955 net.cpp:103] Top shape: 20 1 41 41 (33620)
I0105 19:22:49.150272 23955 layer_factory.hpp:78] Creating layer accuracy
I0105 19:22:49.150279 23955 net.cpp:67] Creating Layer accuracy
I0105 19:22:49.150296 23955 net.cpp:394] accuracy <- fc8_weak_fc8_weak_0_split_2
I0105 19:22:49.150301 23955 net.cpp:394] accuracy <- label_shrink
I0105 19:22:49.150306 23955 net.cpp:356] accuracy -> accuracy
I0105 19:22:49.150310 23955 net.cpp:96] Setting up accuracy
I0105 19:22:49.150322 23955 net.cpp:103] Top shape: 1 1 1 3 (3)
I0105 19:22:49.150326 23955 net.cpp:172] accuracy does not need backward computation.
I0105 19:22:49.150331 23955 net.cpp:172] label_shrink does not need backward computation.
I0105 19:22:49.150333 23955 net.cpp:170] loss needs backward computation.
I0105 19:22:49.150337 23955 net.cpp:170] label_estep needs backward computation.
I0105 19:22:49.150341 23955 net.cpp:170] fc8_biased needs backward computation.
…
